…
I1226 17:04:56.044622 14151 net.cpp:322] The NetState phase (0) differed from the phase (1) specified by a rule in layer data
I1226 17:04:56.045199 14151 net.cpp:58] Initializing net from parameters: 
name: "Face-ResNet"
state {
  phase: TRAIN
  level: 0
  stage: ""
}
layer {
  name: "data"
  type: "Data"
  top: "data"
  top: "label"
  include {
    phase: TRAIN
  }
  transform_param {
    scale: 0.0078125
    mirror: true
    mean_value: 127.5
    mean_value: 127.5
    mean_value: 127.5
  }
  data_param {
    source: "/home/licheng/face_data/face_lmdb_data/train_lmdb"
    batch_size: 64
    backend: LMDB
  }
}
layer {
  name: "conv1a"
  type: "Convolution"
  bottom: "data"
  top: "conv1a"
  param {
    lr_mult: 1
    decay_mult: 1
  }
  param {
    lr_mult: 2
    decay_mult: 0
  }
  convolution_param {
    num_output: 32
    kernel_size: 3
    stride: 1
    weight_filler {
      type: "xavier"
    }
    bias_filler {
      type: "constant"
      value: 0
    }
  }
}
layer {
  name: "relu1a"
  type: "PReLU"
  bottom: "conv1a"
  top: "conv1a"
}
layer {
  name: "conv1b"
  type: "Convolution"
  bottom: "conv1a"
  top: "conv1b"
  param {
    lr_mult: 1
    decay_mult: 1
  }
  param {
    lr_mult: 2
    decay_mult: 0
  }
  convolution_param {
    num_output: 64
    kernel_size: 3
    stride: 1
    weight_filler {
      type: "xavier"
    }
    bias_filler {
      type: "constant"
      value: 0
    }
  }
}
layer {
  name: "relu1b"
  type: "PReLU"
  bottom: "conv1b"
  top: "conv1b"
}
layer {
  name: "pool1b"
  type: "Pooling"
  bottom: "conv1b"
  top: "pool1b"
  pooling_param {
    pool: MAX
    kernel_size: 2
    stride: 2
  }
}
layer {
  name: "conv2_1"
  type: "Convolution"
  bottom: "pool1b"
  top: "conv2_1"
  param {
    lr_mult: 1
    decay_mult: 1
  }
  param {
    lr_mult: 2
    decay_mult: 0
  }
  convolution_param {
    num_output: 64
    pad: 1
    kernel_size: 3
    stride: 1
    weight_filler {
      type: "gaussian"
      std: 0.01
    }
    bias_filler {
      type: "constant"
      value: 0
    }
  }
}
layer {
  name: "relu2_1"
  type: "PReLU"
  bottom: "conv2_1"
  top: "conv2_1"
}
layer {
  name: "conv2_2"
  type: "Convolution"
  bottom: "conv2_1"
  top: "conv2_2"
  param {
    lr_mult: 1
    decay_mult: 1
  }
  param {
    lr_mult: 2
    decay_mult: 0
  }
  convolution_param {
    num_output: 64
    pad: 1
    kernel_size: 3
    stride: 1
    weight_filler {
      type: "gaussian"
      std: 0.01
    }
    bias_filler {
      type: "constant"
      value: 0
    }
  }
}
layer {
  name: "relu2_2"
  type: "PReLU"
  bottom: "conv2_2"
  top: "conv2_2"
}
layer {
  name: "res2_2"
  type: "Eltwise"
  bottom: "pool1b"
  bottom: "conv2_2"
  top: "res2_2"
  eltwise_param {
    operation: SUM
  }
}
layer {
  name: "conv2"
  type: "Convolution"
  bottom: "res2_2"
  top: "conv2"
  param {
    lr_mult: 1
    decay_mult: 1
  }
  param {
    lr_mult: 2
    decay_mult: 0
  }
  convolution_param {
    num_output: 128
    kernel_size: 3
    stride: 1
    weight_filler {
      type: "xavier"
    }
    bias_filler {
      type: "constant"
      value: 0
    }
  }
}
layer {
  name: "relu2"
  type: "PReLU"
  bottom: "conv2"
  top: "conv2"
}
layer {
  name: "pool2"
  type: "Pooling"
  bottom: "conv2"
  top: "pool2"
  pooling_param {
    pool: MAX
    kernel_size: 2
    stride: 2
  }
}
layer {
  name: "conv3_1"
  type: "Convolution"
  bottom: "pool2"
  top: "conv3_1"
  param {
    lr_mult: 1
    decay_mult: 1
  }
  param {
    lr_mult: 2
    decay_mult: 0
  }
  convolution_param {
    num_output: 128
    pad: 1
    kernel_size: 3
    stride: 1
    weight_filler {
      type: "gaussian"
      std: 0.01
    }
    bias_filler {
      type: "constant"
      value: 0
    }
  }
}
layer {
  name: "relu3_1"
  type: "PReLU"
  bottom: "conv3_1"
  top: "conv3_1"
}
layer {
  name: "conv3_2"
  type: "Convolution"
  bottom: "conv3_1"
  top: "conv3_2"
  param {
    lr_mult: 1
    decay_mult: 1
  }
  param {
    lr_mult: 2
    decay_mult: 0
  }
  convolution_param {
    num_output: 128
    pad: 1
    kernel_size: 3
    stride: 1
    weight_filler {
      type: "gaussian"
      std: 0.01
    }
    bias_filler {
      type: "constant"
      value: 0
    }
  }
}
layer {
  name: "relu3_2"
  type: "PReLU"
  bottom: "conv3_2"
  top: "conv3_2"
}
layer {
  name: "res3_2"
  type: "Eltwise"
  bottom: "pool2"
  bottom: "conv3_2"
  top: "res3_2"
  eltwise_param {
    operation: SUM
  }
}
layer {
  name: "conv3_3"
  type: "Convolution"
  bottom: "res3_2"
  top: "conv3_3"
  param {
    lr_mult: 1
    decay_mult: 1
  }
  param {
    lr_mult: 2
    decay_mult: 0
  }
  convolution_param {
    num_output: 128
    pad: 1
    kernel_size: 3
    stride: 1
    weight_filler {
      type: "gaussian"
      std: 0.01
    }
    bias_filler {
      type: "constant"
      value: 0
    }
  }
}
layer {
  name: "relu3_3"
  type: "PReLU"
  bottom: "conv3_3"
  top: "conv3_3"
}
layer {
  name: "conv3_4"
  type: "Convolution"
  bottom: "conv3_3"
  top: "conv3_4"
  param {
    lr_mult: 1
    decay_mult: 1
  }
  param {
    lr_mult: 2
    decay_mult: 0
  }
  convolution_param {
    num_output: 128
    pad: 1
    kernel_size: 3
    stride: 1
    weight_filler {
      type: "gaussian"
      std: 0.01
    }
    bias_filler {
      type: "constant"
      value: 0
    }
  }
}
layer {
  name: "relu3_4"
  type: "PReLU"
  bottom: "conv3_4"
  top: "conv3_4"
}
layer {
  name: "res3_4"
  type: "Eltwise"
  bottom: "res3_2"
  bottom: "conv3_4"
  top: "res3_4"
  eltwise_param {
    operation: SUM
  }
}
layer {
  name: "conv3"
  type: "Convolution"
  bottom: "res3_4"
  top: "conv3"
  param {
    lr_mult: 1
    decay_mult: 1
  }
  param {
    lr_mult: 2
    decay_mult: 0
  }
  convolution_param {
    num_output: 256
    kernel_size: 3
    stride: 1
    weight_filler {
      type: "xavier"
    }
    bias_filler {
      type: "constant"
      value: 0
    }
  }
}
layer {
  name: "relu3"
  type: "PReLU"
  bottom: "conv3"
  top: "conv3"
}
layer {
  name: "pool3"
  type: "Pooling"
  bottom: "conv3"
  top: "pool3"
  pooling_param {
    pool: MAX
    kernel_size: 2
    stride: 2
  }
}
layer {
  name: "conv4_1"
  type: "Convolution"
  bottom: "pool3"
  top: "conv4_1"
  param {
    lr_mult: 1
    decay_mult: 1
  }
  param {
    lr_mult: 2
    decay_mult: 0
  }
  convolution_param {
    num_output: 256
    pad: 1
    kernel_size: 3
    stride: 1
    weight_filler {
      type: "gaussian"
      std: 0.01
    }
    bias_filler {
      type: "constant"
      value: 0
    }
  }
}
layer {
  name: "relu4_1"
  type: "PReLU"
  bottom: "conv4_1"
  top: "conv4_1"
}
layer {
  name: "conv4_2"
  type: "Convolution"
  bottom: "conv4_1"
  top: "conv4_2"
  param {
    lr_mult: 1
    decay_mult: 1
  }
  param {
    lr_mult: 2
    decay_mult: 0
  }
  convolution_param {
    num_output: 256
    pad: 1
    kernel_size: 3
    stride: 1
    weight_filler {
      type: "gaussian"
      std: 0.01
    }
    bias_filler {
      type: "constant"
      value: 0
    }
  }
}
layer {
  name: "relu4_2"
  type: "PReLU"
  bottom: "conv4_2"
  top: "conv4_2"
}
layer {
  name: "res4_2"
  type: "Eltwise"
  bottom: "pool3"
  bottom: "conv4_2"
  top: "res4_2"
  eltwise_param {
    operation: SUM
  }
}
layer {
  name: "conv4_3"
  type: "Convolution"
  bottom: "res4_2"
  top: "conv4_3"
  param {
    lr_mult: 1
    decay_mult: 1
  }
  param {
    lr_mult: 2
    decay_mult: 0
  }
  convolution_param {
    num_output: 256
    pad: 1
    kernel_size: 3
    stride: 1
    weight_filler {
      type: "gaussian"
      std: 0.01
    }
    bias_filler {
      type: "constant"
      value: 0
    }
  }
}
layer {
  name: "relu4_3"
  type: "PReLU"
  bottom: "conv4_3"
  top: "conv4_3"
}
layer {
  name: "conv4_4"
  type: "Convolution"
  bottom: "conv4_3"
  top: "conv4_4"
  param {
    lr_mult: 1
    decay_mult: 1
  }
  param {
    lr_mult: 2
    decay_mult: 0
  }
  convolution_param {
    num_output: 256
    pad: 1
    kernel_size: 3
    stride: 1
    weight_filler {
      type: "gaussian"
      std: 0.01
    }
    bias_filler {
      type: "constant"
      value: 0
    }
  }
}
layer {
  name: "relu4_4"
  type: "PReLU"
  bottom: "conv4_4"
  top: "conv4_4"
}
layer {
  name: "res4_4"
  type: "Eltwise"
  bottom: "res4_2"
  bottom: "conv4_4"
  top: "res4_4"
  eltwise_param {
    operation: SUM
  }
}
layer {
  name: "conv4_5"
  type: "Convolution"
  bottom: "res4_4"
  top: "conv4_5"
  param {
    lr_mult: 1
    decay_mult: 1
  }
  param {
    lr_mult: 2
    decay_mult: 0
  }
  convolution_param {
    num_output: 256
    pad: 1
    kernel_size: 3
    stride: 1
    weight_filler {
      type: "gaussian"
      std: 0.01
    }
    bias_filler {
      type: "constant"
      value: 0
    }
  }
}
layer {
  name: "relu4_5"
  type: "PReLU"
  bottom: "conv4_5"
  top: "conv4_5"
}
layer {
  name: "conv4_6"
  type: "Convolution"
  bottom: "conv4_5"
  top: "conv4_6"
  param {
    lr_mult: 1
    decay_mult: 1
  }
  param {
    lr_mult: 2
    decay_mult: 0
  }
  convolution_param {
    num_output: 256
    pad: 1
    kernel_size: 3
    stride: 1
    weight_filler {
      type: "gaussian"
      std: 0.01
    }
    bias_filler {
      type: "constant"
      value: 0
    }
  }
}
layer {
  name: "relu4_6"
  type: "PReLU"
  bottom: "conv4_6"
  top: "conv4_6"
}
layer {
  name: "res4_6"
  type: "Eltwise"
  bottom: "res4_4"
  bottom: "conv4_6"
  top: "res4_6"
  eltwise_param {
    operation: SUM
  }
}
layer {
  name: "conv4_7"
  type: "Convolution"
  bottom: "res4_6"
  top: "conv4_7"
  param {
    lr_mult: 1
    decay_mult: 1
  }
  param {
    lr_mult: 2
    decay_mult: 0
  }
  convolution_param {
    num_output: 256
    pad: 1
    kernel_size: 3
    stride: 1
    weight_filler {
      type: "gaussian"
      std: 0.01
    }
    bias_filler {
      type: "constant"
      value: 0
    }
  }
}
layer {
  name: "relu4_7"
  type: "PReLU"
  bottom: "conv4_7"
  top: "conv4_7"
}
layer {
  name: "conv4_8"
  type: "Convolution"
  bottom: "conv4_7"
  top: "conv4_8"
  param {
    lr_mult: 1
    decay_mult: 1
  }
  param {
    lr_mult: 2
    decay_mult: 0
  }
  convolution_param {
    num_output: 256
    pad: 1
    kernel_size: 3
    stride: 1
    weight_filler {
      type: "gaussian"
      std: 0.01
    }
    bias_filler {
      type: "constant"
      value: 0
    }
  }
}
layer {
  name: "relu4_8"
  type: "PReLU"
  bottom: "conv4_8"
  top: "conv4_8"
}
layer {
  name: "res4_8"
  type: "Eltwise"
  bottom: "res4_6"
  bottom: "conv4_8"
  top: "res4_8"
  eltwise_param {
    operation: SUM
  }
}
layer {
  name: "conv4_9"
  type: "Convolution"
  bottom: "res4_8"
  top: "conv4_9"
  param {
    lr_mult: 1
    decay_mult: 1
  }
  param {
    lr_mult: 2
    decay_mult: 0
  }
  convolution_param {
    num_output: 256
    pad: 1
    kernel_size: 3
    stride: 1
    weight_filler {
      type: "gaussian"
      std: 0.01
    }
    bias_filler {
      type: "constant"
      value: 0
    }
  }
}
layer {
  name: "relu4_9"
  type: "PReLU"
  bottom: "conv4_9"
  top: "conv4_9"
}
layer {
  name: "conv4_10"
  type: "Convolution"
  bottom: "conv4_9"
  top: "conv4_10"
  param {
    lr_mult: 1
    decay_mult: 1
  }
  param {
    lr_mult: 2
    decay_mult: 0
  }
  convolution_param {
    num_output: 256
    pad: 1
    kernel_size: 3
    stride: 1
    weight_filler {
      type: "gaussian"
      std: 0.01
    }
    bias_filler {
      type: "constant"
      value: 0
    }
  }
}
layer {
  name: "relu4_10"
  type: "PReLU"
  bottom: "conv4_10"
  top: "conv4_10"
}
layer {
  name: "res4_10"
  type: "Eltwise"
  bottom: "res4_8"
  bottom: "conv4_10"
  top: "res4_10"
  eltwise_param {
    operation: SUM
  }
}
layer {
  name: "conv4"
  type: "Convolution"
  bottom: "res4_10"
  top: "conv4"
  param {
    lr_mult: 1
    decay_mult: 1
  }
  param {
    lr_mult: 2
    decay_mult: 0
  }
  convolution_param {
    num_output: 512
    kernel_size: 3
    stride: 1
    weight_filler {
      type: "xavier"
    }
    bias_filler {
      type: "constant"
      value: 0
    }
  }
}
layer {
  name: "relu4"
  type: "PReLU"
  bottom: "conv4"
  top: "conv4"
}
layer {
  name: "pool4"
  type: "Pooling"
  bottom: "conv4"
  top: "pool4"
  pooling_param {
    pool: MAX
    kernel_size: 2
    stride: 2
  }
}
layer {
  name: "conv5_1"
  type: "Convolution"
  bottom: "pool4"
  top: "conv5_1"
  param {
    lr_mult: 1
    decay_mult: 1
  }
  param {
    lr_mult: 2
    decay_mult: 0
  }
  convolution_param {
    num_output: 512
    pad: 1
    kernel_size: 3
    stride: 1
    weight_filler {
      type: "gaussian"
      std: 0.01
    }
    bias_filler {
      type: "constant"
      value: 0
    }
  }
}
layer {
  name: "relu5_1"
  type: "PReLU"
  bottom: "conv5_1"
  top: "conv5_1"
}
layer {
  name: "conv5_2"
  type: "Convolution"
  bottom: "conv5_1"
  top: "conv5_2"
  param {
    lr_mult: 1
    decay_mult: 1
  }
  param {
    lr_mult: 2
    decay_mult: 0
  }
  convolution_param {
    num_output: 512
    pad: 1
    kernel_size: 3
    stride: 1
    weight_filler {
      type: "gaussian"
      std: 0.01
    }
    bias_filler {
      type: "constant"
      value: 0
    }
  }
}
layer {
  name: "relu5_2"
  type: "PReLU"
  bottom: "conv5_2"
  top: "conv5_2"
}
layer {
  name: "res5_2"
  type: "Eltwise"
  bottom: "pool4"
  bottom: "conv5_2"
  top: "res5_2"
  eltwise_param {
    operation: SUM
  }
}
layer {
  name: "conv5_3"
  type: "Convolution"
  bottom: "res5_2"
  top: "conv5_3"
  param {
    lr_mult: 1
    decay_mult: 1
  }
  param {
    lr_mult: 2
    decay_mult: 0
  }
  convolution_param {
    num_output: 512
    pad: 1
    kernel_size: 3
    stride: 1
    weight_filler {
      type: "gaussian"
      std: 0.01
    }
    bias_filler {
      type: "constant"
      value: 0
    }
  }
}
layer {
  name: "relu5_3"
  type: "PReLU"
  bottom: "conv5_3"
  top: "conv5_3"
}
layer {
  name: "conv5_4"
  type: "Convolution"
  bottom: "conv5_3"
  top: "conv5_4"
  param {
    lr_mult: 1
    decay_mult: 1
  }
  param {
    lr_mult: 2
    decay_mult: 0
  }
  convolution_param {
    num_output: 512
    pad: 1
    kernel_size: 3
    stride: 1
    weight_filler {
      type: "gaussian"
      std: 0.01
    }
    bias_filler {
      type: "constant"
      value: 0
    }
  }
}
layer {
  name: "relu5_4"
  type: "PReLU"
  bottom: "conv5_4"
  top: "conv5_4"
}
layer {
  name: "res5_4"
  type: "Eltwise"
  bottom: "res5_2"
  bottom: "conv5_4"
  top: "res5_4"
  eltwise_param {
    operation: SUM
  }
}
layer {
  name: "conv5_5"
  type: "Convolution"
  bottom: "res5_4"
  top: "conv5_5"
  param {
    lr_mult: 1
    decay_mult: 1
  }
  param {
    lr_mult: 2
    decay_mult: 0
  }
  convolution_param {
    num_output: 512
    pad: 1
    kernel_size: 3
    stride: 1
    weight_filler {
      type: "gaussian"
      std: 0.01
    }
    bias_filler {
      type: "constant"
      value: 0
    }
  }
}
layer {
  name: "relu5_5"
  type: "PReLU"
  bottom: "conv5_5"
  top: "conv5_5"
}
layer {
  name: "conv5_6"
  type: "Convolution"
  bottom: "conv5_5"
  top: "conv5_6"
  param {
    lr_mult: 1
    decay_mult: 1
  }
  param {
    lr_mult: 2
    decay_mult: 0
  }
  convolution_param {
    num_output: 512
    pad: 1
    kernel_size: 3
    stride: 1
    weight_filler {
      type: "gaussian"
      std: 0.01
    }
    bias_filler {
      type: "constant"
      value: 0
    }
  }
}
layer {
  name: "relu5_6"
  type: "PReLU"
  bottom: "conv5_6"
  top: "conv5_6"
}
layer {
  name: "res5_6"
  type: "Eltwise"
  bottom: "res5_4"
  bottom: "conv5_6"
  top: "res5_6"
  eltwise_param {
    operation: SUM
  }
}
layer {
  name: "fc5"
  type: "InnerProduct"
  bottom: "res5_6"
  top: "fc5"
  param {
    lr_mult: 1
    decay_mult: 1
  }
  param {
    lr_mult: 2
    decay_mult: 0
  }
  inner_product_param {
    num_output: 512
    weight_filler {
      type: "xavier"
    }
    bias_filler {
      type: "constant"
      value: 0
    }
  }
}
layer {
  name: "fc6"
  type: "InnerProduct"
  bottom: "fc5"
  top: "fc6"
  param {
    lr_mult: 1
    decay_mult: 1
  }
  param {
    lr_mult: 2
    decay_mult: 0
  }
  inner_product_param {
    num_output: 43074
    weight_filler {
      type: "xavier"
    }
    bias_filler {
      type: "constant"
      value: 0
    }
  }
}
layer {
  name: "softmax"
  type: "Softmax"
  bottom: "fc6"
  top: "prob"
}
layer {
  name: "accuracy"
  type: "Accuracy"
  bottom: "prob"
  bottom: "label"
  top: "accuracy"
}
layer {
  name: "softmax_loss"
  type: "SoftmaxWithLoss"
  bottom: "fc6"
  bottom: "label"
  top: "softmax_loss"
}
layer {
  name: "center_loss"
  type: "CenterLoss"
  bottom: "fc5"
  bottom: "label"
  top: "center_loss"
  loss_weight: 0.003
  param {
    lr_mult: 1
    decay_mult: 2
  }
  center_loss_param {
    num_output: 43074
    center_filler {
      type: "xavier"
    }
  }
}
I1226 17:04:56.045686 14151 layer_factory.hpp:77] Creating layer data
I1226 17:04:56.046749 14151 net.cpp:100] Creating Layer data
I1226 17:04:56.046783 14151 net.cpp:408] data -> data
I1226 17:04:56.046823 14151 net.cpp:408] data -> label
I1226 17:04:56.049022 14183 db_lmdb.cpp:35] Opened lmdb /home/licheng/face_data/face_lmdb_data/train_lmdb
I1226 17:04:56.068081 14151 data_layer.cpp:41] output data size: 64,3,112,96
I1226 17:04:56.088865 14151 net.cpp:150] Setting up data
I1226 17:04:56.088932 14151 net.cpp:157] Top shape: 64 3 112 96 (2064384)
I1226 17:04:56.088940 14151 net.cpp:157] Top shape: 64 (64)
I1226 17:04:56.088945 14151 net.cpp:165] Memory required for data: 8257792
I1226 17:04:56.088959 14151 layer_factory.hpp:77] Creating layer label_data_1_split
I1226 17:04:56.088980 14151 net.cpp:100] Creating Layer label_data_1_split
I1226 17:04:56.088989 14151 net.cpp:434] label_data_1_split <- label
I1226 17:04:56.089010 14151 net.cpp:408] label_data_1_split -> label_data_1_split_0
I1226 17:04:56.089023 14151 net.cpp:408] label_data_1_split -> label_data_1_split_1
I1226 17:04:56.089032 14151 net.cpp:408] label_data_1_split -> label_data_1_split_2
I1226 17:04:56.089115 14151 net.cpp:150] Setting up label_data_1_split
I1226 17:04:56.089128 14151 net.cpp:157] Top shape: 64 (64)
I1226 17:04:56.089134 14151 net.cpp:157] Top shape: 64 (64)
I1226 17:04:56.089139 14151 net.cpp:157] Top shape: 64 (64)
I1226 17:04:56.089144 14151 net.cpp:165] Memory required for data: 8258560
I1226 17:04:56.089150 14151 layer_factory.hpp:77] Creating layer conv1a
I1226 17:04:56.089179 14151 net.cpp:100] Creating Layer conv1a
I1226 17:04:56.089186 14151 net.cpp:434] conv1a <- data
I1226 17:04:56.089195 14151 net.cpp:408] conv1a -> conv1a
I1226 17:04:56.091961 14151 net.cpp:150] Setting up conv1a
I1226 17:04:56.091981 14151 net.cpp:157] Top shape: 64 32 110 94 (21176320)
I1226 17:04:56.091987 14151 net.cpp:165] Memory required for data: 92963840
I1226 17:04:56.092006 14151 layer_factory.hpp:77] Creating layer relu1a
I1226 17:04:56.092016 14151 net.cpp:100] Creating Layer relu1a
I1226 17:04:56.092022 14151 net.cpp:434] relu1a <- conv1a
I1226 17:04:56.092031 14151 net.cpp:395] relu1a -> conv1a (in-place)
I1226 17:04:56.094229 14151 net.cpp:150] Setting up relu1a
I1226 17:04:56.094255 14151 net.cpp:157] Top shape: 64 32 110 94 (21176320)
I1226 17:04:56.094262 14151 net.cpp:165] Memory required for data: 177669120
I1226 17:04:56.094274 14151 layer_factory.hpp:77] Creating layer conv1b
I1226 17:04:56.094293 14151 net.cpp:100] Creating Layer conv1b
I1226 17:04:56.094300 14151 net.cpp:434] conv1b <- conv1a
I1226 17:04:56.094310 14151 net.cpp:408] conv1b -> conv1b
I1226 17:04:56.094385 14184 blocking_queue.cpp:50] Waiting for data
I1226 17:04:56.096442 14151 net.cpp:150] Setting up conv1b
I1226 17:04:56.096527 14151 net.cpp:157] Top shape: 64 64 108 92 (40697856)
I1226 17:04:56.096571 14151 net.cpp:165] Memory required for data: 340460544
I1226 17:04:56.096597 14151 layer_factory.hpp:77] Creating layer relu1b
I1226 17:04:56.096621 14151 net.cpp:100] Creating Layer relu1b
I1226 17:04:56.096633 14151 net.cpp:434] relu1b <- conv1b
I1226 17:04:56.096648 14151 net.cpp:395] relu1b -> conv1b (in-place)
I1226 17:04:56.101498 14151 net.cpp:150] Setting up relu1b
I1226 17:04:56.101539 14151 net.cpp:157] Top shape: 64 64 108 92 (40697856)
I1226 17:04:56.101550 14151 net.cpp:165] Memory required for data: 503251968
I1226 17:04:56.101567 14151 layer_factory.hpp:77] Creating layer pool1b
I1226 17:04:56.101593 14151 net.cpp:100] Creating Layer pool1b
I1226 17:04:56.101604 14151 net.cpp:434] pool1b <- conv1b
I1226 17:04:56.101622 14151 net.cpp:408] pool1b -> pool1b
I1226 17:04:56.101747 14151 net.cpp:150] Setting up pool1b
I1226 17:04:56.101763 14151 net.cpp:157] Top shape: 64 64 54 46 (10174464)
I1226 17:04:56.101773 14151 net.cpp:165] Memory required for data: 543949824
I1226 17:04:56.101783 14151 layer_factory.hpp:77] Creating layer pool1b_pool1b_0_split
I1226 17:04:56.101796 14151 net.cpp:100] Creating Layer pool1b_pool1b_0_split
I1226 17:04:56.101807 14151 net.cpp:434] pool1b_pool1b_0_split <- pool1b
I1226 17:04:56.101824 14151 net.cpp:408] pool1b_pool1b_0_split -> pool1b_pool1b_0_split_0
I1226 17:04:56.101841 14151 net.cpp:408] pool1b_pool1b_0_split -> pool1b_pool1b_0_split_1
I1226 17:04:56.101910 14151 net.cpp:150] Setting up pool1b_pool1b_0_split
I1226 17:04:56.101933 14151 net.cpp:157] Top shape: 64 64 54 46 (10174464)
I1226 17:04:56.101945 14151 net.cpp:157] Top shape: 64 64 54 46 (10174464)
I1226 17:04:56.101954 14151 net.cpp:165] Memory required for data: 625345536
I1226 17:04:56.101964 14151 layer_factory.hpp:77] Creating layer conv2_1
I1226 17:04:56.101992 14151 net.cpp:100] Creating Layer conv2_1
I1226 17:04:56.102003 14151 net.cpp:434] conv2_1 <- pool1b_pool1b_0_split_0
I1226 17:04:56.102020 14151 net.cpp:408] conv2_1 -> conv2_1
I1226 17:04:56.106904 14151 net.cpp:150] Setting up conv2_1
I1226 17:04:56.106935 14151 net.cpp:157] Top shape: 64 64 54 46 (10174464)
I1226 17:04:56.106941 14151 net.cpp:165] Memory required for data: 666043392
I1226 17:04:56.106953 14151 layer_factory.hpp:77] Creating layer relu2_1
I1226 17:04:56.106963 14151 net.cpp:100] Creating Layer relu2_1
I1226 17:04:56.106971 14151 net.cpp:434] relu2_1 <- conv2_1
I1226 17:04:56.106978 14151 net.cpp:395] relu2_1 -> conv2_1 (in-place)
I1226 17:04:56.107264 14151 net.cpp:150] Setting up relu2_1
I1226 17:04:56.107276 14151 net.cpp:157] Top shape: 64 64 54 46 (10174464)
I1226 17:04:56.107280 14151 net.cpp:165] Memory required for data: 706741248
I1226 17:04:56.107291 14151 layer_factory.hpp:77] Creating layer conv2_2
I1226 17:04:56.107307 14151 net.cpp:100] Creating Layer conv2_2
I1226 17:04:56.107312 14151 net.cpp:434] conv2_2 <- conv2_1
I1226 17:04:56.107324 14151 net.cpp:408] conv2_2 -> conv2_2
I1226 17:04:56.108687 14151 net.cpp:150] Setting up conv2_2
I1226 17:04:56.108700 14151 net.cpp:157] Top shape: 64 64 54 46 (10174464)
I1226 17:04:56.108705 14151 net.cpp:165] Memory required for data: 747439104
I1226 17:04:56.108712 14151 layer_factory.hpp:77] Creating layer relu2_2
I1226 17:04:56.108721 14151 net.cpp:100] Creating Layer relu2_2
I1226 17:04:56.108727 14151 net.cpp:434] relu2_2 <- conv2_2
I1226 17:04:56.108733 14151 net.cpp:395] relu2_2 -> conv2_2 (in-place)
I1226 17:04:56.110669 14151 net.cpp:150] Setting up relu2_2
I1226 17:04:56.110688 14151 net.cpp:157] Top shape: 64 64 54 46 (10174464)
I1226 17:04:56.110694 14151 net.cpp:165] Memory required for data: 788136960
I1226 17:04:56.110702 14151 layer_factory.hpp:77] Creating layer res2_2
I1226 17:04:56.110718 14151 net.cpp:100] Creating Layer res2_2
I1226 17:04:56.110724 14151 net.cpp:434] res2_2 <- pool1b_pool1b_0_split_1
I1226 17:04:56.110731 14151 net.cpp:434] res2_2 <- conv2_2
I1226 17:04:56.110738 14151 net.cpp:408] res2_2 -> res2_2
I1226 17:04:56.110775 14151 net.cpp:150] Setting up res2_2
I1226 17:04:56.110790 14151 net.cpp:157] Top shape: 64 64 54 46 (10174464)
I1226 17:04:56.110813 14151 net.cpp:165] Memory required for data: 828834816
I1226 17:04:56.110818 14151 layer_factory.hpp:77] Creating layer conv2
I1226 17:04:56.110832 14151 net.cpp:100] Creating Layer conv2
I1226 17:04:56.110838 14151 net.cpp:434] conv2 <- res2_2
I1226 17:04:56.110846 14151 net.cpp:408] conv2 -> conv2
I1226 17:04:56.111526 14151 net.cpp:150] Setting up conv2
I1226 17:04:56.111539 14151 net.cpp:157] Top shape: 64 128 52 44 (18743296)
I1226 17:04:56.111544 14151 net.cpp:165] Memory required for data: 903808000
I1226 17:04:56.111552 14151 layer_factory.hpp:77] Creating layer relu2
I1226 17:04:56.111559 14151 net.cpp:100] Creating Layer relu2
I1226 17:04:56.111565 14151 net.cpp:434] relu2 <- conv2
I1226 17:04:56.111572 14151 net.cpp:395] relu2 -> conv2 (in-place)
I1226 17:04:56.113265 14151 net.cpp:150] Setting up relu2
I1226 17:04:56.113284 14151 net.cpp:157] Top shape: 64 128 52 44 (18743296)
I1226 17:04:56.113291 14151 net.cpp:165] Memory required for data: 978781184
I1226 17:04:56.113297 14151 layer_factory.hpp:77] Creating layer pool2
I1226 17:04:56.113308 14151 net.cpp:100] Creating Layer pool2
I1226 17:04:56.113314 14151 net.cpp:434] pool2 <- conv2
I1226 17:04:56.113324 14151 net.cpp:408] pool2 -> pool2
I1226 17:04:56.113373 14151 net.cpp:150] Setting up pool2
I1226 17:04:56.113380 14151 net.cpp:157] Top shape: 64 128 26 22 (4685824)
I1226 17:04:56.113385 14151 net.cpp:165] Memory required for data: 997524480
I1226 17:04:56.113389 14151 layer_factory.hpp:77] Creating layer pool2_pool2_0_split
I1226 17:04:56.113401 14151 net.cpp:100] Creating Layer pool2_pool2_0_split
I1226 17:04:56.113406 14151 net.cpp:434] pool2_pool2_0_split <- pool2
I1226 17:04:56.113415 14151 net.cpp:408] pool2_pool2_0_split -> pool2_pool2_0_split_0
I1226 17:04:56.113423 14151 net.cpp:408] pool2_pool2_0_split -> pool2_pool2_0_split_1
I1226 17:04:56.113462 14151 net.cpp:150] Setting up pool2_pool2_0_split
I1226 17:04:56.113471 14151 net.cpp:157] Top shape: 64 128 26 22 (4685824)
I1226 17:04:56.113477 14151 net.cpp:157] Top shape: 64 128 26 22 (4685824)
I1226 17:04:56.113481 14151 net.cpp:165] Memory required for data: 1035011072
I1226 17:04:56.113487 14151 layer_factory.hpp:77] Creating layer conv3_1
I1226 17:04:56.113499 14151 net.cpp:100] Creating Layer conv3_1
I1226 17:04:56.113505 14151 net.cpp:434] conv3_1 <- pool2_pool2_0_split_0
I1226 17:04:56.113513 14151 net.cpp:408] conv3_1 -> conv3_1
I1226 17:04:56.118191 14151 net.cpp:150] Setting up conv3_1
I1226 17:04:56.118203 14151 net.cpp:157] Top shape: 64 128 26 22 (4685824)
I1226 17:04:56.118208 14151 net.cpp:165] Memory required for data: 1053754368
I1226 17:04:56.118222 14151 layer_factory.hpp:77] Creating layer relu3_1
I1226 17:04:56.118230 14151 net.cpp:100] Creating Layer relu3_1
I1226 17:04:56.118235 14151 net.cpp:434] relu3_1 <- conv3_1
I1226 17:04:56.118244 14151 net.cpp:395] relu3_1 -> conv3_1 (in-place)
I1226 17:04:56.118384 14151 net.cpp:150] Setting up relu3_1
I1226 17:04:56.118393 14151 net.cpp:157] Top shape: 64 128 26 22 (4685824)
I1226 17:04:56.118398 14151 net.cpp:165] Memory required for data: 1072497664
I1226 17:04:56.118404 14151 layer_factory.hpp:77] Creating layer conv3_2
I1226 17:04:56.118417 14151 net.cpp:100] Creating Layer conv3_2
I1226 17:04:56.118423 14151 net.cpp:434] conv3_2 <- conv3_1
I1226 17:04:56.118432 14151 net.cpp:408] conv3_2 -> conv3_2
I1226 17:04:56.123152 14151 net.cpp:150] Setting up conv3_2
I1226 17:04:56.123165 14151 net.cpp:157] Top shape: 64 128 26 22 (4685824)
I1226 17:04:56.123170 14151 net.cpp:165] Memory required for data: 1091240960
I1226 17:04:56.123178 14151 layer_factory.hpp:77] Creating layer relu3_2
I1226 17:04:56.123186 14151 net.cpp:100] Creating Layer relu3_2
I1226 17:04:56.123193 14151 net.cpp:434] relu3_2 <- conv3_2
I1226 17:04:56.123200 14151 net.cpp:395] relu3_2 -> conv3_2 (in-place)
I1226 17:04:56.123358 14151 net.cpp:150] Setting up relu3_2
I1226 17:04:56.123366 14151 net.cpp:157] Top shape: 64 128 26 22 (4685824)
I1226 17:04:56.123380 14151 net.cpp:165] Memory required for data: 1109984256
I1226 17:04:56.123406 14151 layer_factory.hpp:77] Creating layer res3_2
I1226 17:04:56.123419 14151 net.cpp:100] Creating Layer res3_2
I1226 17:04:56.123425 14151 net.cpp:434] res3_2 <- pool2_pool2_0_split_1
I1226 17:04:56.123430 14151 net.cpp:434] res3_2 <- conv3_2
I1226 17:04:56.123436 14151 net.cpp:408] res3_2 -> res3_2
I1226 17:04:56.123466 14151 net.cpp:150] Setting up res3_2
I1226 17:04:56.123473 14151 net.cpp:157] Top shape: 64 128 26 22 (4685824)
I1226 17:04:56.123477 14151 net.cpp:165] Memory required for data: 1128727552
I1226 17:04:56.123482 14151 layer_factory.hpp:77] Creating layer res3_2_res3_2_0_split
I1226 17:04:56.123491 14151 net.cpp:100] Creating Layer res3_2_res3_2_0_split
I1226 17:04:56.123495 14151 net.cpp:434] res3_2_res3_2_0_split <- res3_2
I1226 17:04:56.123504 14151 net.cpp:408] res3_2_res3_2_0_split -> res3_2_res3_2_0_split_0
I1226 17:04:56.123512 14151 net.cpp:408] res3_2_res3_2_0_split -> res3_2_res3_2_0_split_1
I1226 17:04:56.123546 14151 net.cpp:150] Setting up res3_2_res3_2_0_split
I1226 17:04:56.123554 14151 net.cpp:157] Top shape: 64 128 26 22 (4685824)
I1226 17:04:56.123560 14151 net.cpp:157] Top shape: 64 128 26 22 (4685824)
I1226 17:04:56.123564 14151 net.cpp:165] Memory required for data: 1166214144
I1226 17:04:56.123569 14151 layer_factory.hpp:77] Creating layer conv3_3
I1226 17:04:56.123589 14151 net.cpp:100] Creating Layer conv3_3
I1226 17:04:56.123594 14151 net.cpp:434] conv3_3 <- res3_2_res3_2_0_split_0
I1226 17:04:56.123601 14151 net.cpp:408] conv3_3 -> conv3_3
I1226 17:04:56.129938 14151 net.cpp:150] Setting up conv3_3
I1226 17:04:56.129962 14151 net.cpp:157] Top shape: 64 128 26 22 (4685824)
I1226 17:04:56.129967 14151 net.cpp:165] Memory required for data: 1184957440
I1226 17:04:56.129977 14151 layer_factory.hpp:77] Creating layer relu3_3
I1226 17:04:56.129987 14151 net.cpp:100] Creating Layer relu3_3
I1226 17:04:56.129993 14151 net.cpp:434] relu3_3 <- conv3_3
I1226 17:04:56.130002 14151 net.cpp:395] relu3_3 -> conv3_3 (in-place)
I1226 17:04:56.130151 14151 net.cpp:150] Setting up relu3_3
I1226 17:04:56.130162 14151 net.cpp:157] Top shape: 64 128 26 22 (4685824)
I1226 17:04:56.130167 14151 net.cpp:165] Memory required for data: 1203700736
I1226 17:04:56.130173 14151 layer_factory.hpp:77] Creating layer conv3_4
I1226 17:04:56.130187 14151 net.cpp:100] Creating Layer conv3_4
I1226 17:04:56.130192 14151 net.cpp:434] conv3_4 <- conv3_3
I1226 17:04:56.130203 14151 net.cpp:408] conv3_4 -> conv3_4
I1226 17:04:56.134886 14151 net.cpp:150] Setting up conv3_4
I1226 17:04:56.134901 14151 net.cpp:157] Top shape: 64 128 26 22 (4685824)
I1226 17:04:56.134905 14151 net.cpp:165] Memory required for data: 1222444032
I1226 17:04:56.134912 14151 layer_factory.hpp:77] Creating layer relu3_4
I1226 17:04:56.134925 14151 net.cpp:100] Creating Layer relu3_4
I1226 17:04:56.134932 14151 net.cpp:434] relu3_4 <- conv3_4
I1226 17:04:56.134938 14151 net.cpp:395] relu3_4 -> conv3_4 (in-place)
I1226 17:04:56.135088 14151 net.cpp:150] Setting up relu3_4
I1226 17:04:56.135099 14151 net.cpp:157] Top shape: 64 128 26 22 (4685824)
I1226 17:04:56.135104 14151 net.cpp:165] Memory required for data: 1241187328
I1226 17:04:56.135110 14151 layer_factory.hpp:77] Creating layer res3_4
I1226 17:04:56.135119 14151 net.cpp:100] Creating Layer res3_4
I1226 17:04:56.135126 14151 net.cpp:434] res3_4 <- res3_2_res3_2_0_split_1
I1226 17:04:56.135133 14151 net.cpp:434] res3_4 <- conv3_4
I1226 17:04:56.135140 14151 net.cpp:408] res3_4 -> res3_4
I1226 17:04:56.135165 14151 net.cpp:150] Setting up res3_4
I1226 17:04:56.135175 14151 net.cpp:157] Top shape: 64 128 26 22 (4685824)
I1226 17:04:56.135180 14151 net.cpp:165] Memory required for data: 1259930624
I1226 17:04:56.135185 14151 layer_factory.hpp:77] Creating layer conv3
I1226 17:04:56.135195 14151 net.cpp:100] Creating Layer conv3
I1226 17:04:56.135200 14151 net.cpp:434] conv3 <- res3_4
I1226 17:04:56.135211 14151 net.cpp:408] conv3 -> conv3
I1226 17:04:56.138833 14151 net.cpp:150] Setting up conv3
I1226 17:04:56.138861 14151 net.cpp:157] Top shape: 64 256 24 20 (7864320)
I1226 17:04:56.138885 14151 net.cpp:165] Memory required for data: 1291387904
I1226 17:04:56.138893 14151 layer_factory.hpp:77] Creating layer relu3
I1226 17:04:56.138905 14151 net.cpp:100] Creating Layer relu3
I1226 17:04:56.138911 14151 net.cpp:434] relu3 <- conv3
I1226 17:04:56.138917 14151 net.cpp:395] relu3 -> conv3 (in-place)
I1226 17:04:56.139099 14151 net.cpp:150] Setting up relu3
I1226 17:04:56.139111 14151 net.cpp:157] Top shape: 64 256 24 20 (7864320)
I1226 17:04:56.139116 14151 net.cpp:165] Memory required for data: 1322845184
I1226 17:04:56.139122 14151 layer_factory.hpp:77] Creating layer pool3
I1226 17:04:56.139133 14151 net.cpp:100] Creating Layer pool3
I1226 17:04:56.139138 14151 net.cpp:434] pool3 <- conv3
I1226 17:04:56.139147 14151 net.cpp:408] pool3 -> pool3
I1226 17:04:56.139186 14151 net.cpp:150] Setting up pool3
I1226 17:04:56.139194 14151 net.cpp:157] Top shape: 64 256 12 10 (1966080)
I1226 17:04:56.139199 14151 net.cpp:165] Memory required for data: 1330709504
I1226 17:04:56.139204 14151 layer_factory.hpp:77] Creating layer pool3_pool3_0_split
I1226 17:04:56.139214 14151 net.cpp:100] Creating Layer pool3_pool3_0_split
I1226 17:04:56.139219 14151 net.cpp:434] pool3_pool3_0_split <- pool3
I1226 17:04:56.139225 14151 net.cpp:408] pool3_pool3_0_split -> pool3_pool3_0_split_0
I1226 17:04:56.139232 14151 net.cpp:408] pool3_pool3_0_split -> pool3_pool3_0_split_1
I1226 17:04:56.139268 14151 net.cpp:150] Setting up pool3_pool3_0_split
I1226 17:04:56.139276 14151 net.cpp:157] Top shape: 64 256 12 10 (1966080)
I1226 17:04:56.139281 14151 net.cpp:157] Top shape: 64 256 12 10 (1966080)
I1226 17:04:56.139286 14151 net.cpp:165] Memory required for data: 1346438144
I1226 17:04:56.139292 14151 layer_factory.hpp:77] Creating layer conv4_1
I1226 17:04:56.139310 14151 net.cpp:100] Creating Layer conv4_1
I1226 17:04:56.139315 14151 net.cpp:434] conv4_1 <- pool3_pool3_0_split_0
I1226 17:04:56.139324 14151 net.cpp:408] conv4_1 -> conv4_1
I1226 17:04:56.174230 14151 net.cpp:150] Setting up conv4_1
I1226 17:04:56.174295 14151 net.cpp:157] Top shape: 64 256 12 10 (1966080)
I1226 17:04:56.174305 14151 net.cpp:165] Memory required for data: 1354302464
I1226 17:04:56.174322 14151 layer_factory.hpp:77] Creating layer relu4_1
I1226 17:04:56.174340 14151 net.cpp:100] Creating Layer relu4_1
I1226 17:04:56.174350 14151 net.cpp:434] relu4_1 <- conv4_1
I1226 17:04:56.174367 14151 net.cpp:395] relu4_1 -> conv4_1 (in-place)
I1226 17:04:56.174569 14151 net.cpp:150] Setting up relu4_1
I1226 17:04:56.174583 14151 net.cpp:157] Top shape: 64 256 12 10 (1966080)
I1226 17:04:56.174590 14151 net.cpp:165] Memory required for data: 1362166784
I1226 17:04:56.174619 14151 layer_factory.hpp:77] Creating layer conv4_2
I1226 17:04:56.174643 14151 net.cpp:100] Creating Layer conv4_2
I1226 17:04:56.174655 14151 net.cpp:434] conv4_2 <- conv4_1
I1226 17:04:56.174669 14151 net.cpp:408] conv4_2 -> conv4_2
I1226 17:04:56.203495 14151 net.cpp:150] Setting up conv4_2
I1226 17:04:56.203522 14151 net.cpp:157] Top shape: 64 256 12 10 (1966080)
I1226 17:04:56.203529 14151 net.cpp:165] Memory required for data: 1370031104
I1226 17:04:56.203541 14151 layer_factory.hpp:77] Creating layer relu4_2
I1226 17:04:56.203552 14151 net.cpp:100] Creating Layer relu4_2
I1226 17:04:56.203559 14151 net.cpp:434] relu4_2 <- conv4_2
I1226 17:04:56.203572 14151 net.cpp:395] relu4_2 -> conv4_2 (in-place)
I1226 17:04:56.203729 14151 net.cpp:150] Setting up relu4_2
I1226 17:04:56.203743 14151 net.cpp:157] Top shape: 64 256 12 10 (1966080)
I1226 17:04:56.203750 14151 net.cpp:165] Memory required for data: 1377895424
I1226 17:04:56.203759 14151 layer_factory.hpp:77] Creating layer res4_2
I1226 17:04:56.203771 14151 net.cpp:100] Creating Layer res4_2
I1226 17:04:56.203780 14151 net.cpp:434] res4_2 <- pool3_pool3_0_split_1
I1226 17:04:56.203788 14151 net.cpp:434] res4_2 <- conv4_2
I1226 17:04:56.203797 14151 net.cpp:408] res4_2 -> res4_2
I1226 17:04:56.203833 14151 net.cpp:150] Setting up res4_2
I1226 17:04:56.203843 14151 net.cpp:157] Top shape: 64 256 12 10 (1966080)
I1226 17:04:56.203882 14151 net.cpp:165] Memory required for data: 1385759744
I1226 17:04:56.203889 14151 layer_factory.hpp:77] Creating layer res4_2_res4_2_0_split
I1226 17:04:56.203902 14151 net.cpp:100] Creating Layer res4_2_res4_2_0_split
I1226 17:04:56.203909 14151 net.cpp:434] res4_2_res4_2_0_split <- res4_2
I1226 17:04:56.203918 14151 net.cpp:408] res4_2_res4_2_0_split -> res4_2_res4_2_0_split_0
I1226 17:04:56.203934 14151 net.cpp:408] res4_2_res4_2_0_split -> res4_2_res4_2_0_split_1
I1226 17:04:56.203991 14151 net.cpp:150] Setting up res4_2_res4_2_0_split
I1226 17:04:56.204002 14151 net.cpp:157] Top shape: 64 256 12 10 (1966080)
I1226 17:04:56.204010 14151 net.cpp:157] Top shape: 64 256 12 10 (1966080)
I1226 17:04:56.204016 14151 net.cpp:165] Memory required for data: 1401488384
I1226 17:04:56.204023 14151 layer_factory.hpp:77] Creating layer conv4_3
I1226 17:04:56.204041 14151 net.cpp:100] Creating Layer conv4_3
I1226 17:04:56.204049 14151 net.cpp:434] conv4_3 <- res4_2_res4_2_0_split_0
I1226 17:04:56.204061 14151 net.cpp:408] conv4_3 -> conv4_3
I1226 17:04:56.240550 14151 net.cpp:150] Setting up conv4_3
I1226 17:04:56.240614 14151 net.cpp:157] Top shape: 64 256 12 10 (1966080)
I1226 17:04:56.240624 14151 net.cpp:165] Memory required for data: 1409352704
I1226 17:04:56.240641 14151 layer_factory.hpp:77] Creating layer relu4_3
I1226 17:04:56.240658 14151 net.cpp:100] Creating Layer relu4_3
I1226 17:04:56.240670 14151 net.cpp:434] relu4_3 <- conv4_3
I1226 17:04:56.240686 14151 net.cpp:395] relu4_3 -> conv4_3 (in-place)
I1226 17:04:56.240882 14151 net.cpp:150] Setting up relu4_3
I1226 17:04:56.240900 14151 net.cpp:157] Top shape: 64 256 12 10 (1966080)
I1226 17:04:56.240907 14151 net.cpp:165] Memory required for data: 1417217024
I1226 17:04:56.240918 14151 layer_factory.hpp:77] Creating layer conv4_4
I1226 17:04:56.240937 14151 net.cpp:100] Creating Layer conv4_4
I1226 17:04:56.240947 14151 net.cpp:434] conv4_4 <- conv4_3
I1226 17:04:56.240962 14151 net.cpp:408] conv4_4 -> conv4_4
I1226 17:04:56.275593 14151 net.cpp:150] Setting up conv4_4
I1226 17:04:56.275692 14151 net.cpp:157] Top shape: 64 256 12 10 (1966080)
I1226 17:04:56.275710 14151 net.cpp:165] Memory required for data: 1425081344
I1226 17:04:56.275739 14151 layer_factory.hpp:77] Creating layer relu4_4
I1226 17:04:56.275773 14151 net.cpp:100] Creating Layer relu4_4
I1226 17:04:56.275791 14151 net.cpp:434] relu4_4 <- conv4_4
I1226 17:04:56.275813 14151 net.cpp:395] relu4_4 -> conv4_4 (in-place)
I1226 17:04:56.276055 14151 net.cpp:150] Setting up relu4_4
I1226 17:04:56.276080 14151 net.cpp:157] Top shape: 64 256 12 10 (1966080)
I1226 17:04:56.276094 14151 net.cpp:165] Memory required for data: 1432945664
I1226 17:04:56.276111 14151 layer_factory.hpp:77] Creating layer res4_4
I1226 17:04:56.276134 14151 net.cpp:100] Creating Layer res4_4
I1226 17:04:56.276147 14151 net.cpp:434] res4_4 <- res4_2_res4_2_0_split_1
I1226 17:04:56.276160 14151 net.cpp:434] res4_4 <- conv4_4
I1226 17:04:56.276175 14151 net.cpp:408] res4_4 -> res4_4
I1226 17:04:56.276226 14151 net.cpp:150] Setting up res4_4
I1226 17:04:56.276244 14151 net.cpp:157] Top shape: 64 256 12 10 (1966080)
I1226 17:04:56.276253 14151 net.cpp:165] Memory required for data: 1440809984
I1226 17:04:56.276263 14151 layer_factory.hpp:77] Creating layer res4_4_res4_4_0_split
I1226 17:04:56.276281 14151 net.cpp:100] Creating Layer res4_4_res4_4_0_split
I1226 17:04:56.276293 14151 net.cpp:434] res4_4_res4_4_0_split <- res4_4
I1226 17:04:56.276304 14151 net.cpp:408] res4_4_res4_4_0_split -> res4_4_res4_4_0_split_0
I1226 17:04:56.276319 14151 net.cpp:408] res4_4_res4_4_0_split -> res4_4_res4_4_0_split_1
I1226 17:04:56.276392 14151 net.cpp:150] Setting up res4_4_res4_4_0_split
I1226 17:04:56.276408 14151 net.cpp:157] Top shape: 64 256 12 10 (1966080)
I1226 17:04:56.276422 14151 net.cpp:157] Top shape: 64 256 12 10 (1966080)
I1226 17:04:56.276430 14151 net.cpp:165] Memory required for data: 1456538624
I1226 17:04:56.276443 14151 layer_factory.hpp:77] Creating layer conv4_5
I1226 17:04:56.276489 14151 net.cpp:100] Creating Layer conv4_5
I1226 17:04:56.276540 14151 net.cpp:434] conv4_5 <- res4_4_res4_4_0_split_0
I1226 17:04:56.276564 14151 net.cpp:408] conv4_5 -> conv4_5
I1226 17:04:56.307214 14151 net.cpp:150] Setting up conv4_5
I1226 17:04:56.307272 14151 net.cpp:157] Top shape: 64 256 12 10 (1966080)
I1226 17:04:56.307279 14151 net.cpp:165] Memory required for data: 1464402944
I1226 17:04:56.307292 14151 layer_factory.hpp:77] Creating layer relu4_5
I1226 17:04:56.307307 14151 net.cpp:100] Creating Layer relu4_5
I1226 17:04:56.307315 14151 net.cpp:434] relu4_5 <- conv4_5
I1226 17:04:56.307328 14151 net.cpp:395] relu4_5 -> conv4_5 (in-place)
I1226 17:04:56.307478 14151 net.cpp:150] Setting up relu4_5
I1226 17:04:56.307488 14151 net.cpp:157] Top shape: 64 256 12 10 (1966080)
I1226 17:04:56.307494 14151 net.cpp:165] Memory required for data: 1472267264
I1226 17:04:56.307502 14151 layer_factory.hpp:77] Creating layer conv4_6
I1226 17:04:56.307519 14151 net.cpp:100] Creating Layer conv4_6
I1226 17:04:56.307526 14151 net.cpp:434] conv4_6 <- conv4_5
I1226 17:04:56.307538 14151 net.cpp:408] conv4_6 -> conv4_6
I1226 17:04:56.329792 14151 net.cpp:150] Setting up conv4_6
I1226 17:04:56.329836 14151 net.cpp:157] Top shape: 64 256 12 10 (1966080)
I1226 17:04:56.329843 14151 net.cpp:165] Memory required for data: 1480131584
I1226 17:04:56.329854 14151 layer_factory.hpp:77] Creating layer relu4_6
I1226 17:04:56.329865 14151 net.cpp:100] Creating Layer relu4_6
I1226 17:04:56.329874 14151 net.cpp:434] relu4_6 <- conv4_6
I1226 17:04:56.329885 14151 net.cpp:395] relu4_6 -> conv4_6 (in-place)
I1226 17:04:56.330027 14151 net.cpp:150] Setting up relu4_6
I1226 17:04:56.330037 14151 net.cpp:157] Top shape: 64 256 12 10 (1966080)
I1226 17:04:56.330044 14151 net.cpp:165] Memory required for data: 1487995904
I1226 17:04:56.330050 14151 layer_factory.hpp:77] Creating layer res4_6
I1226 17:04:56.330063 14151 net.cpp:100] Creating Layer res4_6
I1226 17:04:56.330076 14151 net.cpp:434] res4_6 <- res4_4_res4_4_0_split_1
I1226 17:04:56.330083 14151 net.cpp:434] res4_6 <- conv4_6
I1226 17:04:56.330091 14151 net.cpp:408] res4_6 -> res4_6
I1226 17:04:56.330123 14151 net.cpp:150] Setting up res4_6
I1226 17:04:56.330132 14151 net.cpp:157] Top shape: 64 256 12 10 (1966080)
I1226 17:04:56.330137 14151 net.cpp:165] Memory required for data: 1495860224
I1226 17:04:56.330142 14151 layer_factory.hpp:77] Creating layer res4_6_res4_6_0_split
I1226 17:04:56.330152 14151 net.cpp:100] Creating Layer res4_6_res4_6_0_split
I1226 17:04:56.330159 14151 net.cpp:434] res4_6_res4_6_0_split <- res4_6
I1226 17:04:56.330166 14151 net.cpp:408] res4_6_res4_6_0_split -> res4_6_res4_6_0_split_0
I1226 17:04:56.330175 14151 net.cpp:408] res4_6_res4_6_0_split -> res4_6_res4_6_0_split_1
I1226 17:04:56.330215 14151 net.cpp:150] Setting up res4_6_res4_6_0_split
I1226 17:04:56.330224 14151 net.cpp:157] Top shape: 64 256 12 10 (1966080)
I1226 17:04:56.330231 14151 net.cpp:157] Top shape: 64 256 12 10 (1966080)
I1226 17:04:56.330236 14151 net.cpp:165] Memory required for data: 1511588864
I1226 17:04:56.330241 14151 layer_factory.hpp:77] Creating layer conv4_7
I1226 17:04:56.330260 14151 net.cpp:100] Creating Layer conv4_7
I1226 17:04:56.330265 14151 net.cpp:434] conv4_7 <- res4_6_res4_6_0_split_0
I1226 17:04:56.330276 14151 net.cpp:408] conv4_7 -> conv4_7
I1226 17:04:56.351755 14151 net.cpp:150] Setting up conv4_7
I1226 17:04:56.351778 14151 net.cpp:157] Top shape: 64 256 12 10 (1966080)
I1226 17:04:56.351784 14151 net.cpp:165] Memory required for data: 1519453184
I1226 17:04:56.351794 14151 layer_factory.hpp:77] Creating layer relu4_7
I1226 17:04:56.351804 14151 net.cpp:100] Creating Layer relu4_7
I1226 17:04:56.351809 14151 net.cpp:434] relu4_7 <- conv4_7
I1226 17:04:56.351817 14151 net.cpp:395] relu4_7 -> conv4_7 (in-place)
I1226 17:04:56.351949 14151 net.cpp:150] Setting up relu4_7
I1226 17:04:56.351959 14151 net.cpp:157] Top shape: 64 256 12 10 (1966080)
I1226 17:04:56.351964 14151 net.cpp:165] Memory required for data: 1527317504
I1226 17:04:56.351972 14151 layer_factory.hpp:77] Creating layer conv4_8
I1226 17:04:56.352015 14151 net.cpp:100] Creating Layer conv4_8
I1226 17:04:56.352021 14151 net.cpp:434] conv4_8 <- conv4_7
I1226 17:04:56.352032 14151 net.cpp:408] conv4_8 -> conv4_8
I1226 17:04:56.381821 14151 net.cpp:150] Setting up conv4_8
I1226 17:04:56.381906 14151 net.cpp:157] Top shape: 64 256 12 10 (1966080)
I1226 17:04:56.381922 14151 net.cpp:165] Memory required for data: 1535181824
I1226 17:04:56.381943 14151 layer_factory.hpp:77] Creating layer relu4_8
I1226 17:04:56.381971 14151 net.cpp:100] Creating Layer relu4_8
I1226 17:04:56.381988 14151 net.cpp:434] relu4_8 <- conv4_8
I1226 17:04:56.382009 14151 net.cpp:395] relu4_8 -> conv4_8 (in-place)
I1226 17:04:56.382238 14151 net.cpp:150] Setting up relu4_8
I1226 17:04:56.382262 14151 net.cpp:157] Top shape: 64 256 12 10 (1966080)
I1226 17:04:56.382273 14151 net.cpp:165] Memory required for data: 1543046144
I1226 17:04:56.382287 14151 layer_factory.hpp:77] Creating layer res4_8
I1226 17:04:56.382303 14151 net.cpp:100] Creating Layer res4_8
I1226 17:04:56.382315 14151 net.cpp:434] res4_8 <- res4_6_res4_6_0_split_1
I1226 17:04:56.382328 14151 net.cpp:434] res4_8 <- conv4_8
I1226 17:04:56.382345 14151 net.cpp:408] res4_8 -> res4_8
I1226 17:04:56.382396 14151 net.cpp:150] Setting up res4_8
I1226 17:04:56.382413 14151 net.cpp:157] Top shape: 64 256 12 10 (1966080)
I1226 17:04:56.382423 14151 net.cpp:165] Memory required for data: 1550910464
I1226 17:04:56.382433 14151 layer_factory.hpp:77] Creating layer res4_8_res4_8_0_split
I1226 17:04:56.382447 14151 net.cpp:100] Creating Layer res4_8_res4_8_0_split
I1226 17:04:56.382457 14151 net.cpp:434] res4_8_res4_8_0_split <- res4_8
I1226 17:04:56.382470 14151 net.cpp:408] res4_8_res4_8_0_split -> res4_8_res4_8_0_split_0
I1226 17:04:56.382498 14151 net.cpp:408] res4_8_res4_8_0_split -> res4_8_res4_8_0_split_1
I1226 17:04:56.382567 14151 net.cpp:150] Setting up res4_8_res4_8_0_split
I1226 17:04:56.382586 14151 net.cpp:157] Top shape: 64 256 12 10 (1966080)
I1226 17:04:56.382597 14151 net.cpp:157] Top shape: 64 256 12 10 (1966080)
I1226 17:04:56.382607 14151 net.cpp:165] Memory required for data: 1566639104
I1226 17:04:56.382616 14151 layer_factory.hpp:77] Creating layer conv4_9
I1226 17:04:56.382645 14151 net.cpp:100] Creating Layer conv4_9
I1226 17:04:56.382658 14151 net.cpp:434] conv4_9 <- res4_8_res4_8_0_split_0
I1226 17:04:56.382673 14151 net.cpp:408] conv4_9 -> conv4_9
I1226 17:04:56.412286 14151 net.cpp:150] Setting up conv4_9
I1226 17:04:56.412341 14151 net.cpp:157] Top shape: 64 256 12 10 (1966080)
I1226 17:04:56.412348 14151 net.cpp:165] Memory required for data: 1574503424
I1226 17:04:56.412361 14151 layer_factory.hpp:77] Creating layer relu4_9
I1226 17:04:56.412375 14151 net.cpp:100] Creating Layer relu4_9
I1226 17:04:56.412382 14151 net.cpp:434] relu4_9 <- conv4_9
I1226 17:04:56.412394 14151 net.cpp:395] relu4_9 -> conv4_9 (in-place)
I1226 17:04:56.412542 14151 net.cpp:150] Setting up relu4_9
I1226 17:04:56.412554 14151 net.cpp:157] Top shape: 64 256 12 10 (1966080)
I1226 17:04:56.412559 14151 net.cpp:165] Memory required for data: 1582367744
I1226 17:04:56.412567 14151 layer_factory.hpp:77] Creating layer conv4_10
I1226 17:04:56.412583 14151 net.cpp:100] Creating Layer conv4_10
I1226 17:04:56.412590 14151 net.cpp:434] conv4_10 <- conv4_9
I1226 17:04:56.412600 14151 net.cpp:408] conv4_10 -> conv4_10
I1226 17:04:56.433872 14151 net.cpp:150] Setting up conv4_10
I1226 17:04:56.433893 14151 net.cpp:157] Top shape: 64 256 12 10 (1966080)
I1226 17:04:56.433899 14151 net.cpp:165] Memory required for data: 1590232064
I1226 17:04:56.433908 14151 layer_factory.hpp:77] Creating layer relu4_10
I1226 17:04:56.433919 14151 net.cpp:100] Creating Layer relu4_10
I1226 17:04:56.433926 14151 net.cpp:434] relu4_10 <- conv4_10
I1226 17:04:56.433934 14151 net.cpp:395] relu4_10 -> conv4_10 (in-place)
I1226 17:04:56.434072 14151 net.cpp:150] Setting up relu4_10
I1226 17:04:56.434083 14151 net.cpp:157] Top shape: 64 256 12 10 (1966080)
I1226 17:04:56.434088 14151 net.cpp:165] Memory required for data: 1598096384
I1226 17:04:56.434104 14151 layer_factory.hpp:77] Creating layer res4_10
I1226 17:04:56.434134 14151 net.cpp:100] Creating Layer res4_10
I1226 17:04:56.434141 14151 net.cpp:434] res4_10 <- res4_8_res4_8_0_split_1
I1226 17:04:56.434149 14151 net.cpp:434] res4_10 <- conv4_10
I1226 17:04:56.434159 14151 net.cpp:408] res4_10 -> res4_10
I1226 17:04:56.434190 14151 net.cpp:150] Setting up res4_10
I1226 17:04:56.434198 14151 net.cpp:157] Top shape: 64 256 12 10 (1966080)
I1226 17:04:56.434203 14151 net.cpp:165] Memory required for data: 1605960704
I1226 17:04:56.434209 14151 layer_factory.hpp:77] Creating layer conv4
I1226 17:04:56.434224 14151 net.cpp:100] Creating Layer conv4
I1226 17:04:56.434231 14151 net.cpp:434] conv4 <- res4_10
I1226 17:04:56.434239 14151 net.cpp:408] conv4 -> conv4
I1226 17:04:56.445387 14151 net.cpp:150] Setting up conv4
I1226 17:04:56.445410 14151 net.cpp:157] Top shape: 64 512 10 8 (2621440)
I1226 17:04:56.445415 14151 net.cpp:165] Memory required for data: 1616446464
I1226 17:04:56.445425 14151 layer_factory.hpp:77] Creating layer relu4
I1226 17:04:56.445436 14151 net.cpp:100] Creating Layer relu4
I1226 17:04:56.445442 14151 net.cpp:434] relu4 <- conv4
I1226 17:04:56.445451 14151 net.cpp:395] relu4 -> conv4 (in-place)
I1226 17:04:56.445600 14151 net.cpp:150] Setting up relu4
I1226 17:04:56.445610 14151 net.cpp:157] Top shape: 64 512 10 8 (2621440)
I1226 17:04:56.445614 14151 net.cpp:165] Memory required for data: 1626932224
I1226 17:04:56.445621 14151 layer_factory.hpp:77] Creating layer pool4
I1226 17:04:56.445632 14151 net.cpp:100] Creating Layer pool4
I1226 17:04:56.445637 14151 net.cpp:434] pool4 <- conv4
I1226 17:04:56.445647 14151 net.cpp:408] pool4 -> pool4
I1226 17:04:56.445693 14151 net.cpp:150] Setting up pool4
I1226 17:04:56.445701 14151 net.cpp:157] Top shape: 64 512 5 4 (655360)
I1226 17:04:56.445706 14151 net.cpp:165] Memory required for data: 1629553664
I1226 17:04:56.445711 14151 layer_factory.hpp:77] Creating layer pool4_pool4_0_split
I1226 17:04:56.445736 14151 net.cpp:100] Creating Layer pool4_pool4_0_split
I1226 17:04:56.445742 14151 net.cpp:434] pool4_pool4_0_split <- pool4
I1226 17:04:56.445750 14151 net.cpp:408] pool4_pool4_0_split -> pool4_pool4_0_split_0
I1226 17:04:56.445760 14151 net.cpp:408] pool4_pool4_0_split -> pool4_pool4_0_split_1
I1226 17:04:56.445802 14151 net.cpp:150] Setting up pool4_pool4_0_split
I1226 17:04:56.445811 14151 net.cpp:157] Top shape: 64 512 5 4 (655360)
I1226 17:04:56.445817 14151 net.cpp:157] Top shape: 64 512 5 4 (655360)
I1226 17:04:56.445822 14151 net.cpp:165] Memory required for data: 1634796544
I1226 17:04:56.445827 14151 layer_factory.hpp:77] Creating layer conv5_1
I1226 17:04:56.445842 14151 net.cpp:100] Creating Layer conv5_1
I1226 17:04:56.445847 14151 net.cpp:434] conv5_1 <- pool4_pool4_0_split_0
I1226 17:04:56.445855 14151 net.cpp:408] conv5_1 -> conv5_1
I1226 17:04:56.533336 14151 net.cpp:150] Setting up conv5_1
I1226 17:04:56.533367 14151 net.cpp:157] Top shape: 64 512 5 4 (655360)
I1226 17:04:56.533375 14151 net.cpp:165] Memory required for data: 1637417984
I1226 17:04:56.533402 14151 layer_factory.hpp:77] Creating layer relu5_1
I1226 17:04:56.533412 14151 net.cpp:100] Creating Layer relu5_1
I1226 17:04:56.533419 14151 net.cpp:434] relu5_1 <- conv5_1
I1226 17:04:56.533427 14151 net.cpp:395] relu5_1 -> conv5_1 (in-place)
I1226 17:04:56.533555 14151 net.cpp:150] Setting up relu5_1
I1226 17:04:56.533565 14151 net.cpp:157] Top shape: 64 512 5 4 (655360)
I1226 17:04:56.533569 14151 net.cpp:165] Memory required for data: 1640039424
I1226 17:04:56.533576 14151 layer_factory.hpp:77] Creating layer conv5_2
I1226 17:04:56.533591 14151 net.cpp:100] Creating Layer conv5_2
I1226 17:04:56.533597 14151 net.cpp:434] conv5_2 <- conv5_1
I1226 17:04:56.533608 14151 net.cpp:408] conv5_2 -> conv5_2
I1226 17:04:56.640671 14151 net.cpp:150] Setting up conv5_2
I1226 17:04:56.640720 14151 net.cpp:157] Top shape: 64 512 5 4 (655360)
I1226 17:04:56.640727 14151 net.cpp:165] Memory required for data: 1642660864
I1226 17:04:56.640739 14151 layer_factory.hpp:77] Creating layer relu5_2
I1226 17:04:56.640763 14151 net.cpp:100] Creating Layer relu5_2
I1226 17:04:56.640791 14151 net.cpp:434] relu5_2 <- conv5_2
I1226 17:04:56.640805 14151 net.cpp:395] relu5_2 -> conv5_2 (in-place)
I1226 17:04:56.640936 14151 net.cpp:150] Setting up relu5_2
I1226 17:04:56.640947 14151 net.cpp:157] Top shape: 64 512 5 4 (655360)
I1226 17:04:56.640952 14151 net.cpp:165] Memory required for data: 1645282304
I1226 17:04:56.640960 14151 layer_factory.hpp:77] Creating layer res5_2
I1226 17:04:56.640972 14151 net.cpp:100] Creating Layer res5_2
I1226 17:04:56.640980 14151 net.cpp:434] res5_2 <- pool4_pool4_0_split_1
I1226 17:04:56.640986 14151 net.cpp:434] res5_2 <- conv5_2
I1226 17:04:56.640995 14151 net.cpp:408] res5_2 -> res5_2
I1226 17:04:56.641027 14151 net.cpp:150] Setting up res5_2
I1226 17:04:56.641036 14151 net.cpp:157] Top shape: 64 512 5 4 (655360)
I1226 17:04:56.641041 14151 net.cpp:165] Memory required for data: 1647903744
I1226 17:04:56.641046 14151 layer_factory.hpp:77] Creating layer res5_2_res5_2_0_split
I1226 17:04:56.641054 14151 net.cpp:100] Creating Layer res5_2_res5_2_0_split
I1226 17:04:56.641059 14151 net.cpp:434] res5_2_res5_2_0_split <- res5_2
I1226 17:04:56.641073 14151 net.cpp:408] res5_2_res5_2_0_split -> res5_2_res5_2_0_split_0
I1226 17:04:56.641084 14151 net.cpp:408] res5_2_res5_2_0_split -> res5_2_res5_2_0_split_1
I1226 17:04:56.641134 14151 net.cpp:150] Setting up res5_2_res5_2_0_split
I1226 17:04:56.641142 14151 net.cpp:157] Top shape: 64 512 5 4 (655360)
I1226 17:04:56.641149 14151 net.cpp:157] Top shape: 64 512 5 4 (655360)
I1226 17:04:56.641155 14151 net.cpp:165] Memory required for data: 1653146624
I1226 17:04:56.641160 14151 layer_factory.hpp:77] Creating layer conv5_3
I1226 17:04:56.641176 14151 net.cpp:100] Creating Layer conv5_3
I1226 17:04:56.641182 14151 net.cpp:434] conv5_3 <- res5_2_res5_2_0_split_0
I1226 17:04:56.641191 14151 net.cpp:408] conv5_3 -> conv5_3
I1226 17:04:56.725997 14151 net.cpp:150] Setting up conv5_3
I1226 17:04:56.726058 14151 net.cpp:157] Top shape: 64 512 5 4 (655360)
I1226 17:04:56.726065 14151 net.cpp:165] Memory required for data: 1655768064
I1226 17:04:56.726083 14151 layer_factory.hpp:77] Creating layer relu5_3
I1226 17:04:56.726100 14151 net.cpp:100] Creating Layer relu5_3
I1226 17:04:56.726109 14151 net.cpp:434] relu5_3 <- conv5_3
I1226 17:04:56.726119 14151 net.cpp:395] relu5_3 -> conv5_3 (in-place)
I1226 17:04:56.726254 14151 net.cpp:150] Setting up relu5_3
I1226 17:04:56.726265 14151 net.cpp:157] Top shape: 64 512 5 4 (655360)
I1226 17:04:56.726270 14151 net.cpp:165] Memory required for data: 1658389504
I1226 17:04:56.726279 14151 layer_factory.hpp:77] Creating layer conv5_4
I1226 17:04:56.726295 14151 net.cpp:100] Creating Layer conv5_4
I1226 17:04:56.726302 14151 net.cpp:434] conv5_4 <- conv5_3
I1226 17:04:56.726313 14151 net.cpp:408] conv5_4 -> conv5_4
I1226 17:04:56.816689 14151 net.cpp:150] Setting up conv5_4
I1226 17:04:56.816754 14151 net.cpp:157] Top shape: 64 512 5 4 (655360)
I1226 17:04:56.816761 14151 net.cpp:165] Memory required for data: 1661010944
I1226 17:04:56.816774 14151 layer_factory.hpp:77] Creating layer relu5_4
I1226 17:04:56.816787 14151 net.cpp:100] Creating Layer relu5_4
I1226 17:04:56.816797 14151 net.cpp:434] relu5_4 <- conv5_4
I1226 17:04:56.816805 14151 net.cpp:395] relu5_4 -> conv5_4 (in-place)
I1226 17:04:56.816937 14151 net.cpp:150] Setting up relu5_4
I1226 17:04:56.816947 14151 net.cpp:157] Top shape: 64 512 5 4 (655360)
I1226 17:04:56.816952 14151 net.cpp:165] Memory required for data: 1663632384
I1226 17:04:56.816959 14151 layer_factory.hpp:77] Creating layer res5_4
I1226 17:04:56.816973 14151 net.cpp:100] Creating Layer res5_4
I1226 17:04:56.816980 14151 net.cpp:434] res5_4 <- res5_2_res5_2_0_split_1
I1226 17:04:56.816987 14151 net.cpp:434] res5_4 <- conv5_4
I1226 17:04:56.816994 14151 net.cpp:408] res5_4 -> res5_4
I1226 17:04:56.817028 14151 net.cpp:150] Setting up res5_4
I1226 17:04:56.817035 14151 net.cpp:157] Top shape: 64 512 5 4 (655360)
I1226 17:04:56.817040 14151 net.cpp:165] Memory required for data: 1666253824
I1226 17:04:56.817056 14151 layer_factory.hpp:77] Creating layer res5_4_res5_4_0_split
I1226 17:04:56.817103 14151 net.cpp:100] Creating Layer res5_4_res5_4_0_split
I1226 17:04:56.817111 14151 net.cpp:434] res5_4_res5_4_0_split <- res5_4
I1226 17:04:56.817119 14151 net.cpp:408] res5_4_res5_4_0_split -> res5_4_res5_4_0_split_0
I1226 17:04:56.817140 14151 net.cpp:408] res5_4_res5_4_0_split -> res5_4_res5_4_0_split_1
I1226 17:04:56.817185 14151 net.cpp:150] Setting up res5_4_res5_4_0_split
I1226 17:04:56.817195 14151 net.cpp:157] Top shape: 64 512 5 4 (655360)
I1226 17:04:56.817201 14151 net.cpp:157] Top shape: 64 512 5 4 (655360)
I1226 17:04:56.817205 14151 net.cpp:165] Memory required for data: 1671496704
I1226 17:04:56.817210 14151 layer_factory.hpp:77] Creating layer conv5_5
I1226 17:04:56.817230 14151 net.cpp:100] Creating Layer conv5_5
I1226 17:04:56.817236 14151 net.cpp:434] conv5_5 <- res5_4_res5_4_0_split_0
I1226 17:04:56.817245 14151 net.cpp:408] conv5_5 -> conv5_5
I1226 17:04:56.910832 14151 net.cpp:150] Setting up conv5_5
I1226 17:04:56.910924 14151 net.cpp:157] Top shape: 64 512 5 4 (655360)
I1226 17:04:56.910941 14151 net.cpp:165] Memory required for data: 1674118144
I1226 17:04:56.910969 14151 layer_factory.hpp:77] Creating layer relu5_5
I1226 17:04:56.910995 14151 net.cpp:100] Creating Layer relu5_5
I1226 17:04:56.911013 14151 net.cpp:434] relu5_5 <- conv5_5
I1226 17:04:56.911039 14151 net.cpp:395] relu5_5 -> conv5_5 (in-place)
I1226 17:04:56.911324 14151 net.cpp:150] Setting up relu5_5
I1226 17:04:56.911356 14151 net.cpp:157] Top shape: 64 512 5 4 (655360)
I1226 17:04:56.911370 14151 net.cpp:165] Memory required for data: 1676739584
I1226 17:04:56.911388 14151 layer_factory.hpp:77] Creating layer conv5_6
I1226 17:04:56.911423 14151 net.cpp:100] Creating Layer conv5_6
I1226 17:04:56.911439 14151 net.cpp:434] conv5_6 <- conv5_5
I1226 17:04:56.911461 14151 net.cpp:408] conv5_6 -> conv5_6
I1226 17:04:57.042058 14151 net.cpp:150] Setting up conv5_6
I1226 17:04:57.042155 14151 net.cpp:157] Top shape: 64 512 5 4 (655360)
I1226 17:04:57.042172 14151 net.cpp:165] Memory required for data: 1679361024
I1226 17:04:57.042193 14151 layer_factory.hpp:77] Creating layer relu5_6
I1226 17:04:57.042222 14151 net.cpp:100] Creating Layer relu5_6
I1226 17:04:57.042238 14151 net.cpp:434] relu5_6 <- conv5_6
I1226 17:04:57.042254 14151 net.cpp:395] relu5_6 -> conv5_6 (in-place)
I1226 17:04:57.042481 14151 net.cpp:150] Setting up relu5_6
I1226 17:04:57.042505 14151 net.cpp:157] Top shape: 64 512 5 4 (655360)
I1226 17:04:57.042517 14151 net.cpp:165] Memory required for data: 1681982464
I1226 17:04:57.042532 14151 layer_factory.hpp:77] Creating layer res5_6
I1226 17:04:57.042554 14151 net.cpp:100] Creating Layer res5_6
I1226 17:04:57.042569 14151 net.cpp:434] res5_6 <- res5_4_res5_4_0_split_1
I1226 17:04:57.042583 14151 net.cpp:434] res5_6 <- conv5_6
I1226 17:04:57.042601 14151 net.cpp:408] res5_6 -> res5_6
I1226 17:04:57.042652 14151 net.cpp:150] Setting up res5_6
I1226 17:04:57.042671 14151 net.cpp:157] Top shape: 64 512 5 4 (655360)
I1226 17:04:57.042681 14151 net.cpp:165] Memory required for data: 1684603904
I1226 17:04:57.042691 14151 layer_factory.hpp:77] Creating layer fc5
I1226 17:04:57.042713 14151 net.cpp:100] Creating Layer fc5
I1226 17:04:57.042726 14151 net.cpp:434] fc5 <- res5_6
I1226 17:04:57.042747 14151 net.cpp:408] fc5 -> fc5
I1226 17:04:57.223143 14151 net.cpp:150] Setting up fc5
I1226 17:04:57.223220 14151 net.cpp:157] Top shape: 64 512 (32768)
I1226 17:04:57.223227 14151 net.cpp:165] Memory required for data: 1684734976
I1226 17:04:57.223242 14151 layer_factory.hpp:77] Creating layer fc5_fc5_0_split
I1226 17:04:57.223260 14151 net.cpp:100] Creating Layer fc5_fc5_0_split
I1226 17:04:57.223273 14151 net.cpp:434] fc5_fc5_0_split <- fc5
I1226 17:04:57.223282 14151 net.cpp:408] fc5_fc5_0_split -> fc5_fc5_0_split_0
I1226 17:04:57.223297 14151 net.cpp:408] fc5_fc5_0_split -> fc5_fc5_0_split_1
I1226 17:04:57.223363 14151 net.cpp:150] Setting up fc5_fc5_0_split
I1226 17:04:57.223389 14151 net.cpp:157] Top shape: 64 512 (32768)
I1226 17:04:57.223422 14151 net.cpp:157] Top shape: 64 512 (32768)
I1226 17:04:57.223426 14151 net.cpp:165] Memory required for data: 1684997120
I1226 17:04:57.223431 14151 layer_factory.hpp:77] Creating layer fc6
I1226 17:04:57.223443 14151 net.cpp:100] Creating Layer fc6
I1226 17:04:57.223449 14151 net.cpp:434] fc6 <- fc5_fc5_0_split_0
I1226 17:04:57.223459 14151 net.cpp:408] fc6 -> fc6
I1226 17:04:57.444882 14151 net.cpp:150] Setting up fc6
I1226 17:04:57.444942 14151 net.cpp:157] Top shape: 64 43074 (2756736)
I1226 17:04:57.444950 14151 net.cpp:165] Memory required for data: 1696024064
I1226 17:04:57.444963 14151 layer_factory.hpp:77] Creating layer fc6_fc6_0_split
I1226 17:04:57.444979 14151 net.cpp:100] Creating Layer fc6_fc6_0_split
I1226 17:04:57.444988 14151 net.cpp:434] fc6_fc6_0_split <- fc6
I1226 17:04:57.444998 14151 net.cpp:408] fc6_fc6_0_split -> fc6_fc6_0_split_0
I1226 17:04:57.445011 14151 net.cpp:408] fc6_fc6_0_split -> fc6_fc6_0_split_1
I1226 17:04:57.445057 14151 net.cpp:150] Setting up fc6_fc6_0_split
I1226 17:04:57.445070 14151 net.cpp:157] Top shape: 64 43074 (2756736)
I1226 17:04:57.445078 14151 net.cpp:157] Top shape: 64 43074 (2756736)
I1226 17:04:57.445083 14151 net.cpp:165] Memory required for data: 1718077952
I1226 17:04:57.445089 14151 layer_factory.hpp:77] Creating layer softmax
I1226 17:04:57.445098 14151 net.cpp:100] Creating Layer softmax
I1226 17:04:57.445104 14151 net.cpp:434] softmax <- fc6_fc6_0_split_0
I1226 17:04:57.445112 14151 net.cpp:408] softmax -> prob
I1226 17:04:57.483059 14151 net.cpp:150] Setting up softmax
I1226 17:04:57.483152 14151 net.cpp:157] Top shape: 64 43074 (2756736)
I1226 17:04:57.483168 14151 net.cpp:165] Memory required for data: 1729104896
I1226 17:04:57.483183 14151 layer_factory.hpp:77] Creating layer accuracy
I1226 17:04:57.483217 14151 net.cpp:100] Creating Layer accuracy
I1226 17:04:57.483234 14151 net.cpp:434] accuracy <- prob
I1226 17:04:57.483252 14151 net.cpp:434] accuracy <- label_data_1_split_0
I1226 17:04:57.483268 14151 net.cpp:408] accuracy -> accuracy
…
I1226 17:04:57.707501 14151 net.cpp:322] The NetState phase (1) differed from the phase (0) specified by a rule in layer data
I1226 17:04:57.708035 14151 net.cpp:58] Initializing net from parameters: 
name: "Face-ResNet"
state {
  phase: TEST
}
layer {
  name: "data"
  type: "Data"
  top: "data"
  top: "label"
  include {
    phase: TEST
  }
  transform_param {
    scale: 0.0078125
    mirror: true
    mean_value: 127.5
    mean_value: 127.5
    mean_value: 127.5
  }
  data_param {
    source: "/home/licheng/face_data/face_lmdb_data/val_lmdb"
    batch_size: 16
    backend: LMDB
  }
}
layer {
  name: "conv1a"
  type: "Convolution"
  bottom: "data"
  top: "conv1a"
  param {
    lr_mult: 1
    decay_mult: 1
  }
  param {
    lr_mult: 2
    decay_mult: 0
  }
  convolution_param {
    num_output: 32
    kernel_size: 3
    stride: 1
    weight_filler {
      type: "xavier"
    }
    bias_filler {
      type: "constant"
      value: 0
    }
  }
}
layer {
  name: "relu1a"
  type: "PReLU"
  bottom: "conv1a"
  top: "conv1a"
}
layer {
  name: "conv1b"
  type: "Convolution"
  bottom: "conv1a"
  top: "conv1b"
  param {
    lr_mult: 1
    decay_mult: 1
  }
  param {
    lr_mult: 2
    decay_mult: 0
  }
  convolution_param {
    num_output: 64
    kernel_size: 3
    stride: 1
    weight_filler {
      type: "xavier"
    }
    bias_filler {
      type: "constant"
      value: 0
    }
  }
}
layer {
  name: "relu1b"
  type: "PReLU"
  bottom: "conv1b"
  top: "conv1b"
}
layer {
  name: "pool1b"
  type: "Pooling"
  bottom: "conv1b"
  top: "pool1b"
  pooling_param {
    pool: MAX
    kernel_size: 2
    stride: 2
  }
}
layer {
  name: "conv2_1"
  type: "Convolution"
  bottom: "pool1b"
  top: "conv2_1"
  param {
    lr_mult: 1
    decay_mult: 1
  }
  param {
    lr_mult: 2
    decay_mult: 0
  }
  convolution_param {
    num_output: 64
    pad: 1
    kernel_size: 3
    stride: 1
    weight_filler {
      type: "gaussian"
      std: 0.01
    }
    bias_filler {
      type: "constant"
      value: 0
    }
  }
}
layer {
  name: "relu2_1"
  type: "PReLU"
  bottom: "conv2_1"
  top: "conv2_1"
}
layer {
  name: "conv2_2"
  type: "Convolution"
  bottom: "conv2_1"
  top: "conv2_2"
  param {
    lr_mult: 1
    decay_mult: 1
  }
  param {
    lr_mult: 2
    decay_mult: 0
  }
  convolution_param {
    num_output: 64
    pad: 1
    kernel_size: 3
    stride: 1
    weight_filler {
      type: "gaussian"
      std: 0.01
    }
    bias_filler {
      type: "constant"
      value: 0
    }
  }
}
layer {
  name: "relu2_2"
  type: "PReLU"
  bottom: "conv2_2"
  top: "conv2_2"
}
layer {
  name: "res2_2"
  type: "Eltwise"
  bottom: "pool1b"
  bottom: "conv2_2"
  top: "res2_2"
  eltwise_param {
    operation: SUM
  }
}
layer {
  name: "conv2"
  type: "Convolution"
  bottom: "res2_2"
  top: "conv2"
  param {
    lr_mult: 1
    decay_mult: 1
  }
  param {
    lr_mult: 2
    decay_mult: 0
  }
  convolution_param {
    num_output: 128
    kernel_size: 3
    stride: 1
    weight_filler {
      type: "xavier"
    }
    bias_filler {
      type: "constant"
      value: 0
    }
  }
}
layer {
  name: "relu2"
  type: "PReLU"
  bottom: "conv2"
  top: "conv2"
}
layer {
  name: "pool2"
  type: "Pooling"
  bottom: "conv2"
  top: "pool2"
  pooling_param {
    pool: MAX
    kernel_size: 2
    stride: 2
  }
}
layer {
  name: "conv3_1"
  type: "Convolution"
  bottom: "pool2"
  top: "conv3_1"
  param {
    lr_mult: 1
    decay_mult: 1
  }
  param {
    lr_mult: 2
    decay_mult: 0
  }
  convolution_param {
    num_output: 128
    pad: 1
    kernel_size: 3
    stride: 1
    weight_filler {
      type: "gaussian"
      std: 0.01
    }
    bias_filler {
      type: "constant"
      value: 0
    }
  }
}
layer {
  name: "relu3_1"
  type: "PReLU"
  bottom: "conv3_1"
  top: "conv3_1"
}
layer {
  name: "conv3_2"
  type: "Convolution"
  bottom: "conv3_1"
  top: "conv3_2"
  param {
    lr_mult: 1
    decay_mult: 1
  }
  param {
    lr_mult: 2
    decay_mult: 0
  }
  convolution_param {
    num_output: 128
    pad: 1
    kernel_size: 3
    stride: 1
    weight_filler {
      type: "gaussian"
      std: 0.01
    }
    bias_filler {
      type: "constant"
      value: 0
    }
  }
}
layer {
  name: "relu3_2"
  type: "PReLU"
  bottom: "conv3_2"
  top: "conv3_2"
}
layer {
  name: "res3_2"
  type: "Eltwise"
  bottom: "pool2"
  bottom: "conv3_2"
  top: "res3_2"
  eltwise_param {
    operation: SUM
  }
}
layer {
  name: "conv3_3"
  type: "Convolution"
  bottom: "res3_2"
  top: "conv3_3"
  param {
    lr_mult: 1
    decay_mult: 1
  }
  param {
    lr_mult: 2
    decay_mult: 0
  }
  convolution_param {
    num_output: 128
    pad: 1
    kernel_size: 3
    stride: 1
    weight_filler {
      type: "gaussian"
      std: 0.01
    }
    bias_filler {
      type: "constant"
      value: 0
    }
  }
}
layer {
  name: "relu3_3"
  type: "PReLU"
  bottom: "conv3_3"
  top: "conv3_3"
}
layer {
  name: "conv3_4"
  type: "Convolution"
  bottom: "conv3_3"
  top: "conv3_4"
  param {
    lr_mult: 1
    decay_mult: 1
  }
  param {
    lr_mult: 2
    decay_mult: 0
  }
  convolution_param {
    num_output: 128
    pad: 1
    kernel_size: 3
    stride: 1
    weight_filler {
      type: "gaussian"
      std: 0.01
    }
    bias_filler {
      type: "constant"
      value: 0
    }
  }
}
layer {
  name: "relu3_4"
  type: "PReLU"
  bottom: "conv3_4"
  top: "conv3_4"
}
layer {
  name: "res3_4"
  type: "Eltwise"
  bottom: "res3_2"
  bottom: "conv3_4"
  top: "res3_4"
  eltwise_param {
    operation: SUM
  }
}
layer {
  name: "conv3"
  type: "Convolution"
  bottom: "res3_4"
  top: "conv3"
  param {
    lr_mult: 1
    decay_mult: 1
  }
  param {
    lr_mult: 2
    decay_mult: 0
  }
  convolution_param {
    num_output: 256
    kernel_size: 3
    stride: 1
    weight_filler {
      type: "xavier"
    }
    bias_filler {
      type: "constant"
      value: 0
    }
  }
}
layer {
  name: "relu3"
  type: "PReLU"
  bottom: "conv3"
  top: "conv3"
}
layer {
  name: "pool3"
  type: "Pooling"
  bottom: "conv3"
  top: "pool3"
  pooling_param {
    pool: MAX
    kernel_size: 2
    stride: 2
  }
}
layer {
  name: "conv4_1"
  type: "Convolution"
  bottom: "pool3"
  top: "conv4_1"
  param {
    lr_mult: 1
    decay_mult: 1
  }
  param {
    lr_mult: 2
    decay_mult: 0
  }
  convolution_param {
    num_output: 256
    pad: 1
    kernel_size: 3
    stride: 1
    weight_filler {
      type: "gaussian"
      std: 0.01
    }
    bias_filler {
      type: "constant"
      value: 0
    }
  }
}
layer {
  name: "relu4_1"
  type: "PReLU"
  bottom: "conv4_1"
  top: "conv4_1"
}
layer {
  name: "conv4_2"
  type: "Convolution"
  bottom: "conv4_1"
  top: "conv4_2"
  param {
    lr_mult: 1
    decay_mult: 1
  }
  param {
    lr_mult: 2
    decay_mult: 0
  }
  convolution_param {
    num_output: 256
    pad: 1
    kernel_size: 3
    stride: 1
    weight_filler {
      type: "gaussian"
      std: 0.01
    }
    bias_filler {
      type: "constant"
      value: 0
    }
  }
}
layer {
  name: "relu4_2"
  type: "PReLU"
  bottom: "conv4_2"
  top: "conv4_2"
}
layer {
  name: "res4_2"
  type: "Eltwise"
  bottom: "pool3"
  bottom: "conv4_2"
  top: "res4_2"
  eltwise_param {
    operation: SUM
  }
}
layer {
  name: "conv4_3"
  type: "Convolution"
  bottom: "res4_2"
  top: "conv4_3"
  param {
    lr_mult: 1
    decay_mult: 1
  }
  param {
    lr_mult: 2
    decay_mult: 0
  }
  convolution_param {
    num_output: 256
    pad: 1
    kernel_size: 3
    stride: 1
    weight_filler {
      type: "gaussian"
      std: 0.01
    }
    bias_filler {
      type: "constant"
      value: 0
    }
  }
}
layer {
  name: "relu4_3"
  type: "PReLU"
  bottom: "conv4_3"
  top: "conv4_3"
}
layer {
  name: "conv4_4"
  type: "Convolution"
  bottom: "conv4_3"
  top: "conv4_4"
  param {
    lr_mult: 1
    decay_mult: 1
  }
  param {
    lr_mult: 2
    decay_mult: 0
  }
  convolution_param {
    num_output: 256
    pad: 1
    kernel_size: 3
    stride: 1
    weight_filler {
      type: "gaussian"
      std: 0.01
    }
    bias_filler {
      type: "constant"
      value: 0
    }
  }
}
layer {
  name: "relu4_4"
  type: "PReLU"
  bottom: "conv4_4"
  top: "conv4_4"
}
layer {
  name: "res4_4"
  type: "Eltwise"
  bottom: "res4_2"
  bottom: "conv4_4"
  top: "res4_4"
  eltwise_param {
    operation: SUM
  }
}
layer {
  name: "conv4_5"
  type: "Convolution"
  bottom: "res4_4"
  top: "conv4_5"
  param {
    lr_mult: 1
    decay_mult: 1
  }
  param {
    lr_mult: 2
    decay_mult: 0
  }
  convolution_param {
    num_output: 256
    pad: 1
    kernel_size: 3
    stride: 1
    weight_filler {
      type: "gaussian"
      std: 0.01
    }
    bias_filler {
      type: "constant"
      value: 0
    }
  }
}
layer {
  name: "relu4_5"
  type: "PReLU"
  bottom: "conv4_5"
  top: "conv4_5"
}
layer {
  name: "conv4_6"
  type: "Convolution"
  bottom: "conv4_5"
  top: "conv4_6"
  param {
    lr_mult: 1
    decay_mult: 1
  }
  param {
    lr_mult: 2
    decay_mult: 0
  }
  convolution_param {
    num_output: 256
    pad: 1
    kernel_size: 3
    stride: 1
    weight_filler {
      type: "gaussian"
      std: 0.01
    }
    bias_filler {
      type: "constant"
      value: 0
    }
  }
}
layer {
  name: "relu4_6"
  type: "PReLU"
  bottom: "conv4_6"
  top: "conv4_6"
}
layer {
  name: "res4_6"
  type: "Eltwise"
  bottom: "res4_4"
  bottom: "conv4_6"
  top: "res4_6"
  eltwise_param {
    operation: SUM
  }
}
layer {
  name: "conv4_7"
  type: "Convolution"
  bottom: "res4_6"
  top: "conv4_7"
  param {
    lr_mult: 1
    decay_mult: 1
  }
  param {
    lr_mult: 2
    decay_mult: 0
  }
  convolution_param {
    num_output: 256
    pad: 1
    kernel_size: 3
    stride: 1
    weight_filler {
      type: "gaussian"
      std: 0.01
    }
    bias_filler {
      type: "constant"
      value: 0
    }
  }
}
layer {
  name: "relu4_7"
  type: "PReLU"
  bottom: "conv4_7"
  top: "conv4_7"
}
layer {
  name: "conv4_8"
  type: "Convolution"
  bottom: "conv4_7"
  top: "conv4_8"
  param {
    lr_mult: 1
    decay_mult: 1
  }
  param {
    lr_mult: 2
    decay_mult: 0
  }
  convolution_param {
    num_output: 256
    pad: 1
    kernel_size: 3
    stride: 1
    weight_filler {
      type: "gaussian"
      std: 0.01
    }
    bias_filler {
      type: "constant"
      value: 0
    }
  }
}
layer {
  name: "relu4_8"
  type: "PReLU"
  bottom: "conv4_8"
  top: "conv4_8"
}
layer {
  name: "res4_8"
  type: "Eltwise"
  bottom: "res4_6"
  bottom: "conv4_8"
  top: "res4_8"
  eltwise_param {
    operation: SUM
  }
}
layer {
  name: "conv4_9"
  type: "Convolution"
  bottom: "res4_8"
  top: "conv4_9"
  param {
    lr_mult: 1
    decay_mult: 1
  }
  param {
    lr_mult: 2
    decay_mult: 0
  }
  convolution_param {
    num_output: 256
    pad: 1
    kernel_size: 3
    stride: 1
    weight_filler {
      type: "gaussian"
      std: 0.01
    }
    bias_filler {
      type: "constant"
      value: 0
    }
  }
}
layer {
  name: "relu4_9"
  type: "PReLU"
  bottom: "conv4_9"
  top: "conv4_9"
}
layer {
  name: "conv4_10"
  type: "Convolution"
  bottom: "conv4_9"
  top: "conv4_10"
  param {
    lr_mult: 1
    decay_mult: 1
  }
  param {
    lr_mult: 2
    decay_mult: 0
  }
  convolution_param {
    num_output: 256
    pad: 1
    kernel_size: 3
    stride: 1
    weight_filler {
      type: "gaussian"
      std: 0.01
    }
    bias_filler {
      type: "constant"
      value: 0
    }
  }
}
layer {
  name: "relu4_10"
  type: "PReLU"
  bottom: "conv4_10"
  top: "conv4_10"
}
layer {
  name: "res4_10"
  type: "Eltwise"
  bottom: "res4_8"
  bottom: "conv4_10"
  top: "res4_10"
  eltwise_param {
    operation: SUM
  }
}
layer {
  name: "conv4"
  type: "Convolution"
  bottom: "res4_10"
  top: "conv4"
  param {
    lr_mult: 1
    decay_mult: 1
  }
  param {
    lr_mult: 2
    decay_mult: 0
  }
  convolution_param {
    num_output: 512
    kernel_size: 3
    stride: 1
    weight_filler {
      type: "xavier"
    }
    bias_filler {
      type: "constant"
      value: 0
    }
  }
}
layer {
  name: "relu4"
  type: "PReLU"
  bottom: "conv4"
  top: "conv4"
}
layer {
  name: "pool4"
  type: "Pooling"
  bottom: "conv4"
  top: "pool4"
  pooling_param {
    pool: MAX
    kernel_size: 2
    stride: 2
  }
}
layer {
  name: "conv5_1"
  type: "Convolution"
  bottom: "pool4"
  top: "conv5_1"
  param {
    lr_mult: 1
    decay_mult: 1
  }
  param {
    lr_mult: 2
    decay_mult: 0
  }
  convolution_param {
    num_output: 512
    pad: 1
    kernel_size: 3
    stride: 1
    weight_filler {
      type: "gaussian"
      std: 0.01
    }
    bias_filler {
      type: "constant"
      value: 0
    }
  }
}
layer {
  name: "relu5_1"
  type: "PReLU"
  bottom: "conv5_1"
  top: "conv5_1"
}
layer {
  name: "conv5_2"
  type: "Convolution"
  bottom: "conv5_1"
  top: "conv5_2"
  param {
    lr_mult: 1
    decay_mult: 1
  }
  param {
    lr_mult: 2
    decay_mult: 0
  }
  convolution_param {
    num_output: 512
    pad: 1
    kernel_size: 3
    stride: 1
    weight_filler {
      type: "gaussian"
      std: 0.01
    }
    bias_filler {
      type: "constant"
      value: 0
    }
  }
}
layer {
  name: "relu5_2"
  type: "PReLU"
  bottom: "conv5_2"
  top: "conv5_2"
}
layer {
  name: "res5_2"
  type: "Eltwise"
  bottom: "pool4"
  bottom: "conv5_2"
  top: "res5_2"
  eltwise_param {
    operation: SUM
  }
}
layer {
  name: "conv5_3"
  type: "Convolution"
  bottom: "res5_2"
  top: "conv5_3"
  param {
    lr_mult: 1
    decay_mult: 1
  }
  param {
    lr_mult: 2
    decay_mult: 0
  }
  convolution_param {
    num_output: 512
    pad: 1
    kernel_size: 3
    stride: 1
    weight_filler {
      type: "gaussian"
      std: 0.01
    }
    bias_filler {
      type: "constant"
      value: 0
    }
  }
}
layer {
  name: "relu5_3"
  type: "PReLU"
  bottom: "conv5_3"
  top: "conv5_3"
}
layer {
  name: "conv5_4"
  type: "Convolution"
  bottom: "conv5_3"
  top: "conv5_4"
  param {
    lr_mult: 1
    decay_mult: 1
  }
  param {
    lr_mult: 2
    decay_mult: 0
  }
  convolution_param {
    num_output: 512
    pad: 1
    kernel_size: 3
    stride: 1
    weight_filler {
      type: "gaussian"
      std: 0.01
    }
    bias_filler {
      type: "constant"
      value: 0
    }
  }
}
layer {
  name: "relu5_4"
  type: "PReLU"
  bottom: "conv5_4"
  top: "conv5_4"
}
layer {
  name: "res5_4"
  type: "Eltwise"
  bottom: "res5_2"
  bottom: "conv5_4"
  top: "res5_4"
  eltwise_param {
    operation: SUM
  }
}
layer {
  name: "conv5_5"
  type: "Convolution"
  bottom: "res5_4"
  top: "conv5_5"
  param {
    lr_mult: 1
    decay_mult: 1
  }
  param {
    lr_mult: 2
    decay_mult: 0
  }
  convolution_param {
    num_output: 512
    pad: 1
    kernel_size: 3
    stride: 1
    weight_filler {
      type: "gaussian"
      std: 0.01
    }
    bias_filler {
      type: "constant"
      value: 0
    }
  }
}
layer {
  name: "relu5_5"
  type: "PReLU"
  bottom: "conv5_5"
  top: "conv5_5"
}
layer {
  name: "conv5_6"
  type: "Convolution"
  bottom: "conv5_5"
  top: "conv5_6"
  param {
    lr_mult: 1
    decay_mult: 1
  }
  param {
    lr_mult: 2
    decay_mult: 0
  }
  convolution_param {
    num_output: 512
    pad: 1
    kernel_size: 3
    stride: 1
    weight_filler {
      type: "gaussian"
      std: 0.01
    }
    bias_filler {
      type: "constant"
      value: 0
    }
  }
}
layer {
  name: "relu5_6"
  type: "PReLU"
  bottom: "conv5_6"
  top: "conv5_6"
}
layer {
  name: "res5_6"
  type: "Eltwise"
  bottom: "res5_4"
  bottom: "conv5_6"
  top: "res5_6"
  eltwise_param {
    operation: SUM
  }
}
layer {
  name: "fc5"
  type: "InnerProduct"
  bottom: "res5_6"
  top: "fc5"
  param {
    lr_mult: 1
    decay_mult: 1
  }
  param {
    lr_mult: 2
    decay_mult: 0
  }
  inner_product_param {
    num_output: 512
    weight_filler {
      type: "xavier"
    }
    bias_filler {
      type: "constant"
      value: 0
    }
  }
}
layer {
  name: "fc6"
  type: "InnerProduct"
  bottom: "fc5"
  top: "fc6"
  param {
    lr_mult: 1
    decay_mult: 1
  }
  param {
    lr_mult: 2
    decay_mult: 0
  }
  inner_product_param {
    num_output: 43074
    weight_filler {
      type: "xavier"
    }
    bias_filler {
      type: "constant"
      value: 0
    }
  }
}
layer {
  name: "softmax"
  type: "Softmax"
  bottom: "fc6"
  top: "prob"
}
layer {
  name: "accuracy"
  type: "Accuracy"
  bottom: "prob"
  bottom: "label"
  top: "accuracy"
}
layer {
  name: "softmax_loss"
  type: "SoftmaxWithLoss"
  bottom: "fc6"
  bottom: "label"
  top: "softmax_loss"
}
layer {
  name: "center_loss"
  type: "CenterLoss"
  bottom: "fc5"
  bottom: "label"
  top: "center_loss"
  loss_weight: 0.003
  param {
    lr_mult: 1
    decay_mult: 2
  }
  center_loss_param {
    num_output: 43074
    center_filler {
      type: "xavier"
    }
  }
}
I1226 17:04:57.708429 14151 layer_factory.hpp:77] Creating layer data
I1226 17:04:57.708528 14151 net.cpp:100] Creating Layer data
I1226 17:04:57.708559 14151 net.cpp:408] data -> data
I1226 17:04:57.708571 14151 net.cpp:408] data -> label
I1226 17:04:57.710880 14206 db_lmdb.cpp:35] Opened lmdb /home/licheng/face_data/face_lmdb_data/val_lmdb
I1226 17:04:57.711149 14151 data_layer.cpp:41] output data size: 16,3,112,96
I1226 17:04:57.722261 14151 net.cpp:150] Setting up data
I1226 17:04:57.722290 14151 net.cpp:157] Top shape: 16 3 112 96 (516096)
I1226 17:04:57.722304 14151 net.cpp:157] Top shape: 16 (16)
I1226 17:04:57.722316 14151 net.cpp:165] Memory required for data: 2064448
I1226 17:04:57.722326 14151 layer_factory.hpp:77] Creating layer label_data_1_split
I1226 17:04:57.722373 14151 net.cpp:100] Creating Layer label_data_1_split
I1226 17:04:57.722400 14151 net.cpp:434] label_data_1_split <- label
I1226 17:04:57.722415 14151 net.cpp:408] label_data_1_split -> label_data_1_split_0
I1226 17:04:57.722432 14151 net.cpp:408] label_data_1_split -> label_data_1_split_1
I1226 17:04:57.722450 14151 net.cpp:408] label_data_1_split -> label_data_1_split_2
I1226 17:04:57.723285 14151 net.cpp:150] Setting up label_data_1_split
I1226 17:04:57.723309 14151 net.cpp:157] Top shape: 16 (16)
I1226 17:04:57.723320 14151 net.cpp:157] Top shape: 16 (16)
I1226 17:04:57.723332 14151 net.cpp:157] Top shape: 16 (16)
I1226 17:04:57.723341 14151 net.cpp:165] Memory required for data: 2064640
I1226 17:04:57.723352 14151 layer_factory.hpp:77] Creating layer conv1a
I1226 17:04:57.723381 14151 net.cpp:100] Creating Layer conv1a
I1226 17:04:57.723392 14151 net.cpp:434] conv1a <- data
I1226 17:04:57.723409 14151 net.cpp:408] conv1a -> conv1a
I1226 17:04:57.723767 14151 net.cpp:150] Setting up conv1a
I1226 17:04:57.723783 14151 net.cpp:157] Top shape: 16 32 110 94 (5294080)
I1226 17:04:57.723789 14151 net.cpp:165] Memory required for data: 23240960
I1226 17:04:57.723803 14151 layer_factory.hpp:77] Creating layer relu1a
I1226 17:04:57.723814 14151 net.cpp:100] Creating Layer relu1a
I1226 17:04:57.723819 14151 net.cpp:434] relu1a <- conv1a
I1226 17:04:57.723829 14151 net.cpp:395] relu1a -> conv1a (in-place)
I1226 17:04:57.729290 14151 net.cpp:150] Setting up relu1a
I1226 17:04:57.729311 14151 net.cpp:157] Top shape: 16 32 110 94 (5294080)
I1226 17:04:57.729318 14151 net.cpp:165] Memory required for data: 44417280
I1226 17:04:57.729329 14151 layer_factory.hpp:77] Creating layer conv1b
I1226 17:04:57.729346 14151 net.cpp:100] Creating Layer conv1b
I1226 17:04:57.729353 14151 net.cpp:434] conv1b <- conv1a
I1226 17:04:57.729365 14151 net.cpp:408] conv1b -> conv1b
I1226 17:04:57.729795 14151 net.cpp:150] Setting up conv1b
I1226 17:04:57.729809 14151 net.cpp:157] Top shape: 16 64 108 92 (10174464)
I1226 17:04:57.729815 14151 net.cpp:165] Memory required for data: 85115136
I1226 17:04:57.729825 14151 layer_factory.hpp:77] Creating layer relu1b
I1226 17:04:57.729840 14151 net.cpp:100] Creating Layer relu1b
I1226 17:04:57.729846 14151 net.cpp:434] relu1b <- conv1b
I1226 17:04:57.729853 14151 net.cpp:395] relu1b -> conv1b (in-place)
I1226 17:04:57.733294 14151 net.cpp:150] Setting up relu1b
I1226 17:04:57.733347 14151 net.cpp:157] Top shape: 16 64 108 92 (10174464)
I1226 17:04:57.733357 14151 net.cpp:165] Memory required for data: 125812992
I1226 17:04:57.733373 14151 layer_factory.hpp:77] Creating layer pool1b
I1226 17:04:57.733394 14151 net.cpp:100] Creating Layer pool1b
I1226 17:04:57.733412 14151 net.cpp:434] pool1b <- conv1b
I1226 17:04:57.733429 14151 net.cpp:408] pool1b -> pool1b
I1226 17:04:57.733508 14151 net.cpp:150] Setting up pool1b
I1226 17:04:57.733542 14151 net.cpp:157] Top shape: 16 64 54 46 (2543616)
I1226 17:04:57.733556 14151 net.cpp:165] Memory required for data: 135987456
I1226 17:04:57.733570 14151 layer_factory.hpp:77] Creating layer pool1b_pool1b_0_split
I1226 17:04:57.733594 14151 net.cpp:100] Creating Layer pool1b_pool1b_0_split
I1226 17:04:57.733609 14151 net.cpp:434] pool1b_pool1b_0_split <- pool1b
I1226 17:04:57.733628 14151 net.cpp:408] pool1b_pool1b_0_split -> pool1b_pool1b_0_split_0
I1226 17:04:57.733657 14151 net.cpp:408] pool1b_pool1b_0_split -> pool1b_pool1b_0_split_1
I1226 17:04:57.733770 14151 net.cpp:150] Setting up pool1b_pool1b_0_split
I1226 17:04:57.733793 14151 net.cpp:157] Top shape: 16 64 54 46 (2543616)
I1226 17:04:57.733815 14151 net.cpp:157] Top shape: 16 64 54 46 (2543616)
I1226 17:04:57.733829 14151 net.cpp:165] Memory required for data: 156336384
I1226 17:04:57.733844 14151 layer_factory.hpp:77] Creating layer conv2_1
I1226 17:04:57.733886 14151 net.cpp:100] Creating Layer conv2_1
I1226 17:04:57.733901 14151 net.cpp:434] conv2_1 <- pool1b_pool1b_0_split_0
I1226 17:04:57.733922 14151 net.cpp:408] conv2_1 -> conv2_1
I1226 17:04:57.737901 14151 net.cpp:150] Setting up conv2_1
I1226 17:04:57.737948 14151 net.cpp:157] Top shape: 16 64 54 46 (2543616)
I1226 17:04:57.738031 14151 net.cpp:165] Memory required for data: 166510848
I1226 17:04:57.738059 14151 layer_factory.hpp:77] Creating layer relu2_1
I1226 17:04:57.738096 14151 net.cpp:100] Creating Layer relu2_1
I1226 17:04:57.738112 14151 net.cpp:434] relu2_1 <- conv2_1
I1226 17:04:57.738131 14151 net.cpp:395] relu2_1 -> conv2_1 (in-place)
I1226 17:04:57.738893 14151 net.cpp:150] Setting up relu2_1
I1226 17:04:57.738929 14151 net.cpp:157] Top shape: 16 64 54 46 (2543616)
I1226 17:04:57.738942 14151 net.cpp:165] Memory required for data: 176685312
I1226 17:04:57.738970 14151 layer_factory.hpp:77] Creating layer conv2_2
I1226 17:04:57.739006 14151 net.cpp:100] Creating Layer conv2_2
I1226 17:04:57.739022 14151 net.cpp:434] conv2_2 <- conv2_1
I1226 17:04:57.739047 14151 net.cpp:408] conv2_2 -> conv2_2
I1226 17:04:57.741842 14151 net.cpp:150] Setting up conv2_2
I1226 17:04:57.741863 14151 net.cpp:157] Top shape: 16 64 54 46 (2543616)
I1226 17:04:57.741873 14151 net.cpp:165] Memory required for data: 186859776
I1226 17:04:57.741888 14151 layer_factory.hpp:77] Creating layer relu2_2
I1226 17:04:57.741904 14151 net.cpp:100] Creating Layer relu2_2
I1226 17:04:57.741914 14151 net.cpp:434] relu2_2 <- conv2_2
I1226 17:04:57.741926 14151 net.cpp:395] relu2_2 -> conv2_2 (in-place)
I1226 17:04:57.744571 14151 net.cpp:150] Setting up relu2_2
I1226 17:04:57.744606 14151 net.cpp:157] Top shape: 16 64 54 46 (2543616)
I1226 17:04:57.744617 14151 net.cpp:165] Memory required for data: 197034240
I1226 17:04:57.744634 14151 layer_factory.hpp:77] Creating layer res2_2
I1226 17:04:57.744653 14151 net.cpp:100] Creating Layer res2_2
I1226 17:04:57.744665 14151 net.cpp:434] res2_2 <- pool1b_pool1b_0_split_1
I1226 17:04:57.744679 14151 net.cpp:434] res2_2 <- conv2_2
I1226 17:04:57.744698 14151 net.cpp:408] res2_2 -> res2_2
I1226 17:04:57.744782 14151 net.cpp:150] Setting up res2_2
I1226 17:04:57.744803 14151 net.cpp:157] Top shape: 16 64 54 46 (2543616)
I1226 17:04:57.744812 14151 net.cpp:165] Memory required for data: 207208704
I1226 17:04:57.744822 14151 layer_factory.hpp:77] Creating layer conv2
I1226 17:04:57.744845 14151 net.cpp:100] Creating Layer conv2
I1226 17:04:57.744856 14151 net.cpp:434] conv2 <- res2_2
I1226 17:04:57.744874 14151 net.cpp:408] conv2 -> conv2
I1226 17:04:57.746363 14151 net.cpp:150] Setting up conv2
I1226 17:04:57.746385 14151 net.cpp:157] Top shape: 16 128 52 44 (4685824)
I1226 17:04:57.746407 14151 net.cpp:165] Memory required for data: 225952000
I1226 17:04:57.746423 14151 layer_factory.hpp:77] Creating layer relu2
I1226 17:04:57.746439 14151 net.cpp:100] Creating Layer relu2
I1226 17:04:57.746449 14151 net.cpp:434] relu2 <- conv2
I1226 17:04:57.746462 14151 net.cpp:395] relu2 -> conv2 (in-place)
I1226 17:04:57.749341 14151 net.cpp:150] Setting up relu2
I1226 17:04:57.749366 14151 net.cpp:157] Top shape: 16 128 52 44 (4685824)
I1226 17:04:57.749373 14151 net.cpp:165] Memory required for data: 244695296
I1226 17:04:57.749383 14151 layer_factory.hpp:77] Creating layer pool2
I1226 17:04:57.749397 14151 net.cpp:100] Creating Layer pool2
I1226 17:04:57.749405 14151 net.cpp:434] pool2 <- conv2
I1226 17:04:57.749415 14151 net.cpp:408] pool2 -> pool2
I1226 17:04:57.749480 14151 net.cpp:150] Setting up pool2
I1226 17:04:57.749490 14151 net.cpp:157] Top shape: 16 128 26 22 (1171456)
I1226 17:04:57.749497 14151 net.cpp:165] Memory required for data: 249381120
I1226 17:04:57.749503 14151 layer_factory.hpp:77] Creating layer pool2_pool2_0_split
I1226 17:04:57.749516 14151 net.cpp:100] Creating Layer pool2_pool2_0_split
I1226 17:04:57.749522 14151 net.cpp:434] pool2_pool2_0_split <- pool2
I1226 17:04:57.749536 14151 net.cpp:408] pool2_pool2_0_split -> pool2_pool2_0_split_0
I1226 17:04:57.749547 14151 net.cpp:408] pool2_pool2_0_split -> pool2_pool2_0_split_1
I1226 17:04:57.749601 14151 net.cpp:150] Setting up pool2_pool2_0_split
I1226 17:04:57.749613 14151 net.cpp:157] Top shape: 16 128 26 22 (1171456)
I1226 17:04:57.749624 14151 net.cpp:157] Top shape: 16 128 26 22 (1171456)
I1226 17:04:57.749637 14151 net.cpp:165] Memory required for data: 258752768
I1226 17:04:57.749662 14151 layer_factory.hpp:77] Creating layer conv3_1
I1226 17:04:57.749685 14151 net.cpp:100] Creating Layer conv3_1
I1226 17:04:57.749693 14151 net.cpp:434] conv3_1 <- pool2_pool2_0_split_0
I1226 17:04:57.749704 14151 net.cpp:408] conv3_1 -> conv3_1
I1226 17:04:57.755982 14151 net.cpp:150] Setting up conv3_1
I1226 17:04:57.756000 14151 net.cpp:157] Top shape: 16 128 26 22 (1171456)
I1226 17:04:57.756006 14151 net.cpp:165] Memory required for data: 263438592
I1226 17:04:57.756023 14151 layer_factory.hpp:77] Creating layer relu3_1
I1226 17:04:57.756033 14151 net.cpp:100] Creating Layer relu3_1
I1226 17:04:57.756042 14151 net.cpp:434] relu3_1 <- conv3_1
I1226 17:04:57.756049 14151 net.cpp:395] relu3_1 -> conv3_1 (in-place)
I1226 17:04:57.756249 14151 net.cpp:150] Setting up relu3_1
I1226 17:04:57.756263 14151 net.cpp:157] Top shape: 16 128 26 22 (1171456)
I1226 17:04:57.756269 14151 net.cpp:165] Memory required for data: 268124416
I1226 17:04:57.756278 14151 layer_factory.hpp:77] Creating layer conv3_2
I1226 17:04:57.756294 14151 net.cpp:100] Creating Layer conv3_2
I1226 17:04:57.756301 14151 net.cpp:434] conv3_2 <- conv3_1
I1226 17:04:57.756314 14151 net.cpp:408] conv3_2 -> conv3_2
I1226 17:04:57.762435 14151 net.cpp:150] Setting up conv3_2
I1226 17:04:57.762452 14151 net.cpp:157] Top shape: 16 128 26 22 (1171456)
I1226 17:04:57.762459 14151 net.cpp:165] Memory required for data: 272810240
I1226 17:04:57.762468 14151 layer_factory.hpp:77] Creating layer relu3_2
I1226 17:04:57.762477 14151 net.cpp:100] Creating Layer relu3_2
I1226 17:04:57.762485 14151 net.cpp:434] relu3_2 <- conv3_2
I1226 17:04:57.762492 14151 net.cpp:395] relu3_2 -> conv3_2 (in-place)
I1226 17:04:57.762675 14151 net.cpp:150] Setting up relu3_2
I1226 17:04:57.762686 14151 net.cpp:157] Top shape: 16 128 26 22 (1171456)
I1226 17:04:57.762691 14151 net.cpp:165] Memory required for data: 277496064
I1226 17:04:57.762699 14151 layer_factory.hpp:77] Creating layer res3_2
I1226 17:04:57.762712 14151 net.cpp:100] Creating Layer res3_2
I1226 17:04:57.762717 14151 net.cpp:434] res3_2 <- pool2_pool2_0_split_1
I1226 17:04:57.762725 14151 net.cpp:434] res3_2 <- conv3_2
I1226 17:04:57.762733 14151 net.cpp:408] res3_2 -> res3_2
I1226 17:04:57.762769 14151 net.cpp:150] Setting up res3_2
I1226 17:04:57.762779 14151 net.cpp:157] Top shape: 16 128 26 22 (1171456)
I1226 17:04:57.762785 14151 net.cpp:165] Memory required for data: 282181888
I1226 17:04:57.762791 14151 layer_factory.hpp:77] Creating layer res3_2_res3_2_0_split
I1226 17:04:57.762799 14151 net.cpp:100] Creating Layer res3_2_res3_2_0_split
I1226 17:04:57.762805 14151 net.cpp:434] res3_2_res3_2_0_split <- res3_2
I1226 17:04:57.762815 14151 net.cpp:408] res3_2_res3_2_0_split -> res3_2_res3_2_0_split_0
I1226 17:04:57.762825 14151 net.cpp:408] res3_2_res3_2_0_split -> res3_2_res3_2_0_split_1
I1226 17:04:57.762873 14151 net.cpp:150] Setting up res3_2_res3_2_0_split
I1226 17:04:57.762886 14151 net.cpp:157] Top shape: 16 128 26 22 (1171456)
I1226 17:04:57.762892 14151 net.cpp:157] Top shape: 16 128 26 22 (1171456)
I1226 17:04:57.762898 14151 net.cpp:165] Memory required for data: 291553536
I1226 17:04:57.762904 14151 layer_factory.hpp:77] Creating layer conv3_3
I1226 17:04:57.762917 14151 net.cpp:100] Creating Layer conv3_3
I1226 17:04:57.762923 14151 net.cpp:434] conv3_3 <- res3_2_res3_2_0_split_0
I1226 17:04:57.762935 14151 net.cpp:408] conv3_3 -> conv3_3
I1226 17:04:57.770599 14151 net.cpp:150] Setting up conv3_3
I1226 17:04:57.770622 14151 net.cpp:157] Top shape: 16 128 26 22 (1171456)
I1226 17:04:57.770627 14151 net.cpp:165] Memory required for data: 296239360
I1226 17:04:57.770637 14151 layer_factory.hpp:77] Creating layer relu3_3
I1226 17:04:57.770650 14151 net.cpp:100] Creating Layer relu3_3
I1226 17:04:57.770658 14151 net.cpp:434] relu3_3 <- conv3_3
I1226 17:04:57.770665 14151 net.cpp:395] relu3_3 -> conv3_3 (in-place)
I1226 17:04:57.770839 14151 net.cpp:150] Setting up relu3_3
I1226 17:04:57.770856 14151 net.cpp:157] Top shape: 16 128 26 22 (1171456)
I1226 17:04:57.770879 14151 net.cpp:165] Memory required for data: 300925184
I1226 17:04:57.770892 14151 layer_factory.hpp:77] Creating layer conv3_4
I1226 17:04:57.770913 14151 net.cpp:100] Creating Layer conv3_4
I1226 17:04:57.770921 14151 net.cpp:434] conv3_4 <- conv3_3
I1226 17:04:57.770931 14151 net.cpp:408] conv3_4 -> conv3_4
I1226 17:04:57.776588 14151 net.cpp:150] Setting up conv3_4
I1226 17:04:57.776604 14151 net.cpp:157] Top shape: 16 128 26 22 (1171456)
I1226 17:04:57.776610 14151 net.cpp:165] Memory required for data: 305611008
I1226 17:04:57.776619 14151 layer_factory.hpp:77] Creating layer relu3_4
I1226 17:04:57.776630 14151 net.cpp:100] Creating Layer relu3_4
I1226 17:04:57.776638 14151 net.cpp:434] relu3_4 <- conv3_4
I1226 17:04:57.776645 14151 net.cpp:395] relu3_4 -> conv3_4 (in-place)
I1226 17:04:57.776818 14151 net.cpp:150] Setting up relu3_4
I1226 17:04:57.776829 14151 net.cpp:157] Top shape: 16 128 26 22 (1171456)
I1226 17:04:57.776835 14151 net.cpp:165] Memory required for data: 310296832
I1226 17:04:57.776842 14151 layer_factory.hpp:77] Creating layer res3_4
I1226 17:04:57.776855 14151 net.cpp:100] Creating Layer res3_4
I1226 17:04:57.776862 14151 net.cpp:434] res3_4 <- res3_2_res3_2_0_split_1
I1226 17:04:57.776870 14151 net.cpp:434] res3_4 <- conv3_4
I1226 17:04:57.776880 14151 net.cpp:408] res3_4 -> res3_4
I1226 17:04:57.776911 14151 net.cpp:150] Setting up res3_4
I1226 17:04:57.776919 14151 net.cpp:157] Top shape: 16 128 26 22 (1171456)
I1226 17:04:57.776926 14151 net.cpp:165] Memory required for data: 314982656
I1226 17:04:57.776931 14151 layer_factory.hpp:77] Creating layer conv3
I1226 17:04:57.776947 14151 net.cpp:100] Creating Layer conv3
I1226 17:04:57.776957 14151 net.cpp:434] conv3 <- res3_4
I1226 17:04:57.776965 14151 net.cpp:408] conv3 -> conv3
I1226 17:04:57.781126 14151 net.cpp:150] Setting up conv3
I1226 17:04:57.781147 14151 net.cpp:157] Top shape: 16 256 24 20 (1966080)
I1226 17:04:57.781153 14151 net.cpp:165] Memory required for data: 322846976
I1226 17:04:57.781163 14151 layer_factory.hpp:77] Creating layer relu3
I1226 17:04:57.781172 14151 net.cpp:100] Creating Layer relu3
I1226 17:04:57.781178 14151 net.cpp:434] relu3 <- conv3
I1226 17:04:57.781188 14151 net.cpp:395] relu3 -> conv3 (in-place)
I1226 17:04:57.781395 14151 net.cpp:150] Setting up relu3
I1226 17:04:57.781410 14151 net.cpp:157] Top shape: 16 256 24 20 (1966080)
I1226 17:04:57.781415 14151 net.cpp:165] Memory required for data: 330711296
I1226 17:04:57.781422 14151 layer_factory.hpp:77] Creating layer pool3
I1226 17:04:57.781431 14151 net.cpp:100] Creating Layer pool3
I1226 17:04:57.781437 14151 net.cpp:434] pool3 <- conv3
I1226 17:04:57.781445 14151 net.cpp:408] pool3 -> pool3
I1226 17:04:57.781497 14151 net.cpp:150] Setting up pool3
I1226 17:04:57.781507 14151 net.cpp:157] Top shape: 16 256 12 10 (491520)
I1226 17:04:57.781512 14151 net.cpp:165] Memory required for data: 332677376
I1226 17:04:57.781517 14151 layer_factory.hpp:77] Creating layer pool3_pool3_0_split
I1226 17:04:57.781525 14151 net.cpp:100] Creating Layer pool3_pool3_0_split
I1226 17:04:57.781530 14151 net.cpp:434] pool3_pool3_0_split <- pool3
I1226 17:04:57.781540 14151 net.cpp:408] pool3_pool3_0_split -> pool3_pool3_0_split_0
I1226 17:04:57.781549 14151 net.cpp:408] pool3_pool3_0_split -> pool3_pool3_0_split_1
I1226 17:04:57.781597 14151 net.cpp:150] Setting up pool3_pool3_0_split
I1226 17:04:57.781606 14151 net.cpp:157] Top shape: 16 256 12 10 (491520)
I1226 17:04:57.781613 14151 net.cpp:157] Top shape: 16 256 12 10 (491520)
I1226 17:04:57.781618 14151 net.cpp:165] Memory required for data: 336609536
I1226 17:04:57.781625 14151 layer_factory.hpp:77] Creating layer conv4_1
I1226 17:04:57.781642 14151 net.cpp:100] Creating Layer conv4_1
I1226 17:04:57.781648 14151 net.cpp:434] conv4_1 <- pool3_pool3_0_split_0
I1226 17:04:57.781661 14151 net.cpp:408] conv4_1 -> conv4_1
I1226 17:04:57.802620 14151 net.cpp:150] Setting up conv4_1
I1226 17:04:57.802656 14151 net.cpp:157] Top shape: 16 256 12 10 (491520)
I1226 17:04:57.802670 14151 net.cpp:165] Memory required for data: 338575616
I1226 17:04:57.802706 14151 layer_factory.hpp:77] Creating layer relu4_1
I1226 17:04:57.802722 14151 net.cpp:100] Creating Layer relu4_1
I1226 17:04:57.802734 14151 net.cpp:434] relu4_1 <- conv4_1
I1226 17:04:57.802752 14151 net.cpp:395] relu4_1 -> conv4_1 (in-place)
I1226 17:04:57.802925 14151 net.cpp:150] Setting up relu4_1
I1226 17:04:57.802938 14151 net.cpp:157] Top shape: 16 256 12 10 (491520)
I1226 17:04:57.802944 14151 net.cpp:165] Memory required for data: 340541696
I1226 17:04:57.802963 14151 layer_factory.hpp:77] Creating layer conv4_2
I1226 17:04:57.802979 14151 net.cpp:100] Creating Layer conv4_2
I1226 17:04:57.802986 14151 net.cpp:434] conv4_2 <- conv4_1
I1226 17:04:57.802999 14151 net.cpp:408] conv4_2 -> conv4_2
I1226 17:04:57.823634 14151 net.cpp:150] Setting up conv4_2
I1226 17:04:57.823657 14151 net.cpp:157] Top shape: 16 256 12 10 (491520)
I1226 17:04:57.823663 14151 net.cpp:165] Memory required for data: 342507776
I1226 17:04:57.823673 14151 layer_factory.hpp:77] Creating layer relu4_2
I1226 17:04:57.823683 14151 net.cpp:100] Creating Layer relu4_2
I1226 17:04:57.823689 14151 net.cpp:434] relu4_2 <- conv4_2
I1226 17:04:57.823699 14151 net.cpp:395] relu4_2 -> conv4_2 (in-place)
I1226 17:04:57.823843 14151 net.cpp:150] Setting up relu4_2
I1226 17:04:57.823854 14151 net.cpp:157] Top shape: 16 256 12 10 (491520)
I1226 17:04:57.823859 14151 net.cpp:165] Memory required for data: 344473856
I1226 17:04:57.823868 14151 layer_factory.hpp:77] Creating layer res4_2
I1226 17:04:57.823880 14151 net.cpp:100] Creating Layer res4_2
I1226 17:04:57.823889 14151 net.cpp:434] res4_2 <- pool3_pool3_0_split_1
I1226 17:04:57.823896 14151 net.cpp:434] res4_2 <- conv4_2
I1226 17:04:57.823904 14151 net.cpp:408] res4_2 -> res4_2
I1226 17:04:57.823938 14151 net.cpp:150] Setting up res4_2
I1226 17:04:57.823948 14151 net.cpp:157] Top shape: 16 256 12 10 (491520)
I1226 17:04:57.823954 14151 net.cpp:165] Memory required for data: 346439936
I1226 17:04:57.823959 14151 layer_factory.hpp:77] Creating layer res4_2_res4_2_0_split
I1226 17:04:57.823969 14151 net.cpp:100] Creating Layer res4_2_res4_2_0_split
I1226 17:04:57.823976 14151 net.cpp:434] res4_2_res4_2_0_split <- res4_2
I1226 17:04:57.823984 14151 net.cpp:408] res4_2_res4_2_0_split -> res4_2_res4_2_0_split_0
I1226 17:04:57.824000 14151 net.cpp:408] res4_2_res4_2_0_split -> res4_2_res4_2_0_split_1
I1226 17:04:57.824044 14151 net.cpp:150] Setting up res4_2_res4_2_0_split
I1226 17:04:57.824055 14151 net.cpp:157] Top shape: 16 256 12 10 (491520)
I1226 17:04:57.824062 14151 net.cpp:157] Top shape: 16 256 12 10 (491520)
I1226 17:04:57.824072 14151 net.cpp:165] Memory required for data: 350372096
I1226 17:04:57.824079 14151 layer_factory.hpp:77] Creating layer conv4_3
I1226 17:04:57.824095 14151 net.cpp:100] Creating Layer conv4_3
I1226 17:04:57.824102 14151 net.cpp:434] conv4_3 <- res4_2_res4_2_0_split_0
I1226 17:04:57.824115 14151 net.cpp:408] conv4_3 -> conv4_3
I1226 17:04:57.846446 14151 net.cpp:150] Setting up conv4_3
I1226 17:04:57.846499 14151 net.cpp:157] Top shape: 16 256 12 10 (491520)
I1226 17:04:57.846506 14151 net.cpp:165] Memory required for data: 352338176
I1226 17:04:57.846518 14151 layer_factory.hpp:77] Creating layer relu4_3
I1226 17:04:57.846531 14151 net.cpp:100] Creating Layer relu4_3
I1226 17:04:57.846539 14151 net.cpp:434] relu4_3 <- conv4_3
I1226 17:04:57.846551 14151 net.cpp:395] relu4_3 -> conv4_3 (in-place)
I1226 17:04:57.846704 14151 net.cpp:150] Setting up relu4_3
I1226 17:04:57.846712 14151 net.cpp:157] Top shape: 16 256 12 10 (491520)
I1226 17:04:57.846717 14151 net.cpp:165] Memory required for data: 354304256
I1226 17:04:57.846725 14151 layer_factory.hpp:77] Creating layer conv4_4
I1226 17:04:57.846743 14151 net.cpp:100] Creating Layer conv4_4
I1226 17:04:57.846750 14151 net.cpp:434] conv4_4 <- conv4_3
I1226 17:04:57.846758 14151 net.cpp:408] conv4_4 -> conv4_4
I1226 17:04:57.875035 14151 net.cpp:150] Setting up conv4_4
I1226 17:04:57.875108 14151 net.cpp:157] Top shape: 16 256 12 10 (491520)
I1226 17:04:57.875130 14151 net.cpp:165] Memory required for data: 356270336
I1226 17:04:57.875174 14151 layer_factory.hpp:77] Creating layer relu4_4
I1226 17:04:57.875211 14151 net.cpp:100] Creating Layer relu4_4
I1226 17:04:57.875223 14151 net.cpp:434] relu4_4 <- conv4_4
I1226 17:04:57.875239 14151 net.cpp:395] relu4_4 -> conv4_4 (in-place)
I1226 17:04:57.875440 14151 net.cpp:150] Setting up relu4_4
I1226 17:04:57.875458 14151 net.cpp:157] Top shape: 16 256 12 10 (491520)
I1226 17:04:57.875465 14151 net.cpp:165] Memory required for data: 358236416
I1226 17:04:57.875475 14151 layer_factory.hpp:77] Creating layer res4_4
I1226 17:04:57.875489 14151 net.cpp:100] Creating Layer res4_4
I1226 17:04:57.875499 14151 net.cpp:434] res4_4 <- res4_2_res4_2_0_split_1
I1226 17:04:57.875509 14151 net.cpp:434] res4_4 <- conv4_4
I1226 17:04:57.875519 14151 net.cpp:408] res4_4 -> res4_4
I1226 17:04:57.875561 14151 net.cpp:150] Setting up res4_4
I1226 17:04:57.875573 14151 net.cpp:157] Top shape: 16 256 12 10 (491520)
I1226 17:04:57.875581 14151 net.cpp:165] Memory required for data: 360202496
I1226 17:04:57.875588 14151 layer_factory.hpp:77] Creating layer res4_4_res4_4_0_split
I1226 17:04:57.875602 14151 net.cpp:100] Creating Layer res4_4_res4_4_0_split
I1226 17:04:57.875610 14151 net.cpp:434] res4_4_res4_4_0_split <- res4_4
I1226 17:04:57.875620 14151 net.cpp:408] res4_4_res4_4_0_split -> res4_4_res4_4_0_split_0
I1226 17:04:57.875632 14151 net.cpp:408] res4_4_res4_4_0_split -> res4_4_res4_4_0_split_1
I1226 17:04:57.875690 14151 net.cpp:150] Setting up res4_4_res4_4_0_split
I1226 17:04:57.875702 14151 net.cpp:157] Top shape: 16 256 12 10 (491520)
I1226 17:04:57.875712 14151 net.cpp:157] Top shape: 16 256 12 10 (491520)
I1226 17:04:57.875720 14151 net.cpp:165] Memory required for data: 364134656
I1226 17:04:57.875727 14151 layer_factory.hpp:77] Creating layer conv4_5
I1226 17:04:57.875751 14151 net.cpp:100] Creating Layer conv4_5
I1226 17:04:57.875758 14151 net.cpp:434] conv4_5 <- res4_4_res4_4_0_split_0
I1226 17:04:57.875773 14151 net.cpp:408] conv4_5 -> conv4_5
I1226 17:04:57.901057 14151 net.cpp:150] Setting up conv4_5
I1226 17:04:57.901126 14151 net.cpp:157] Top shape: 16 256 12 10 (491520)
I1226 17:04:57.901134 14151 net.cpp:165] Memory required for data: 366100736
I1226 17:04:57.901149 14151 layer_factory.hpp:77] Creating layer relu4_5
I1226 17:04:57.901165 14151 net.cpp:100] Creating Layer relu4_5
I1226 17:04:57.901173 14151 net.cpp:434] relu4_5 <- conv4_5
I1226 17:04:57.901182 14151 net.cpp:395] relu4_5 -> conv4_5 (in-place)
I1226 17:04:57.901350 14151 net.cpp:150] Setting up relu4_5
I1226 17:04:57.901362 14151 net.cpp:157] Top shape: 16 256 12 10 (491520)
I1226 17:04:57.901368 14151 net.cpp:165] Memory required for data: 368066816
I1226 17:04:57.901376 14151 layer_factory.hpp:77] Creating layer conv4_6
I1226 17:04:57.901396 14151 net.cpp:100] Creating Layer conv4_6
I1226 17:04:57.901402 14151 net.cpp:434] conv4_6 <- conv4_5
I1226 17:04:57.901414 14151 net.cpp:408] conv4_6 -> conv4_6
I1226 17:04:57.921690 14151 net.cpp:150] Setting up conv4_6
I1226 17:04:57.921754 14151 net.cpp:157] Top shape: 16 256 12 10 (491520)
I1226 17:04:57.921762 14151 net.cpp:165] Memory required for data: 370032896
I1226 17:04:57.921777 14151 layer_factory.hpp:77] Creating layer relu4_6
I1226 17:04:57.921792 14151 net.cpp:100] Creating Layer relu4_6
I1226 17:04:57.921800 14151 net.cpp:434] relu4_6 <- conv4_6
I1226 17:04:57.921813 14151 net.cpp:395] relu4_6 -> conv4_6 (in-place)
I1226 17:04:57.921977 14151 net.cpp:150] Setting up relu4_6
I1226 17:04:57.921989 14151 net.cpp:157] Top shape: 16 256 12 10 (491520)
I1226 17:04:57.921995 14151 net.cpp:165] Memory required for data: 371998976
I1226 17:04:57.922003 14151 layer_factory.hpp:77] Creating layer res4_6
I1226 17:04:57.922019 14151 net.cpp:100] Creating Layer res4_6
I1226 17:04:57.922026 14151 net.cpp:434] res4_6 <- res4_4_res4_4_0_split_1
I1226 17:04:57.922034 14151 net.cpp:434] res4_6 <- conv4_6
I1226 17:04:57.922042 14151 net.cpp:408] res4_6 -> res4_6
I1226 17:04:57.922094 14151 net.cpp:150] Setting up res4_6
I1226 17:04:57.922130 14151 net.cpp:157] Top shape: 16 256 12 10 (491520)
I1226 17:04:57.922137 14151 net.cpp:165] Memory required for data: 373965056
I1226 17:04:57.922142 14151 layer_factory.hpp:77] Creating layer res4_6_res4_6_0_split
I1226 17:04:57.922152 14151 net.cpp:100] Creating Layer res4_6_res4_6_0_split
I1226 17:04:57.922158 14151 net.cpp:434] res4_6_res4_6_0_split <- res4_6
I1226 17:04:57.922169 14151 net.cpp:408] res4_6_res4_6_0_split -> res4_6_res4_6_0_split_0
I1226 17:04:57.922179 14151 net.cpp:408] res4_6_res4_6_0_split -> res4_6_res4_6_0_split_1
I1226 17:04:57.922226 14151 net.cpp:150] Setting up res4_6_res4_6_0_split
I1226 17:04:57.922236 14151 net.cpp:157] Top shape: 16 256 12 10 (491520)
I1226 17:04:57.922243 14151 net.cpp:157] Top shape: 16 256 12 10 (491520)
I1226 17:04:57.922248 14151 net.cpp:165] Memory required for data: 377897216
I1226 17:04:57.922255 14151 layer_factory.hpp:77] Creating layer conv4_7
I1226 17:04:57.922274 14151 net.cpp:100] Creating Layer conv4_7
I1226 17:04:57.922281 14151 net.cpp:434] conv4_7 <- res4_6_res4_6_0_split_0
I1226 17:04:57.922291 14151 net.cpp:408] conv4_7 -> conv4_7
I1226 17:04:57.944485 14151 net.cpp:150] Setting up conv4_7
I1226 17:04:57.944548 14151 net.cpp:157] Top shape: 16 256 12 10 (491520)
I1226 17:04:57.944555 14151 net.cpp:165] Memory required for data: 379863296
I1226 17:04:57.944568 14151 layer_factory.hpp:77] Creating layer relu4_7
I1226 17:04:57.944586 14151 net.cpp:100] Creating Layer relu4_7
I1226 17:04:57.944595 14151 net.cpp:434] relu4_7 <- conv4_7
I1226 17:04:57.944605 14151 net.cpp:395] relu4_7 -> conv4_7 (in-place)
I1226 17:04:57.944770 14151 net.cpp:150] Setting up relu4_7
I1226 17:04:57.944782 14151 net.cpp:157] Top shape: 16 256 12 10 (491520)
I1226 17:04:57.944787 14151 net.cpp:165] Memory required for data: 381829376
I1226 17:04:57.944797 14151 layer_factory.hpp:77] Creating layer conv4_8
I1226 17:04:57.944816 14151 net.cpp:100] Creating Layer conv4_8
I1226 17:04:57.944823 14151 net.cpp:434] conv4_8 <- conv4_7
I1226 17:04:57.944834 14151 net.cpp:408] conv4_8 -> conv4_8
I1226 17:04:57.971639 14151 net.cpp:150] Setting up conv4_8
I1226 17:04:57.971694 14151 net.cpp:157] Top shape: 16 256 12 10 (491520)
I1226 17:04:57.971701 14151 net.cpp:165] Memory required for data: 383795456
I1226 17:04:57.971714 14151 layer_factory.hpp:77] Creating layer relu4_8
I1226 17:04:57.971729 14151 net.cpp:100] Creating Layer relu4_8
I1226 17:04:57.971740 14151 net.cpp:434] relu4_8 <- conv4_8
I1226 17:04:57.971750 14151 net.cpp:395] relu4_8 -> conv4_8 (in-place)
I1226 17:04:57.971925 14151 net.cpp:150] Setting up relu4_8
I1226 17:04:57.971936 14151 net.cpp:157] Top shape: 16 256 12 10 (491520)
I1226 17:04:57.971941 14151 net.cpp:165] Memory required for data: 385761536
I1226 17:04:57.971951 14151 layer_factory.hpp:77] Creating layer res4_8
I1226 17:04:57.971962 14151 net.cpp:100] Creating Layer res4_8
I1226 17:04:57.971972 14151 net.cpp:434] res4_8 <- res4_6_res4_6_0_split_1
I1226 17:04:57.971981 14151 net.cpp:434] res4_8 <- conv4_8
I1226 17:04:57.971989 14151 net.cpp:408] res4_8 -> res4_8
I1226 17:04:57.972023 14151 net.cpp:150] Setting up res4_8
I1226 17:04:57.972033 14151 net.cpp:157] Top shape: 16 256 12 10 (491520)
I1226 17:04:57.972038 14151 net.cpp:165] Memory required for data: 387727616
I1226 17:04:57.972044 14151 layer_factory.hpp:77] Creating layer res4_8_res4_8_0_split
I1226 17:04:57.972056 14151 net.cpp:100] Creating Layer res4_8_res4_8_0_split
I1226 17:04:57.972064 14151 net.cpp:434] res4_8_res4_8_0_split <- res4_8
I1226 17:04:57.972079 14151 net.cpp:408] res4_8_res4_8_0_split -> res4_8_res4_8_0_split_0
I1226 17:04:57.972088 14151 net.cpp:408] res4_8_res4_8_0_split -> res4_8_res4_8_0_split_1
I1226 17:04:57.972141 14151 net.cpp:150] Setting up res4_8_res4_8_0_split
I1226 17:04:57.972151 14151 net.cpp:157] Top shape: 16 256 12 10 (491520)
I1226 17:04:57.972158 14151 net.cpp:157] Top shape: 16 256 12 10 (491520)
I1226 17:04:57.972164 14151 net.cpp:165] Memory required for data: 391659776
I1226 17:04:57.972180 14151 layer_factory.hpp:77] Creating layer conv4_9
I1226 17:04:57.972223 14151 net.cpp:100] Creating Layer conv4_9
I1226 17:04:57.972229 14151 net.cpp:434] conv4_9 <- res4_8_res4_8_0_split_0
I1226 17:04:57.972242 14151 net.cpp:408] conv4_9 -> conv4_9
I1226 17:04:57.997090 14151 net.cpp:150] Setting up conv4_9
I1226 17:04:57.997135 14151 net.cpp:157] Top shape: 16 256 12 10 (491520)
I1226 17:04:57.997141 14151 net.cpp:165] Memory required for data: 393625856
I1226 17:04:57.997151 14151 layer_factory.hpp:77] Creating layer relu4_9
I1226 17:04:57.997165 14151 net.cpp:100] Creating Layer relu4_9
I1226 17:04:57.997172 14151 net.cpp:434] relu4_9 <- conv4_9
I1226 17:04:57.997180 14151 net.cpp:395] relu4_9 -> conv4_9 (in-place)
I1226 17:04:57.997328 14151 net.cpp:150] Setting up relu4_9
I1226 17:04:57.997339 14151 net.cpp:157] Top shape: 16 256 12 10 (491520)
I1226 17:04:57.997342 14151 net.cpp:165] Memory required for data: 395591936
I1226 17:04:57.997350 14151 layer_factory.hpp:77] Creating layer conv4_10
I1226 17:04:57.997366 14151 net.cpp:100] Creating Layer conv4_10
I1226 17:04:57.997372 14151 net.cpp:434] conv4_10 <- conv4_9
I1226 17:04:57.997380 14151 net.cpp:408] conv4_10 -> conv4_10
I1226 17:04:58.019354 14151 net.cpp:150] Setting up conv4_10
I1226 17:04:58.019376 14151 net.cpp:157] Top shape: 16 256 12 10 (491520)
I1226 17:04:58.019382 14151 net.cpp:165] Memory required for data: 397558016
I1226 17:04:58.019392 14151 layer_factory.hpp:77] Creating layer relu4_10
I1226 17:04:58.019402 14151 net.cpp:100] Creating Layer relu4_10
I1226 17:04:58.019407 14151 net.cpp:434] relu4_10 <- conv4_10
I1226 17:04:58.019414 14151 net.cpp:395] relu4_10 -> conv4_10 (in-place)
I1226 17:04:58.019547 14151 net.cpp:150] Setting up relu4_10
I1226 17:04:58.019556 14151 net.cpp:157] Top shape: 16 256 12 10 (491520)
I1226 17:04:58.019562 14151 net.cpp:165] Memory required for data: 399524096
I1226 17:04:58.019567 14151 layer_factory.hpp:77] Creating layer res4_10
I1226 17:04:58.019577 14151 net.cpp:100] Creating Layer res4_10
I1226 17:04:58.019583 14151 net.cpp:434] res4_10 <- res4_8_res4_8_0_split_1
I1226 17:04:58.019589 14151 net.cpp:434] res4_10 <- conv4_10
I1226 17:04:58.019596 14151 net.cpp:408] res4_10 -> res4_10
I1226 17:04:58.019629 14151 net.cpp:150] Setting up res4_10
I1226 17:04:58.019637 14151 net.cpp:157] Top shape: 16 256 12 10 (491520)
I1226 17:04:58.019642 14151 net.cpp:165] Memory required for data: 401490176
I1226 17:04:58.019646 14151 layer_factory.hpp:77] Creating layer conv4
I1226 17:04:58.019657 14151 net.cpp:100] Creating Layer conv4
I1226 17:04:58.019664 14151 net.cpp:434] conv4 <- res4_10
I1226 17:04:58.019672 14151 net.cpp:408] conv4 -> conv4
I1226 17:04:58.030143 14151 net.cpp:150] Setting up conv4
I1226 17:04:58.030164 14151 net.cpp:157] Top shape: 16 512 10 8 (655360)
I1226 17:04:58.030170 14151 net.cpp:165] Memory required for data: 404111616
I1226 17:04:58.030179 14151 layer_factory.hpp:77] Creating layer relu4
I1226 17:04:58.030186 14151 net.cpp:100] Creating Layer relu4
I1226 17:04:58.030192 14151 net.cpp:434] relu4 <- conv4
I1226 17:04:58.030200 14151 net.cpp:395] relu4 -> conv4 (in-place)
I1226 17:04:58.033139 14151 net.cpp:150] Setting up relu4
I1226 17:04:58.033160 14151 net.cpp:157] Top shape: 16 512 10 8 (655360)
I1226 17:04:58.033166 14151 net.cpp:165] Memory required for data: 406733056
I1226 17:04:58.033174 14151 layer_factory.hpp:77] Creating layer pool4
I1226 17:04:58.033186 14151 net.cpp:100] Creating Layer pool4
I1226 17:04:58.033192 14151 net.cpp:434] pool4 <- conv4
I1226 17:04:58.033200 14151 net.cpp:408] pool4 -> pool4
I1226 17:04:58.033253 14151 net.cpp:150] Setting up pool4
I1226 17:04:58.033262 14151 net.cpp:157] Top shape: 16 512 5 4 (163840)
I1226 17:04:58.033267 14151 net.cpp:165] Memory required for data: 407388416
I1226 17:04:58.033272 14151 layer_factory.hpp:77] Creating layer pool4_pool4_0_split
I1226 17:04:58.033291 14151 net.cpp:100] Creating Layer pool4_pool4_0_split
I1226 17:04:58.033296 14151 net.cpp:434] pool4_pool4_0_split <- pool4
I1226 17:04:58.033304 14151 net.cpp:408] pool4_pool4_0_split -> pool4_pool4_0_split_0
I1226 17:04:58.033321 14151 net.cpp:408] pool4_pool4_0_split -> pool4_pool4_0_split_1
I1226 17:04:58.033385 14151 net.cpp:150] Setting up pool4_pool4_0_split
I1226 17:04:58.033392 14151 net.cpp:157] Top shape: 16 512 5 4 (163840)
I1226 17:04:58.033398 14151 net.cpp:157] Top shape: 16 512 5 4 (163840)
I1226 17:04:58.033402 14151 net.cpp:165] Memory required for data: 408699136
I1226 17:04:58.033408 14151 layer_factory.hpp:77] Creating layer conv5_1
I1226 17:04:58.033421 14151 net.cpp:100] Creating Layer conv5_1
I1226 17:04:58.033427 14151 net.cpp:434] conv5_1 <- pool4_pool4_0_split_0
I1226 17:04:58.033434 14151 net.cpp:408] conv5_1 -> conv5_1
I1226 17:04:58.109848 14151 net.cpp:150] Setting up conv5_1
I1226 17:04:58.109902 14151 net.cpp:157] Top shape: 16 512 5 4 (163840)
I1226 17:04:58.109908 14151 net.cpp:165] Memory required for data: 409354496
I1226 17:04:58.109938 14151 layer_factory.hpp:77] Creating layer relu5_1
I1226 17:04:58.109951 14151 net.cpp:100] Creating Layer relu5_1
I1226 17:04:58.109959 14151 net.cpp:434] relu5_1 <- conv5_1
I1226 17:04:58.109969 14151 net.cpp:395] relu5_1 -> conv5_1 (in-place)
I1226 17:04:58.110146 14151 net.cpp:150] Setting up relu5_1
I1226 17:04:58.110163 14151 net.cpp:157] Top shape: 16 512 5 4 (163840)
I1226 17:04:58.110172 14151 net.cpp:165] Memory required for data: 410009856
I1226 17:04:58.110185 14151 layer_factory.hpp:77] Creating layer conv5_2
I1226 17:04:58.110210 14151 net.cpp:100] Creating Layer conv5_2
I1226 17:04:58.110221 14151 net.cpp:434] conv5_2 <- conv5_1
I1226 17:04:58.110239 14151 net.cpp:408] conv5_2 -> conv5_2
I1226 17:04:58.190459 14151 net.cpp:150] Setting up conv5_2
I1226 17:04:58.190521 14151 net.cpp:157] Top shape: 16 512 5 4 (163840)
I1226 17:04:58.190528 14151 net.cpp:165] Memory required for data: 410665216
I1226 17:04:58.190562 14151 layer_factory.hpp:77] Creating layer relu5_2
I1226 17:04:58.190585 14151 net.cpp:100] Creating Layer relu5_2
I1226 17:04:58.190603 14151 net.cpp:434] relu5_2 <- conv5_2
I1226 17:04:58.190616 14151 net.cpp:395] relu5_2 -> conv5_2 (in-place)
I1226 17:04:58.190801 14151 net.cpp:150] Setting up relu5_2
I1226 17:04:58.190811 14151 net.cpp:157] Top shape: 16 512 5 4 (163840)
I1226 17:04:58.190816 14151 net.cpp:165] Memory required for data: 411320576
I1226 17:04:58.190824 14151 layer_factory.hpp:77] Creating layer res5_2
I1226 17:04:58.190836 14151 net.cpp:100] Creating Layer res5_2
I1226 17:04:58.190846 14151 net.cpp:434] res5_2 <- pool4_pool4_0_split_1
I1226 17:04:58.190853 14151 net.cpp:434] res5_2 <- conv5_2
I1226 17:04:58.190874 14151 net.cpp:408] res5_2 -> res5_2
I1226 17:04:58.190907 14151 net.cpp:150] Setting up res5_2
I1226 17:04:58.190914 14151 net.cpp:157] Top shape: 16 512 5 4 (163840)
I1226 17:04:58.190919 14151 net.cpp:165] Memory required for data: 411975936
I1226 17:04:58.190924 14151 layer_factory.hpp:77] Creating layer res5_2_res5_2_0_split
I1226 17:04:58.190937 14151 net.cpp:100] Creating Layer res5_2_res5_2_0_split
I1226 17:04:58.190942 14151 net.cpp:434] res5_2_res5_2_0_split <- res5_2
I1226 17:04:58.190948 14151 net.cpp:408] res5_2_res5_2_0_split -> res5_2_res5_2_0_split_0
I1226 17:04:58.190958 14151 net.cpp:408] res5_2_res5_2_0_split -> res5_2_res5_2_0_split_1
I1226 17:04:58.191011 14151 net.cpp:150] Setting up res5_2_res5_2_0_split
I1226 17:04:58.191020 14151 net.cpp:157] Top shape: 16 512 5 4 (163840)
I1226 17:04:58.191025 14151 net.cpp:157] Top shape: 16 512 5 4 (163840)
I1226 17:04:58.191030 14151 net.cpp:165] Memory required for data: 413286656
I1226 17:04:58.191035 14151 layer_factory.hpp:77] Creating layer conv5_3
I1226 17:04:58.191053 14151 net.cpp:100] Creating Layer conv5_3
I1226 17:04:58.191059 14151 net.cpp:434] conv5_3 <- res5_2_res5_2_0_split_0
I1226 17:04:58.191076 14151 net.cpp:408] conv5_3 -> conv5_3
I1226 17:04:58.284927 14151 net.cpp:150] Setting up conv5_3
I1226 17:04:58.284986 14151 net.cpp:157] Top shape: 16 512 5 4 (163840)
I1226 17:04:58.284993 14151 net.cpp:165] Memory required for data: 413942016
I1226 17:04:58.285006 14151 layer_factory.hpp:77] Creating layer relu5_3
I1226 17:04:58.285032 14151 net.cpp:100] Creating Layer relu5_3
I1226 17:04:58.285063 14151 net.cpp:434] relu5_3 <- conv5_3
I1226 17:04:58.285079 14151 net.cpp:395] relu5_3 -> conv5_3 (in-place)
I1226 17:04:58.285217 14151 net.cpp:150] Setting up relu5_3
I1226 17:04:58.285228 14151 net.cpp:157] Top shape: 16 512 5 4 (163840)
I1226 17:04:58.285231 14151 net.cpp:165] Memory required for data: 414597376
I1226 17:04:58.285239 14151 layer_factory.hpp:77] Creating layer conv5_4
I1226 17:04:58.285257 14151 net.cpp:100] Creating Layer conv5_4
I1226 17:04:58.285264 14151 net.cpp:434] conv5_4 <- conv5_3
I1226 17:04:58.285274 14151 net.cpp:408] conv5_4 -> conv5_4
I1226 17:04:58.364019 14151 net.cpp:150] Setting up conv5_4
I1226 17:04:58.364048 14151 net.cpp:157] Top shape: 16 512 5 4 (163840)
I1226 17:04:58.364053 14151 net.cpp:165] Memory required for data: 415252736
I1226 17:04:58.364063 14151 layer_factory.hpp:77] Creating layer relu5_4
I1226 17:04:58.364078 14151 net.cpp:100] Creating Layer relu5_4
I1226 17:04:58.364084 14151 net.cpp:434] relu5_4 <- conv5_4
I1226 17:04:58.364094 14151 net.cpp:395] relu5_4 -> conv5_4 (in-place)
I1226 17:04:58.364218 14151 net.cpp:150] Setting up relu5_4
I1226 17:04:58.364228 14151 net.cpp:157] Top shape: 16 512 5 4 (163840)
I1226 17:04:58.364233 14151 net.cpp:165] Memory required for data: 415908096
I1226 17:04:58.364239 14151 layer_factory.hpp:77] Creating layer res5_4
I1226 17:04:58.364253 14151 net.cpp:100] Creating Layer res5_4
I1226 17:04:58.364259 14151 net.cpp:434] res5_4 <- res5_2_res5_2_0_split_1
I1226 17:04:58.364266 14151 net.cpp:434] res5_4 <- conv5_4
I1226 17:04:58.364274 14151 net.cpp:408] res5_4 -> res5_4
I1226 17:04:58.364306 14151 net.cpp:150] Setting up res5_4
I1226 17:04:58.364315 14151 net.cpp:157] Top shape: 16 512 5 4 (163840)
I1226 17:04:58.364320 14151 net.cpp:165] Memory required for data: 416563456
I1226 17:04:58.364326 14151 layer_factory.hpp:77] Creating layer res5_4_res5_4_0_split
I1226 17:04:58.364333 14151 net.cpp:100] Creating Layer res5_4_res5_4_0_split
I1226 17:04:58.364338 14151 net.cpp:434] res5_4_res5_4_0_split <- res5_4
I1226 17:04:58.364347 14151 net.cpp:408] res5_4_res5_4_0_split -> res5_4_res5_4_0_split_0
I1226 17:04:58.364433 14151 net.cpp:408] res5_4_res5_4_0_split -> res5_4_res5_4_0_split_1
I1226 17:04:58.364480 14151 net.cpp:150] Setting up res5_4_res5_4_0_split
I1226 17:04:58.364488 14151 net.cpp:157] Top shape: 16 512 5 4 (163840)
I1226 17:04:58.364495 14151 net.cpp:157] Top shape: 16 512 5 4 (163840)
I1226 17:04:58.364498 14151 net.cpp:165] Memory required for data: 417874176
I1226 17:04:58.364503 14151 layer_factory.hpp:77] Creating layer conv5_5
I1226 17:04:58.364519 14151 net.cpp:100] Creating Layer conv5_5
I1226 17:04:58.364526 14151 net.cpp:434] conv5_5 <- res5_4_res5_4_0_split_0
I1226 17:04:58.364533 14151 net.cpp:408] conv5_5 -> conv5_5
I1226 17:04:58.443332 14151 net.cpp:150] Setting up conv5_5
I1226 17:04:58.443354 14151 net.cpp:157] Top shape: 16 512 5 4 (163840)
I1226 17:04:58.443361 14151 net.cpp:165] Memory required for data: 418529536
I1226 17:04:58.443377 14151 layer_factory.hpp:77] Creating layer relu5_5
I1226 17:04:58.443390 14151 net.cpp:100] Creating Layer relu5_5
I1226 17:04:58.443397 14151 net.cpp:434] relu5_5 <- conv5_5
I1226 17:04:58.443403 14151 net.cpp:395] relu5_5 -> conv5_5 (in-place)
I1226 17:04:58.443527 14151 net.cpp:150] Setting up relu5_5
I1226 17:04:58.443537 14151 net.cpp:157] Top shape: 16 512 5 4 (163840)
I1226 17:04:58.443542 14151 net.cpp:165] Memory required for data: 419184896
I1226 17:04:58.443549 14151 layer_factory.hpp:77] Creating layer conv5_6
I1226 17:04:58.443562 14151 net.cpp:100] Creating Layer conv5_6
I1226 17:04:58.443568 14151 net.cpp:434] conv5_6 <- conv5_5
I1226 17:04:58.443578 14151 net.cpp:408] conv5_6 -> conv5_6
I1226 17:04:58.523115 14151 net.cpp:150] Setting up conv5_6
I1226 17:04:58.523149 14151 net.cpp:157] Top shape: 16 512 5 4 (163840)
I1226 17:04:58.523154 14151 net.cpp:165] Memory required for data: 419840256
I1226 17:04:58.523164 14151 layer_factory.hpp:77] Creating layer relu5_6
I1226 17:04:58.523180 14151 net.cpp:100] Creating Layer relu5_6
I1226 17:04:58.523205 14151 net.cpp:434] relu5_6 <- conv5_6
I1226 17:04:58.523213 14151 net.cpp:395] relu5_6 -> conv5_6 (in-place)
I1226 17:04:58.523337 14151 net.cpp:150] Setting up relu5_6
I1226 17:04:58.523346 14151 net.cpp:157] Top shape: 16 512 5 4 (163840)
I1226 17:04:58.523351 14151 net.cpp:165] Memory required for data: 420495616
I1226 17:04:58.523358 14151 layer_factory.hpp:77] Creating layer res5_6
I1226 17:04:58.523367 14151 net.cpp:100] Creating Layer res5_6
I1226 17:04:58.523373 14151 net.cpp:434] res5_6 <- res5_4_res5_4_0_split_1
I1226 17:04:58.523380 14151 net.cpp:434] res5_6 <- conv5_6
I1226 17:04:58.523388 14151 net.cpp:408] res5_6 -> res5_6
I1226 17:04:58.523418 14151 net.cpp:150] Setting up res5_6
I1226 17:04:58.523427 14151 net.cpp:157] Top shape: 16 512 5 4 (163840)
I1226 17:04:58.523432 14151 net.cpp:165] Memory required for data: 421150976
I1226 17:04:58.523444 14151 layer_factory.hpp:77] Creating layer fc5
I1226 17:04:58.523458 14151 net.cpp:100] Creating Layer fc5
I1226 17:04:58.523463 14151 net.cpp:434] fc5 <- res5_6
I1226 17:04:58.523473 14151 net.cpp:408] fc5 -> fc5
I1226 17:04:58.568583 14151 net.cpp:150] Setting up fc5
I1226 17:04:58.568637 14151 net.cpp:157] Top shape: 16 512 (8192)
I1226 17:04:58.568646 14151 net.cpp:165] Memory required for data: 421183744
I1226 17:04:58.568663 14151 layer_factory.hpp:77] Creating layer fc5_fc5_0_split
I1226 17:04:58.568682 14151 net.cpp:100] Creating Layer fc5_fc5_0_split
I1226 17:04:58.568693 14151 net.cpp:434] fc5_fc5_0_split <- fc5
I1226 17:04:58.568707 14151 net.cpp:408] fc5_fc5_0_split -> fc5_fc5_0_split_0
I1226 17:04:58.568724 14151 net.cpp:408] fc5_fc5_0_split -> fc5_fc5_0_split_1
I1226 17:04:58.568815 14151 net.cpp:150] Setting up fc5_fc5_0_split
I1226 17:04:58.568830 14151 net.cpp:157] Top shape: 16 512 (8192)
I1226 17:04:58.568841 14151 net.cpp:157] Top shape: 16 512 (8192)
I1226 17:04:58.568848 14151 net.cpp:165] Memory required for data: 421249280
I1226 17:04:58.568857 14151 layer_factory.hpp:77] Creating layer fc6
I1226 17:04:58.568874 14151 net.cpp:100] Creating Layer fc6
I1226 17:04:58.568883 14151 net.cpp:434] fc6 <- fc5_fc5_0_split_0
I1226 17:04:58.568895 14151 net.cpp:408] fc6 -> fc6
I1226 17:04:58.757191 14151 net.cpp:150] Setting up fc6
I1226 17:04:58.757244 14151 net.cpp:157] Top shape: 16 43074 (689184)
I1226 17:04:58.757251 14151 net.cpp:165] Memory required for data: 424006016
I1226 17:04:58.757277 14151 layer_factory.hpp:77] Creating layer fc6_fc6_0_split
I1226 17:04:58.757292 14151 net.cpp:100] Creating Layer fc6_fc6_0_split
I1226 17:04:58.757302 14151 net.cpp:434] fc6_fc6_0_split <- fc6
I1226 17:04:58.757313 14151 net.cpp:408] fc6_fc6_0_split -> fc6_fc6_0_split_0
I1226 17:04:58.757324 14151 net.cpp:408] fc6_fc6_0_split -> fc6_fc6_0_split_1
I1226 17:04:58.757380 14151 net.cpp:150] Setting up fc6_fc6_0_split
I1226 17:04:58.757390 14151 net.cpp:157] Top shape: 16 43074 (689184)
I1226 17:04:58.757395 14151 net.cpp:157] Top shape: 16 43074 (689184)
I1226 17:04:58.757400 14151 net.cpp:165] Memory required for data: 429519488
I1226 17:04:58.757405 14151 layer_factory.hpp:77] Creating layer softmax
I1226 17:04:58.757413 14151 net.cpp:100] Creating Layer softmax
I1226 17:04:58.757419 14151 net.cpp:434] softmax <- fc6_fc6_0_split_0
I1226 17:04:58.757427 14151 net.cpp:408] softmax -> prob
I1226 17:04:58.757598 14151 net.cpp:150] Setting up softmax
I1226 17:04:58.757608 14151 net.cpp:157] Top shape: 16 43074 (689184)
I1226 17:04:58.757613 14151 net.cpp:165] Memory required for data: 432276224
I1226 17:04:58.757618 14151 layer_factory.hpp:77] Creating layer accuracy
I1226 17:04:58.757627 14151 net.cpp:100] Creating Layer accuracy
I1226 17:04:58.757632 14151 net.cpp:434] accuracy <- prob
I1226 17:04:58.757639 14151 net.cpp:434] accuracy <- label_data_1_split_0
I1226 17:04:58.757647 14151 net.cpp:408] accuracy -> accuracy
…
