…
I1219 16:50:14.576716 35123 net.cpp:322] The NetState phase (0) differed from the phase (1) specified by a rule in layer data
I1219 16:50:14.577512 35123 net.cpp:58] Initializing net from parameters: 
name: "Face-ResNet"
state {
  phase: TRAIN
  level: 0
  stage: ""
}
layer {
  name: "data"
  type: "Data"
  top: "data"
  top: "label"
  include {
    phase: TRAIN
  }
  transform_param {
    scale: 0.0078125
    mirror: true
    mean_value: 127.5
    mean_value: 127.5
    mean_value: 127.5
  }
  data_param {
    source: "/home/licheng/face_data/face_lmdb_data/train_lmdb"
    batch_size: 64
    backend: LMDB
  }
}
layer {
  name: "conv1a"
  type: "Convolution"
  bottom: "data"
  top: "conv1a"
  param {
    lr_mult: 1
    decay_mult: 1
  }
  param {
    lr_mult: 2
    decay_mult: 0
  }
  convolution_param {
    num_output: 32
    kernel_size: 3
    stride: 1
    weight_filler {
      type: "xavier"
    }
    bias_filler {
      type: "constant"
      value: 0
    }
  }
}
layer {
  name: "relu1a"
  type: "PReLU"
  bottom: "conv1a"
  top: "conv1a"
}
layer {
  name: "conv1b"
  type: "Convolution"
  bottom: "conv1a"
  top: "conv1b"
  param {
    lr_mult: 1
    decay_mult: 1
  }
  param {
    lr_mult: 2
    decay_mult: 0
  }
  convolution_param {
    num_output: 64
    kernel_size: 3
    stride: 1
    weight_filler {
      type: "xavier"
    }
    bias_filler {
      type: "constant"
      value: 0
    }
  }
}
layer {
  name: "relu1b"
  type: "PReLU"
  bottom: "conv1b"
  top: "conv1b"
}
layer {
  name: "pool1b"
  type: "Pooling"
  bottom: "conv1b"
  top: "pool1b"
  pooling_param {
    pool: MAX
    kernel_size: 2
    stride: 2
  }
}
layer {
  name: "conv2_1"
  type: "Convolution"
  bottom: "pool1b"
  top: "conv2_1"
  param {
    lr_mult: 1
    decay_mult: 1
  }
  param {
    lr_mult: 2
    decay_mult: 0
  }
  convolution_param {
    num_output: 64
    pad: 1
    kernel_size: 3
    stride: 1
    weight_filler {
      type: "gaussian"
      std: 0.01
    }
    bias_filler {
      type: "constant"
      value: 0
    }
  }
}
layer {
  name: "relu2_1"
  type: "PReLU"
  bottom: "conv2_1"
  top: "conv2_1"
}
layer {
  name: "conv2_2"
  type: "Convolution"
  bottom: "conv2_1"
  top: "conv2_2"
  param {
    lr_mult: 1
    decay_mult: 1
  }
  param {
    lr_mult: 2
    decay_mult: 0
  }
  convolution_param {
    num_output: 64
    pad: 1
    kernel_size: 3
    stride: 1
    weight_filler {
      type: "gaussian"
      std: 0.01
    }
    bias_filler {
      type: "constant"
      value: 0
    }
  }
}
layer {
  name: "relu2_2"
  type: "PReLU"
  bottom: "conv2_2"
  top: "conv2_2"
}
layer {
  name: "res2_2"
  type: "Eltwise"
  bottom: "pool1b"
  bottom: "conv2_2"
  top: "res2_2"
  eltwise_param {
    operation: SUM
  }
}
layer {
  name: "conv2"
  type: "Convolution"
  bottom: "res2_2"
  top: "conv2"
  param {
    lr_mult: 1
    decay_mult: 1
  }
  param {
    lr_mult: 2
    decay_mult: 0
  }
  convolution_param {
    num_output: 128
    kernel_size: 3
    stride: 1
    weight_filler {
      type: "xavier"
    }
    bias_filler {
      type: "constant"
      value: 0
    }
  }
}
layer {
  name: "relu2"
  type: "PReLU"
  bottom: "conv2"
  top: "conv2"
}
layer {
  name: "pool2"
  type: "Pooling"
  bottom: "conv2"
  top: "pool2"
  pooling_param {
    pool: MAX
    kernel_size: 2
    stride: 2
  }
}
layer {
  name: "conv3_1"
  type: "Convolution"
  bottom: "pool2"
  top: "conv3_1"
  param {
    lr_mult: 1
    decay_mult: 1
  }
  param {
    lr_mult: 2
    decay_mult: 0
  }
  convolution_param {
    num_output: 128
    pad: 1
    kernel_size: 3
    stride: 1
    weight_filler {
      type: "gaussian"
      std: 0.01
    }
    bias_filler {
      type: "constant"
      value: 0
    }
  }
}
layer {
  name: "relu3_1"
  type: "PReLU"
  bottom: "conv3_1"
  top: "conv3_1"
}
layer {
  name: "conv3_2"
  type: "Convolution"
  bottom: "conv3_1"
  top: "conv3_2"
  param {
    lr_mult: 1
    decay_mult: 1
  }
  param {
    lr_mult: 2
    decay_mult: 0
  }
  convolution_param {
    num_output: 128
    pad: 1
    kernel_size: 3
    stride: 1
    weight_filler {
      type: "gaussian"
      std: 0.01
    }
    bias_filler {
      type: "constant"
      value: 0
    }
  }
}
layer {
  name: "relu3_2"
  type: "PReLU"
  bottom: "conv3_2"
  top: "conv3_2"
}
layer {
  name: "res3_2"
  type: "Eltwise"
  bottom: "pool2"
  bottom: "conv3_2"
  top: "res3_2"
  eltwise_param {
    operation: SUM
  }
}
layer {
  name: "conv3_3"
  type: "Convolution"
  bottom: "res3_2"
  top: "conv3_3"
  param {
    lr_mult: 1
    decay_mult: 1
  }
  param {
    lr_mult: 2
    decay_mult: 0
  }
  convolution_param {
    num_output: 128
    pad: 1
    kernel_size: 3
    stride: 1
    weight_filler {
      type: "gaussian"
      std: 0.01
    }
    bias_filler {
      type: "constant"
      value: 0
    }
  }
}
layer {
  name: "relu3_3"
  type: "PReLU"
  bottom: "conv3_3"
  top: "conv3_3"
}
layer {
  name: "conv3_4"
  type: "Convolution"
  bottom: "conv3_3"
  top: "conv3_4"
  param {
    lr_mult: 1
    decay_mult: 1
  }
  param {
    lr_mult: 2
    decay_mult: 0
  }
  convolution_param {
    num_output: 128
    pad: 1
    kernel_size: 3
    stride: 1
    weight_filler {
      type: "gaussian"
      std: 0.01
    }
    bias_filler {
      type: "constant"
      value: 0
    }
  }
}
layer {
  name: "relu3_4"
  type: "PReLU"
  bottom: "conv3_4"
  top: "conv3_4"
}
layer {
  name: "res3_4"
  type: "Eltwise"
  bottom: "res3_2"
  bottom: "conv3_4"
  top: "res3_4"
  eltwise_param {
    operation: SUM
  }
}
layer {
  name: "conv3"
  type: "Convolution"
  bottom: "res3_4"
  top: "conv3"
  param {
    lr_mult: 1
    decay_mult: 1
  }
  param {
    lr_mult: 2
    decay_mult: 0
  }
  convolution_param {
    num_output: 256
    kernel_size: 3
    stride: 1
    weight_filler {
      type: "xavier"
    }
    bias_filler {
      type: "constant"
      value: 0
    }
  }
}
layer {
  name: "relu3"
  type: "PReLU"
  bottom: "conv3"
  top: "conv3"
}
layer {
  name: "pool3"
  type: "Pooling"
  bottom: "conv3"
  top: "pool3"
  pooling_param {
    pool: MAX
    kernel_size: 2
    stride: 2
  }
}
layer {
  name: "conv4_1"
  type: "Convolution"
  bottom: "pool3"
  top: "conv4_1"
  param {
    lr_mult: 1
    decay_mult: 1
  }
  param {
    lr_mult: 2
    decay_mult: 0
  }
  convolution_param {
    num_output: 256
    pad: 1
    kernel_size: 3
    stride: 1
    weight_filler {
      type: "gaussian"
      std: 0.01
    }
    bias_filler {
      type: "constant"
      value: 0
    }
  }
}
layer {
  name: "relu4_1"
  type: "PReLU"
  bottom: "conv4_1"
  top: "conv4_1"
}
layer {
  name: "conv4_2"
  type: "Convolution"
  bottom: "conv4_1"
  top: "conv4_2"
  param {
    lr_mult: 1
    decay_mult: 1
  }
  param {
    lr_mult: 2
    decay_mult: 0
  }
  convolution_param {
    num_output: 256
    pad: 1
    kernel_size: 3
    stride: 1
    weight_filler {
      type: "gaussian"
      std: 0.01
    }
    bias_filler {
      type: "constant"
      value: 0
    }
  }
}
layer {
  name: "relu4_2"
  type: "PReLU"
  bottom: "conv4_2"
  top: "conv4_2"
}
layer {
  name: "res4_2"
  type: "Eltwise"
  bottom: "pool3"
  bottom: "conv4_2"
  top: "res4_2"
  eltwise_param {
    operation: SUM
  }
}
layer {
  name: "conv4_3"
  type: "Convolution"
  bottom: "res4_2"
  top: "conv4_3"
  param {
    lr_mult: 1
    decay_mult: 1
  }
  param {
    lr_mult: 2
    decay_mult: 0
  }
  convolution_param {
    num_output: 256
    pad: 1
    kernel_size: 3
    stride: 1
    weight_filler {
      type: "gaussian"
      std: 0.01
    }
    bias_filler {
      type: "constant"
      value: 0
    }
  }
}
layer {
  name: "relu4_3"
  type: "PReLU"
  bottom: "conv4_3"
  top: "conv4_3"
}
layer {
  name: "conv4_4"
  type: "Convolution"
  bottom: "conv4_3"
  top: "conv4_4"
  param {
    lr_mult: 1
    decay_mult: 1
  }
  param {
    lr_mult: 2
    decay_mult: 0
  }
  convolution_param {
    num_output: 256
    pad: 1
    kernel_size: 3
    stride: 1
    weight_filler {
      type: "gaussian"
      std: 0.01
    }
    bias_filler {
      type: "constant"
      value: 0
    }
  }
}
layer {
  name: "relu4_4"
  type: "PReLU"
  bottom: "conv4_4"
  top: "conv4_4"
}
layer {
  name: "res4_4"
  type: "Eltwise"
  bottom: "res4_2"
  bottom: "conv4_4"
  top: "res4_4"
  eltwise_param {
    operation: SUM
  }
}
layer {
  name: "conv4_5"
  type: "Convolution"
  bottom: "res4_4"
  top: "conv4_5"
  param {
    lr_mult: 1
    decay_mult: 1
  }
  param {
    lr_mult: 2
    decay_mult: 0
  }
  convolution_param {
    num_output: 256
    pad: 1
    kernel_size: 3
    stride: 1
    weight_filler {
      type: "gaussian"
      std: 0.01
    }
    bias_filler {
      type: "constant"
      value: 0
    }
  }
}
layer {
  name: "relu4_5"
  type: "PReLU"
  bottom: "conv4_5"
  top: "conv4_5"
}
layer {
  name: "conv4_6"
  type: "Convolution"
  bottom: "conv4_5"
  top: "conv4_6"
  param {
    lr_mult: 1
    decay_mult: 1
  }
  param {
    lr_mult: 2
    decay_mult: 0
  }
  convolution_param {
    num_output: 256
    pad: 1
    kernel_size: 3
    stride: 1
    weight_filler {
      type: "gaussian"
      std: 0.01
    }
    bias_filler {
      type: "constant"
      value: 0
    }
  }
}
layer {
  name: "relu4_6"
  type: "PReLU"
  bottom: "conv4_6"
  top: "conv4_6"
}
layer {
  name: "res4_6"
  type: "Eltwise"
  bottom: "res4_4"
  bottom: "conv4_6"
  top: "res4_6"
  eltwise_param {
    operation: SUM
  }
}
layer {
  name: "conv4_7"
  type: "Convolution"
  bottom: "res4_6"
  top: "conv4_7"
  param {
    lr_mult: 1
    decay_mult: 1
  }
  param {
    lr_mult: 2
    decay_mult: 0
  }
  convolution_param {
    num_output: 256
    pad: 1
    kernel_size: 3
    stride: 1
    weight_filler {
      type: "gaussian"
      std: 0.01
    }
    bias_filler {
      type: "constant"
      value: 0
    }
  }
}
layer {
  name: "relu4_7"
  type: "PReLU"
  bottom: "conv4_7"
  top: "conv4_7"
}
layer {
  name: "conv4_8"
  type: "Convolution"
  bottom: "conv4_7"
  top: "conv4_8"
  param {
    lr_mult: 1
    decay_mult: 1
  }
  param {
    lr_mult: 2
    decay_mult: 0
  }
  convolution_param {
    num_output: 256
    pad: 1
    kernel_size: 3
    stride: 1
    weight_filler {
      type: "gaussian"
      std: 0.01
    }
    bias_filler {
      type: "constant"
      value: 0
    }
  }
}
layer {
  name: "relu4_8"
  type: "PReLU"
  bottom: "conv4_8"
  top: "conv4_8"
}
layer {
  name: "res4_8"
  type: "Eltwise"
  bottom: "res4_6"
  bottom: "conv4_8"
  top: "res4_8"
  eltwise_param {
    operation: SUM
  }
}
layer {
  name: "conv4_9"
  type: "Convolution"
  bottom: "res4_8"
  top: "conv4_9"
  param {
    lr_mult: 1
    decay_mult: 1
  }
  param {
    lr_mult: 2
    decay_mult: 0
  }
  convolution_param {
    num_output: 256
    pad: 1
    kernel_size: 3
    stride: 1
    weight_filler {
      type: "gaussian"
      std: 0.01
    }
    bias_filler {
      type: "constant"
      value: 0
    }
  }
}
layer {
  name: "relu4_9"
  type: "PReLU"
  bottom: "conv4_9"
  top: "conv4_9"
}
layer {
  name: "conv4_10"
  type: "Convolution"
  bottom: "conv4_9"
  top: "conv4_10"
  param {
    lr_mult: 1
    decay_mult: 1
  }
  param {
    lr_mult: 2
    decay_mult: 0
  }
  convolution_param {
    num_output: 256
    pad: 1
    kernel_size: 3
    stride: 1
    weight_filler {
      type: "gaussian"
      std: 0.01
    }
    bias_filler {
      type: "constant"
      value: 0
    }
  }
}
layer {
  name: "relu4_10"
  type: "PReLU"
  bottom: "conv4_10"
  top: "conv4_10"
}
layer {
  name: "res4_10"
  type: "Eltwise"
  bottom: "res4_8"
  bottom: "conv4_10"
  top: "res4_10"
  eltwise_param {
    operation: SUM
  }
}
layer {
  name: "conv4"
  type: "Convolution"
  bottom: "res4_10"
  top: "conv4"
  param {
    lr_mult: 1
    decay_mult: 1
  }
  param {
    lr_mult: 2
    decay_mult: 0
  }
  convolution_param {
    num_output: 512
    kernel_size: 3
    stride: 1
    weight_filler {
      type: "xavier"
    }
    bias_filler {
      type: "constant"
      value: 0
    }
  }
}
layer {
  name: "relu4"
  type: "PReLU"
  bottom: "conv4"
  top: "conv4"
}
layer {
  name: "pool4"
  type: "Pooling"
  bottom: "conv4"
  top: "pool4"
  pooling_param {
    pool: MAX
    kernel_size: 2
    stride: 2
  }
}
layer {
  name: "conv5_1"
  type: "Convolution"
  bottom: "pool4"
  top: "conv5_1"
  param {
    lr_mult: 1
    decay_mult: 1
  }
  param {
    lr_mult: 2
    decay_mult: 0
  }
  convolution_param {
    num_output: 512
    pad: 1
    kernel_size: 3
    stride: 1
    weight_filler {
      type: "gaussian"
      std: 0.01
    }
    bias_filler {
      type: "constant"
      value: 0
    }
  }
}
layer {
  name: "relu5_1"
  type: "PReLU"
  bottom: "conv5_1"
  top: "conv5_1"
}
layer {
  name: "conv5_2"
  type: "Convolution"
  bottom: "conv5_1"
  top: "conv5_2"
  param {
    lr_mult: 1
    decay_mult: 1
  }
  param {
    lr_mult: 2
    decay_mult: 0
  }
  convolution_param {
    num_output: 512
    pad: 1
    kernel_size: 3
    stride: 1
    weight_filler {
      type: "gaussian"
      std: 0.01
    }
    bias_filler {
      type: "constant"
      value: 0
    }
  }
}
layer {
  name: "relu5_2"
  type: "PReLU"
  bottom: "conv5_2"
  top: "conv5_2"
}
layer {
  name: "res5_2"
  type: "Eltwise"
  bottom: "pool4"
  bottom: "conv5_2"
  top: "res5_2"
  eltwise_param {
    operation: SUM
  }
}
layer {
  name: "conv5_3"
  type: "Convolution"
  bottom: "res5_2"
  top: "conv5_3"
  param {
    lr_mult: 1
    decay_mult: 1
  }
  param {
    lr_mult: 2
    decay_mult: 0
  }
  convolution_param {
    num_output: 512
    pad: 1
    kernel_size: 3
    stride: 1
    weight_filler {
      type: "gaussian"
      std: 0.01
    }
    bias_filler {
      type: "constant"
      value: 0
    }
  }
}
layer {
  name: "relu5_3"
  type: "PReLU"
  bottom: "conv5_3"
  top: "conv5_3"
}
layer {
  name: "conv5_4"
  type: "Convolution"
  bottom: "conv5_3"
  top: "conv5_4"
  param {
    lr_mult: 1
    decay_mult: 1
  }
  param {
    lr_mult: 2
    decay_mult: 0
  }
  convolution_param {
    num_output: 512
    pad: 1
    kernel_size: 3
    stride: 1
    weight_filler {
      type: "gaussian"
      std: 0.01
    }
    bias_filler {
      type: "constant"
      value: 0
    }
  }
}
layer {
  name: "relu5_4"
  type: "PReLU"
  bottom: "conv5_4"
  top: "conv5_4"
}
layer {
  name: "res5_4"
  type: "Eltwise"
  bottom: "res5_2"
  bottom: "conv5_4"
  top: "res5_4"
  eltwise_param {
    operation: SUM
  }
}
layer {
  name: "conv5_5"
  type: "Convolution"
  bottom: "res5_4"
  top: "conv5_5"
  param {
    lr_mult: 1
    decay_mult: 1
  }
  param {
    lr_mult: 2
    decay_mult: 0
  }
  convolution_param {
    num_output: 512
    pad: 1
    kernel_size: 3
    stride: 1
    weight_filler {
      type: "gaussian"
      std: 0.01
    }
    bias_filler {
      type: "constant"
      value: 0
    }
  }
}
layer {
  name: "relu5_5"
  type: "PReLU"
  bottom: "conv5_5"
  top: "conv5_5"
}
layer {
  name: "conv5_6"
  type: "Convolution"
  bottom: "conv5_5"
  top: "conv5_6"
  param {
    lr_mult: 1
    decay_mult: 1
  }
  param {
    lr_mult: 2
    decay_mult: 0
  }
  convolution_param {
    num_output: 512
    pad: 1
    kernel_size: 3
    stride: 1
    weight_filler {
      type: "gaussian"
      std: 0.01
    }
    bias_filler {
      type: "constant"
      value: 0
    }
  }
}
layer {
  name: "relu5_6"
  type: "PReLU"
  bottom: "conv5_6"
  top: "conv5_6"
}
layer {
  name: "res5_6"
  type: "Eltwise"
  bottom: "res5_4"
  bottom: "conv5_6"
  top: "res5_6"
  eltwise_param {
    operation: SUM
  }
}
layer {
  name: "fc5"
  type: "InnerProduct"
  bottom: "res5_6"
  top: "fc5"
  param {
    lr_mult: 1
    decay_mult: 1
  }
  param {
    lr_mult: 2
    decay_mult: 0
  }
  inner_product_param {
    num_output: 512
    weight_filler {
      type: "xavier"
    }
    bias_filler {
      type: "constant"
      value: 0
    }
  }
}
layer {
  name: "fc6"
  type: "InnerProduct"
  bottom: "fc5"
  top: "fc6"
  param {
    lr_mult: 1
    decay_mult: 1
  }
  param {
    lr_mult: 2
    decay_mult: 0
  }
  inner_product_param {
    num_output: 43074
    weight_filler {
      type: "xavier"
    }
    bias_filler {
      type: "constant"
      value: 0
    }
  }
}
layer {
  name: "softmax"
  type: "Softmax"
  bottom: "fc6"
  top: "prob"
}
layer {
  name: "accuracy"
  type: "Accuracy"
  bottom: "prob"
  bottom: "label"
  top: "accuracy"
}
layer {
  name: "softmax_loss"
  type: "SoftmaxWithLoss"
  bottom: "fc6"
  bottom: "label"
  top: "softmax_loss"
}
layer {
  name: "center_loss"
  type: "CenterLoss"
  bottom: "fc5"
  bottom: "label"
  top: "center_loss"
  loss_weight: 0.003
  param {
    lr_mult: 1
    decay_mult: 2
  }
  center_loss_param {
    num_output: 43074
    center_filler {
      type: "xavier"
    }
  }
}
I1219 16:50:14.578171 35123 layer_factory.hpp:77] Creating layer data
I1219 16:50:14.578930 35123 net.cpp:100] Creating Layer data
I1219 16:50:14.578953 35123 net.cpp:408] data -> data
I1219 16:50:14.579006 35123 net.cpp:408] data -> label
I1219 16:50:14.581737 35140 db_lmdb.cpp:35] Opened lmdb /home/licheng/face_data/face_lmdb_data/train_lmdb
I1219 16:50:14.604568 35123 data_layer.cpp:41] output data size: 64,3,112,96
I1219 16:50:14.629930 35123 net.cpp:150] Setting up data
I1219 16:50:14.629992 35123 net.cpp:157] Top shape: 64 3 112 96 (2064384)
I1219 16:50:14.630008 35123 net.cpp:157] Top shape: 64 (64)
I1219 16:50:14.630018 35123 net.cpp:165] Memory required for data: 8257792
I1219 16:50:14.630039 35123 layer_factory.hpp:77] Creating layer label_data_1_split
I1219 16:50:14.630075 35123 net.cpp:100] Creating Layer label_data_1_split
I1219 16:50:14.630092 35123 net.cpp:434] label_data_1_split <- label
I1219 16:50:14.630120 35123 net.cpp:408] label_data_1_split -> label_data_1_split_0
I1219 16:50:14.630143 35123 net.cpp:408] label_data_1_split -> label_data_1_split_1
I1219 16:50:14.630158 35123 net.cpp:408] label_data_1_split -> label_data_1_split_2
I1219 16:50:14.630291 35123 net.cpp:150] Setting up label_data_1_split
I1219 16:50:14.630307 35123 net.cpp:157] Top shape: 64 (64)
I1219 16:50:14.630319 35123 net.cpp:157] Top shape: 64 (64)
I1219 16:50:14.630331 35123 net.cpp:157] Top shape: 64 (64)
I1219 16:50:14.630339 35123 net.cpp:165] Memory required for data: 8258560
I1219 16:50:14.630349 35123 layer_factory.hpp:77] Creating layer conv1a
I1219 16:50:14.630398 35123 net.cpp:100] Creating Layer conv1a
I1219 16:50:14.630409 35123 net.cpp:434] conv1a <- data
I1219 16:50:14.630424 35123 net.cpp:408] conv1a -> conv1a
I1219 16:50:14.645458 35123 net.cpp:150] Setting up conv1a
I1219 16:50:14.645493 35123 net.cpp:157] Top shape: 64 32 110 94 (21176320)
I1219 16:50:14.645500 35123 net.cpp:165] Memory required for data: 92963840
I1219 16:50:14.645526 35123 layer_factory.hpp:77] Creating layer relu1a
I1219 16:50:14.645550 35123 net.cpp:100] Creating Layer relu1a
I1219 16:50:14.645558 35123 net.cpp:434] relu1a <- conv1a
I1219 16:50:14.645568 35123 net.cpp:395] relu1a -> conv1a (in-place)
I1219 16:50:14.650168 35123 net.cpp:150] Setting up relu1a
I1219 16:50:14.650223 35123 net.cpp:157] Top shape: 64 32 110 94 (21176320)
I1219 16:50:14.650233 35123 net.cpp:165] Memory required for data: 177669120
I1219 16:50:14.650264 35123 layer_factory.hpp:77] Creating layer conv1b
I1219 16:50:14.650293 35123 net.cpp:100] Creating Layer conv1b
I1219 16:50:14.650305 35123 net.cpp:434] conv1b <- conv1a
I1219 16:50:14.650326 35123 net.cpp:408] conv1b -> conv1b
I1219 16:50:14.650497 35141 blocking_queue.cpp:50] Waiting for data
I1219 16:50:14.653983 35123 net.cpp:150] Setting up conv1b
I1219 16:50:14.654021 35123 net.cpp:157] Top shape: 64 64 108 92 (40697856)
I1219 16:50:14.654049 35123 net.cpp:165] Memory required for data: 340460544
I1219 16:50:14.654078 35123 layer_factory.hpp:77] Creating layer relu1b
I1219 16:50:14.654091 35123 net.cpp:100] Creating Layer relu1b
I1219 16:50:14.654098 35123 net.cpp:434] relu1b <- conv1b
I1219 16:50:14.654105 35123 net.cpp:395] relu1b -> conv1b (in-place)
I1219 16:50:14.656922 35123 net.cpp:150] Setting up relu1b
I1219 16:50:14.656944 35123 net.cpp:157] Top shape: 64 64 108 92 (40697856)
I1219 16:50:14.656950 35123 net.cpp:165] Memory required for data: 503251968
I1219 16:50:14.656958 35123 layer_factory.hpp:77] Creating layer pool1b
I1219 16:50:14.656985 35123 net.cpp:100] Creating Layer pool1b
I1219 16:50:14.657001 35123 net.cpp:434] pool1b <- conv1b
I1219 16:50:14.657011 35123 net.cpp:408] pool1b -> pool1b
I1219 16:50:14.657083 35123 net.cpp:150] Setting up pool1b
I1219 16:50:14.657115 35123 net.cpp:157] Top shape: 64 64 54 46 (10174464)
I1219 16:50:14.657121 35123 net.cpp:165] Memory required for data: 543949824
I1219 16:50:14.657126 35123 layer_factory.hpp:77] Creating layer pool1b_pool1b_0_split
I1219 16:50:14.657135 35123 net.cpp:100] Creating Layer pool1b_pool1b_0_split
I1219 16:50:14.657140 35123 net.cpp:434] pool1b_pool1b_0_split <- pool1b
I1219 16:50:14.657150 35123 net.cpp:408] pool1b_pool1b_0_split -> pool1b_pool1b_0_split_0
I1219 16:50:14.657162 35123 net.cpp:408] pool1b_pool1b_0_split -> pool1b_pool1b_0_split_1
I1219 16:50:14.657234 35123 net.cpp:150] Setting up pool1b_pool1b_0_split
I1219 16:50:14.657250 35123 net.cpp:157] Top shape: 64 64 54 46 (10174464)
I1219 16:50:14.657258 35123 net.cpp:157] Top shape: 64 64 54 46 (10174464)
I1219 16:50:14.657263 35123 net.cpp:165] Memory required for data: 625345536
I1219 16:50:14.657284 35123 layer_factory.hpp:77] Creating layer conv2_1
I1219 16:50:14.657305 35123 net.cpp:100] Creating Layer conv2_1
I1219 16:50:14.657311 35123 net.cpp:434] conv2_1 <- pool1b_pool1b_0_split_0
I1219 16:50:14.657320 35123 net.cpp:408] conv2_1 -> conv2_1
I1219 16:50:14.660792 35123 net.cpp:150] Setting up conv2_1
I1219 16:50:14.660815 35123 net.cpp:157] Top shape: 64 64 54 46 (10174464)
I1219 16:50:14.660821 35123 net.cpp:165] Memory required for data: 666043392
I1219 16:50:14.660831 35123 layer_factory.hpp:77] Creating layer relu2_1
I1219 16:50:14.660840 35123 net.cpp:100] Creating Layer relu2_1
I1219 16:50:14.660863 35123 net.cpp:434] relu2_1 <- conv2_1
I1219 16:50:14.660876 35123 net.cpp:395] relu2_1 -> conv2_1 (in-place)
I1219 16:50:14.661243 35123 net.cpp:150] Setting up relu2_1
I1219 16:50:14.661260 35123 net.cpp:157] Top shape: 64 64 54 46 (10174464)
I1219 16:50:14.661265 35123 net.cpp:165] Memory required for data: 706741248
I1219 16:50:14.661278 35123 layer_factory.hpp:77] Creating layer conv2_2
I1219 16:50:14.661296 35123 net.cpp:100] Creating Layer conv2_2
I1219 16:50:14.661329 35123 net.cpp:434] conv2_2 <- conv2_1
I1219 16:50:14.661348 35123 net.cpp:408] conv2_2 -> conv2_2
I1219 16:50:14.663049 35123 net.cpp:150] Setting up conv2_2
I1219 16:50:14.663070 35123 net.cpp:157] Top shape: 64 64 54 46 (10174464)
I1219 16:50:14.663077 35123 net.cpp:165] Memory required for data: 747439104
I1219 16:50:14.663085 35123 layer_factory.hpp:77] Creating layer relu2_2
I1219 16:50:14.663095 35123 net.cpp:100] Creating Layer relu2_2
I1219 16:50:14.663101 35123 net.cpp:434] relu2_2 <- conv2_2
I1219 16:50:14.663143 35123 net.cpp:395] relu2_2 -> conv2_2 (in-place)
I1219 16:50:14.666025 35123 net.cpp:150] Setting up relu2_2
I1219 16:50:14.666046 35123 net.cpp:157] Top shape: 64 64 54 46 (10174464)
I1219 16:50:14.666054 35123 net.cpp:165] Memory required for data: 788136960
I1219 16:50:14.666061 35123 layer_factory.hpp:77] Creating layer res2_2
I1219 16:50:14.666085 35123 net.cpp:100] Creating Layer res2_2
I1219 16:50:14.666093 35123 net.cpp:434] res2_2 <- pool1b_pool1b_0_split_1
I1219 16:50:14.666100 35123 net.cpp:434] res2_2 <- conv2_2
I1219 16:50:14.666108 35123 net.cpp:408] res2_2 -> res2_2
I1219 16:50:14.666162 35123 net.cpp:150] Setting up res2_2
I1219 16:50:14.666184 35123 net.cpp:157] Top shape: 64 64 54 46 (10174464)
I1219 16:50:14.666204 35123 net.cpp:165] Memory required for data: 828834816
I1219 16:50:14.666244 35123 layer_factory.hpp:77] Creating layer conv2
I1219 16:50:14.666262 35123 net.cpp:100] Creating Layer conv2
I1219 16:50:14.666270 35123 net.cpp:434] conv2 <- res2_2
I1219 16:50:14.666280 35123 net.cpp:408] conv2 -> conv2
I1219 16:50:14.667135 35123 net.cpp:150] Setting up conv2
I1219 16:50:14.667167 35123 net.cpp:157] Top shape: 64 128 52 44 (18743296)
I1219 16:50:14.667173 35123 net.cpp:165] Memory required for data: 903808000
I1219 16:50:14.667182 35123 layer_factory.hpp:77] Creating layer relu2
I1219 16:50:14.667206 35123 net.cpp:100] Creating Layer relu2
I1219 16:50:14.667213 35123 net.cpp:434] relu2 <- conv2
I1219 16:50:14.667220 35123 net.cpp:395] relu2 -> conv2 (in-place)
I1219 16:50:14.670135 35123 net.cpp:150] Setting up relu2
I1219 16:50:14.670173 35123 net.cpp:157] Top shape: 64 128 52 44 (18743296)
I1219 16:50:14.670183 35123 net.cpp:165] Memory required for data: 978781184
I1219 16:50:14.670198 35123 layer_factory.hpp:77] Creating layer pool2
I1219 16:50:14.670217 35123 net.cpp:100] Creating Layer pool2
I1219 16:50:14.670228 35123 net.cpp:434] pool2 <- conv2
I1219 16:50:14.670246 35123 net.cpp:408] pool2 -> pool2
I1219 16:50:14.670336 35123 net.cpp:150] Setting up pool2
I1219 16:50:14.670351 35123 net.cpp:157] Top shape: 64 128 26 22 (4685824)
I1219 16:50:14.670358 35123 net.cpp:165] Memory required for data: 997524480
I1219 16:50:14.670367 35123 layer_factory.hpp:77] Creating layer pool2_pool2_0_split
I1219 16:50:14.670384 35123 net.cpp:100] Creating Layer pool2_pool2_0_split
I1219 16:50:14.670393 35123 net.cpp:434] pool2_pool2_0_split <- pool2
I1219 16:50:14.670410 35123 net.cpp:408] pool2_pool2_0_split -> pool2_pool2_0_split_0
I1219 16:50:14.670424 35123 net.cpp:408] pool2_pool2_0_split -> pool2_pool2_0_split_1
I1219 16:50:14.670495 35123 net.cpp:150] Setting up pool2_pool2_0_split
I1219 16:50:14.670509 35123 net.cpp:157] Top shape: 64 128 26 22 (4685824)
I1219 16:50:14.670521 35123 net.cpp:157] Top shape: 64 128 26 22 (4685824)
I1219 16:50:14.670531 35123 net.cpp:165] Memory required for data: 1035011072
I1219 16:50:14.670539 35123 layer_factory.hpp:77] Creating layer conv3_1
I1219 16:50:14.670562 35123 net.cpp:100] Creating Layer conv3_1
I1219 16:50:14.670573 35123 net.cpp:434] conv3_1 <- pool2_pool2_0_split_0
I1219 16:50:14.670588 35123 net.cpp:408] conv3_1 -> conv3_1
I1219 16:50:14.679270 35123 net.cpp:150] Setting up conv3_1
I1219 16:50:14.679289 35123 net.cpp:157] Top shape: 64 128 26 22 (4685824)
I1219 16:50:14.679297 35123 net.cpp:165] Memory required for data: 1053754368
I1219 16:50:14.679321 35123 layer_factory.hpp:77] Creating layer relu3_1
I1219 16:50:14.679333 35123 net.cpp:100] Creating Layer relu3_1
I1219 16:50:14.679347 35123 net.cpp:434] relu3_1 <- conv3_1
I1219 16:50:14.679358 35123 net.cpp:395] relu3_1 -> conv3_1 (in-place)
I1219 16:50:14.679610 35123 net.cpp:150] Setting up relu3_1
I1219 16:50:14.679625 35123 net.cpp:157] Top shape: 64 128 26 22 (4685824)
I1219 16:50:14.679633 35123 net.cpp:165] Memory required for data: 1072497664
I1219 16:50:14.679643 35123 layer_factory.hpp:77] Creating layer conv3_2
I1219 16:50:14.679664 35123 net.cpp:100] Creating Layer conv3_2
I1219 16:50:14.679673 35123 net.cpp:434] conv3_2 <- conv3_1
I1219 16:50:14.679689 35123 net.cpp:408] conv3_2 -> conv3_2
I1219 16:50:14.687767 35123 net.cpp:150] Setting up conv3_2
I1219 16:50:14.687788 35123 net.cpp:157] Top shape: 64 128 26 22 (4685824)
I1219 16:50:14.687795 35123 net.cpp:165] Memory required for data: 1091240960
I1219 16:50:14.687808 35123 layer_factory.hpp:77] Creating layer relu3_2
I1219 16:50:14.687819 35123 net.cpp:100] Creating Layer relu3_2
I1219 16:50:14.687829 35123 net.cpp:434] relu3_2 <- conv3_2
I1219 16:50:14.687842 35123 net.cpp:395] relu3_2 -> conv3_2 (in-place)
I1219 16:50:14.688099 35123 net.cpp:150] Setting up relu3_2
I1219 16:50:14.688115 35123 net.cpp:157] Top shape: 64 128 26 22 (4685824)
I1219 16:50:14.688134 35123 net.cpp:165] Memory required for data: 1109984256
I1219 16:50:14.688180 35123 layer_factory.hpp:77] Creating layer res3_2
I1219 16:50:14.688200 35123 net.cpp:100] Creating Layer res3_2
I1219 16:50:14.688210 35123 net.cpp:434] res3_2 <- pool2_pool2_0_split_1
I1219 16:50:14.688220 35123 net.cpp:434] res3_2 <- conv3_2
I1219 16:50:14.688230 35123 net.cpp:408] res3_2 -> res3_2
I1219 16:50:14.688282 35123 net.cpp:150] Setting up res3_2
I1219 16:50:14.688294 35123 net.cpp:157] Top shape: 64 128 26 22 (4685824)
I1219 16:50:14.688302 35123 net.cpp:165] Memory required for data: 1128727552
I1219 16:50:14.688310 35123 layer_factory.hpp:77] Creating layer res3_2_res3_2_0_split
I1219 16:50:14.688320 35123 net.cpp:100] Creating Layer res3_2_res3_2_0_split
I1219 16:50:14.688328 35123 net.cpp:434] res3_2_res3_2_0_split <- res3_2
I1219 16:50:14.688343 35123 net.cpp:408] res3_2_res3_2_0_split -> res3_2_res3_2_0_split_0
I1219 16:50:14.688355 35123 net.cpp:408] res3_2_res3_2_0_split -> res3_2_res3_2_0_split_1
I1219 16:50:14.688411 35123 net.cpp:150] Setting up res3_2_res3_2_0_split
I1219 16:50:14.688423 35123 net.cpp:157] Top shape: 64 128 26 22 (4685824)
I1219 16:50:14.688433 35123 net.cpp:157] Top shape: 64 128 26 22 (4685824)
I1219 16:50:14.688441 35123 net.cpp:165] Memory required for data: 1166214144
I1219 16:50:14.688448 35123 layer_factory.hpp:77] Creating layer conv3_3
I1219 16:50:14.688473 35123 net.cpp:100] Creating Layer conv3_3
I1219 16:50:14.688482 35123 net.cpp:434] conv3_3 <- res3_2_res3_2_0_split_0
I1219 16:50:14.688494 35123 net.cpp:408] conv3_3 -> conv3_3
I1219 16:50:14.698637 35123 net.cpp:150] Setting up conv3_3
I1219 16:50:14.698698 35123 net.cpp:157] Top shape: 64 128 26 22 (4685824)
I1219 16:50:14.698706 35123 net.cpp:165] Memory required for data: 1184957440
I1219 16:50:14.698719 35123 layer_factory.hpp:77] Creating layer relu3_3
I1219 16:50:14.698740 35123 net.cpp:100] Creating Layer relu3_3
I1219 16:50:14.698748 35123 net.cpp:434] relu3_3 <- conv3_3
I1219 16:50:14.698758 35123 net.cpp:395] relu3_3 -> conv3_3 (in-place)
I1219 16:50:14.698973 35123 net.cpp:150] Setting up relu3_3
I1219 16:50:14.698987 35123 net.cpp:157] Top shape: 64 128 26 22 (4685824)
I1219 16:50:14.698992 35123 net.cpp:165] Memory required for data: 1203700736
I1219 16:50:14.699000 35123 layer_factory.hpp:77] Creating layer conv3_4
I1219 16:50:14.699019 35123 net.cpp:100] Creating Layer conv3_4
I1219 16:50:14.699026 35123 net.cpp:434] conv3_4 <- conv3_3
I1219 16:50:14.699040 35123 net.cpp:408] conv3_4 -> conv3_4
I1219 16:50:14.705521 35123 net.cpp:150] Setting up conv3_4
I1219 16:50:14.705539 35123 net.cpp:157] Top shape: 64 128 26 22 (4685824)
I1219 16:50:14.705546 35123 net.cpp:165] Memory required for data: 1222444032
I1219 16:50:14.705559 35123 layer_factory.hpp:77] Creating layer relu3_4
I1219 16:50:14.705572 35123 net.cpp:100] Creating Layer relu3_4
I1219 16:50:14.705579 35123 net.cpp:434] relu3_4 <- conv3_4
I1219 16:50:14.705588 35123 net.cpp:395] relu3_4 -> conv3_4 (in-place)
I1219 16:50:14.705816 35123 net.cpp:150] Setting up relu3_4
I1219 16:50:14.705829 35123 net.cpp:157] Top shape: 64 128 26 22 (4685824)
I1219 16:50:14.705834 35123 net.cpp:165] Memory required for data: 1241187328
I1219 16:50:14.705843 35123 layer_factory.hpp:77] Creating layer res3_4
I1219 16:50:14.705855 35123 net.cpp:100] Creating Layer res3_4
I1219 16:50:14.705863 35123 net.cpp:434] res3_4 <- res3_2_res3_2_0_split_1
I1219 16:50:14.705873 35123 net.cpp:434] res3_4 <- conv3_4
I1219 16:50:14.705883 35123 net.cpp:408] res3_4 -> res3_4
I1219 16:50:14.705919 35123 net.cpp:150] Setting up res3_4
I1219 16:50:14.705931 35123 net.cpp:157] Top shape: 64 128 26 22 (4685824)
I1219 16:50:14.705937 35123 net.cpp:165] Memory required for data: 1259930624
I1219 16:50:14.705946 35123 layer_factory.hpp:77] Creating layer conv3
I1219 16:50:14.705960 35123 net.cpp:100] Creating Layer conv3
I1219 16:50:14.705966 35123 net.cpp:434] conv3 <- res3_4
I1219 16:50:14.705978 35123 net.cpp:408] conv3 -> conv3
I1219 16:50:14.712671 35123 net.cpp:150] Setting up conv3
I1219 16:50:14.712713 35123 net.cpp:157] Top shape: 64 256 24 20 (7864320)
I1219 16:50:14.712739 35123 net.cpp:165] Memory required for data: 1291387904
I1219 16:50:14.712754 35123 layer_factory.hpp:77] Creating layer relu3
I1219 16:50:14.712771 35123 net.cpp:100] Creating Layer relu3
I1219 16:50:14.712781 35123 net.cpp:434] relu3 <- conv3
I1219 16:50:14.712792 35123 net.cpp:395] relu3 -> conv3 (in-place)
I1219 16:50:14.713130 35123 net.cpp:150] Setting up relu3
I1219 16:50:14.713147 35123 net.cpp:157] Top shape: 64 256 24 20 (7864320)
I1219 16:50:14.713155 35123 net.cpp:165] Memory required for data: 1322845184
I1219 16:50:14.713165 35123 layer_factory.hpp:77] Creating layer pool3
I1219 16:50:14.713181 35123 net.cpp:100] Creating Layer pool3
I1219 16:50:14.713189 35123 net.cpp:434] pool3 <- conv3
I1219 16:50:14.713210 35123 net.cpp:408] pool3 -> pool3
I1219 16:50:14.713270 35123 net.cpp:150] Setting up pool3
I1219 16:50:14.713281 35123 net.cpp:157] Top shape: 64 256 12 10 (1966080)
I1219 16:50:14.713289 35123 net.cpp:165] Memory required for data: 1330709504
I1219 16:50:14.713296 35123 layer_factory.hpp:77] Creating layer pool3_pool3_0_split
I1219 16:50:14.713310 35123 net.cpp:100] Creating Layer pool3_pool3_0_split
I1219 16:50:14.713318 35123 net.cpp:434] pool3_pool3_0_split <- pool3
I1219 16:50:14.713327 35123 net.cpp:408] pool3_pool3_0_split -> pool3_pool3_0_split_0
I1219 16:50:14.713340 35123 net.cpp:408] pool3_pool3_0_split -> pool3_pool3_0_split_1
I1219 16:50:14.713397 35123 net.cpp:150] Setting up pool3_pool3_0_split
I1219 16:50:14.713408 35123 net.cpp:157] Top shape: 64 256 12 10 (1966080)
I1219 16:50:14.713418 35123 net.cpp:157] Top shape: 64 256 12 10 (1966080)
I1219 16:50:14.713425 35123 net.cpp:165] Memory required for data: 1346438144
I1219 16:50:14.713433 35123 layer_factory.hpp:77] Creating layer conv4_1
I1219 16:50:14.713461 35123 net.cpp:100] Creating Layer conv4_1
I1219 16:50:14.713469 35123 net.cpp:434] conv4_1 <- pool3_pool3_0_split_0
I1219 16:50:14.713482 35123 net.cpp:408] conv4_1 -> conv4_1
I1219 16:50:14.742327 35123 net.cpp:150] Setting up conv4_1
I1219 16:50:14.742352 35123 net.cpp:157] Top shape: 64 256 12 10 (1966080)
I1219 16:50:14.742358 35123 net.cpp:165] Memory required for data: 1354302464
I1219 16:50:14.742370 35123 layer_factory.hpp:77] Creating layer relu4_1
I1219 16:50:14.742380 35123 net.cpp:100] Creating Layer relu4_1
I1219 16:50:14.742388 35123 net.cpp:434] relu4_1 <- conv4_1
I1219 16:50:14.742399 35123 net.cpp:395] relu4_1 -> conv4_1 (in-place)
I1219 16:50:14.742554 35123 net.cpp:150] Setting up relu4_1
I1219 16:50:14.742569 35123 net.cpp:157] Top shape: 64 256 12 10 (1966080)
I1219 16:50:14.742575 35123 net.cpp:165] Memory required for data: 1362166784
I1219 16:50:14.742590 35123 layer_factory.hpp:77] Creating layer conv4_2
I1219 16:50:14.742612 35123 net.cpp:100] Creating Layer conv4_2
I1219 16:50:14.742619 35123 net.cpp:434] conv4_2 <- conv4_1
I1219 16:50:14.742630 35123 net.cpp:408] conv4_2 -> conv4_2
I1219 16:50:14.781918 35123 net.cpp:150] Setting up conv4_2
I1219 16:50:14.782004 35123 net.cpp:157] Top shape: 64 256 12 10 (1966080)
I1219 16:50:14.782016 35123 net.cpp:165] Memory required for data: 1370031104
I1219 16:50:14.782032 35123 layer_factory.hpp:77] Creating layer relu4_2
I1219 16:50:14.782048 35123 net.cpp:100] Creating Layer relu4_2
I1219 16:50:14.782088 35123 net.cpp:434] relu4_2 <- conv4_2
I1219 16:50:14.782106 35123 net.cpp:395] relu4_2 -> conv4_2 (in-place)
I1219 16:50:14.782346 35123 net.cpp:150] Setting up relu4_2
I1219 16:50:14.782366 35123 net.cpp:157] Top shape: 64 256 12 10 (1966080)
I1219 16:50:14.782372 35123 net.cpp:165] Memory required for data: 1377895424
I1219 16:50:14.782383 35123 layer_factory.hpp:77] Creating layer res4_2
I1219 16:50:14.782397 35123 net.cpp:100] Creating Layer res4_2
I1219 16:50:14.782407 35123 net.cpp:434] res4_2 <- pool3_pool3_0_split_1
I1219 16:50:14.782435 35123 net.cpp:434] res4_2 <- conv4_2
I1219 16:50:14.782449 35123 net.cpp:408] res4_2 -> res4_2
I1219 16:50:14.782495 35123 net.cpp:150] Setting up res4_2
I1219 16:50:14.782506 35123 net.cpp:157] Top shape: 64 256 12 10 (1966080)
I1219 16:50:14.782546 35123 net.cpp:165] Memory required for data: 1385759744
I1219 16:50:14.782562 35123 layer_factory.hpp:77] Creating layer res4_2_res4_2_0_split
I1219 16:50:14.782577 35123 net.cpp:100] Creating Layer res4_2_res4_2_0_split
I1219 16:50:14.782601 35123 net.cpp:434] res4_2_res4_2_0_split <- res4_2
I1219 16:50:14.782611 35123 net.cpp:408] res4_2_res4_2_0_split -> res4_2_res4_2_0_split_0
I1219 16:50:14.782630 35123 net.cpp:408] res4_2_res4_2_0_split -> res4_2_res4_2_0_split_1
I1219 16:50:14.782698 35123 net.cpp:150] Setting up res4_2_res4_2_0_split
I1219 16:50:14.782747 35123 net.cpp:157] Top shape: 64 256 12 10 (1966080)
I1219 16:50:14.782757 35123 net.cpp:157] Top shape: 64 256 12 10 (1966080)
I1219 16:50:14.782763 35123 net.cpp:165] Memory required for data: 1401488384
I1219 16:50:14.782770 35123 layer_factory.hpp:77] Creating layer conv4_3
I1219 16:50:14.782793 35123 net.cpp:100] Creating Layer conv4_3
I1219 16:50:14.782802 35123 net.cpp:434] conv4_3 <- res4_2_res4_2_0_split_0
I1219 16:50:14.782814 35123 net.cpp:408] conv4_3 -> conv4_3
I1219 16:50:14.815901 35123 net.cpp:150] Setting up conv4_3
I1219 16:50:14.816035 35123 net.cpp:157] Top shape: 64 256 12 10 (1966080)
I1219 16:50:14.816045 35123 net.cpp:165] Memory required for data: 1409352704
I1219 16:50:14.816079 35123 layer_factory.hpp:77] Creating layer relu4_3
I1219 16:50:14.816175 35123 net.cpp:100] Creating Layer relu4_3
I1219 16:50:14.816195 35123 net.cpp:434] relu4_3 <- conv4_3
I1219 16:50:14.816207 35123 net.cpp:395] relu4_3 -> conv4_3 (in-place)
I1219 16:50:14.816484 35123 net.cpp:150] Setting up relu4_3
I1219 16:50:14.816503 35123 net.cpp:157] Top shape: 64 256 12 10 (1966080)
I1219 16:50:14.816509 35123 net.cpp:165] Memory required for data: 1417217024
I1219 16:50:14.816535 35123 layer_factory.hpp:77] Creating layer conv4_4
I1219 16:50:14.816562 35123 net.cpp:100] Creating Layer conv4_4
I1219 16:50:14.816570 35123 net.cpp:434] conv4_4 <- conv4_3
I1219 16:50:14.816581 35123 net.cpp:408] conv4_4 -> conv4_4
I1219 16:50:14.842774 35123 net.cpp:150] Setting up conv4_4
I1219 16:50:14.842811 35123 net.cpp:157] Top shape: 64 256 12 10 (1966080)
I1219 16:50:14.842818 35123 net.cpp:165] Memory required for data: 1425081344
I1219 16:50:14.842828 35123 layer_factory.hpp:77] Creating layer relu4_4
I1219 16:50:14.842842 35123 net.cpp:100] Creating Layer relu4_4
I1219 16:50:14.842850 35123 net.cpp:434] relu4_4 <- conv4_4
I1219 16:50:14.842859 35123 net.cpp:395] relu4_4 -> conv4_4 (in-place)
I1219 16:50:14.842999 35123 net.cpp:150] Setting up relu4_4
I1219 16:50:14.843042 35123 net.cpp:157] Top shape: 64 256 12 10 (1966080)
I1219 16:50:14.843050 35123 net.cpp:165] Memory required for data: 1432945664
I1219 16:50:14.843058 35123 layer_factory.hpp:77] Creating layer res4_4
I1219 16:50:14.843080 35123 net.cpp:100] Creating Layer res4_4
I1219 16:50:14.843117 35123 net.cpp:434] res4_4 <- res4_2_res4_2_0_split_1
I1219 16:50:14.843128 35123 net.cpp:434] res4_4 <- conv4_4
I1219 16:50:14.843139 35123 net.cpp:408] res4_4 -> res4_4
I1219 16:50:14.843173 35123 net.cpp:150] Setting up res4_4
I1219 16:50:14.843183 35123 net.cpp:157] Top shape: 64 256 12 10 (1966080)
I1219 16:50:14.843206 35123 net.cpp:165] Memory required for data: 1440809984
I1219 16:50:14.843214 35123 layer_factory.hpp:77] Creating layer res4_4_res4_4_0_split
I1219 16:50:14.843226 35123 net.cpp:100] Creating Layer res4_4_res4_4_0_split
I1219 16:50:14.843232 35123 net.cpp:434] res4_4_res4_4_0_split <- res4_4
I1219 16:50:14.843240 35123 net.cpp:408] res4_4_res4_4_0_split -> res4_4_res4_4_0_split_0
I1219 16:50:14.843250 35123 net.cpp:408] res4_4_res4_4_0_split -> res4_4_res4_4_0_split_1
I1219 16:50:14.843312 35123 net.cpp:150] Setting up res4_4_res4_4_0_split
I1219 16:50:14.843324 35123 net.cpp:157] Top shape: 64 256 12 10 (1966080)
I1219 16:50:14.843330 35123 net.cpp:157] Top shape: 64 256 12 10 (1966080)
I1219 16:50:14.843335 35123 net.cpp:165] Memory required for data: 1456538624
I1219 16:50:14.843341 35123 layer_factory.hpp:77] Creating layer conv4_5
I1219 16:50:14.843367 35123 net.cpp:100] Creating Layer conv4_5
I1219 16:50:14.843405 35123 net.cpp:434] conv4_5 <- res4_4_res4_4_0_split_0
I1219 16:50:14.843428 35123 net.cpp:408] conv4_5 -> conv4_5
I1219 16:50:14.875836 35123 net.cpp:150] Setting up conv4_5
I1219 16:50:14.875881 35123 net.cpp:157] Top shape: 64 256 12 10 (1966080)
I1219 16:50:14.875890 35123 net.cpp:165] Memory required for data: 1464402944
I1219 16:50:14.875910 35123 layer_factory.hpp:77] Creating layer relu4_5
I1219 16:50:14.875923 35123 net.cpp:100] Creating Layer relu4_5
I1219 16:50:14.875933 35123 net.cpp:434] relu4_5 <- conv4_5
I1219 16:50:14.875948 35123 net.cpp:395] relu4_5 -> conv4_5 (in-place)
I1219 16:50:14.876140 35123 net.cpp:150] Setting up relu4_5
I1219 16:50:14.876155 35123 net.cpp:157] Top shape: 64 256 12 10 (1966080)
I1219 16:50:14.876163 35123 net.cpp:165] Memory required for data: 1472267264
I1219 16:50:14.876173 35123 layer_factory.hpp:77] Creating layer conv4_6
I1219 16:50:14.876194 35123 net.cpp:100] Creating Layer conv4_6
I1219 16:50:14.876201 35123 net.cpp:434] conv4_6 <- conv4_5
I1219 16:50:14.876219 35123 net.cpp:408] conv4_6 -> conv4_6
I1219 16:50:14.902722 35123 net.cpp:150] Setting up conv4_6
I1219 16:50:14.902745 35123 net.cpp:157] Top shape: 64 256 12 10 (1966080)
I1219 16:50:14.902752 35123 net.cpp:165] Memory required for data: 1480131584
I1219 16:50:14.902762 35123 layer_factory.hpp:77] Creating layer relu4_6
I1219 16:50:14.902772 35123 net.cpp:100] Creating Layer relu4_6
I1219 16:50:14.902779 35123 net.cpp:434] relu4_6 <- conv4_6
I1219 16:50:14.902798 35123 net.cpp:395] relu4_6 -> conv4_6 (in-place)
I1219 16:50:14.902942 35123 net.cpp:150] Setting up relu4_6
I1219 16:50:14.902953 35123 net.cpp:157] Top shape: 64 256 12 10 (1966080)
I1219 16:50:14.902959 35123 net.cpp:165] Memory required for data: 1487995904
I1219 16:50:14.902966 35123 layer_factory.hpp:77] Creating layer res4_6
I1219 16:50:14.902986 35123 net.cpp:100] Creating Layer res4_6
I1219 16:50:14.902993 35123 net.cpp:434] res4_6 <- res4_4_res4_4_0_split_1
I1219 16:50:14.903003 35123 net.cpp:434] res4_6 <- conv4_6
I1219 16:50:14.903012 35123 net.cpp:408] res4_6 -> res4_6
I1219 16:50:14.903045 35123 net.cpp:150] Setting up res4_6
I1219 16:50:14.903054 35123 net.cpp:157] Top shape: 64 256 12 10 (1966080)
I1219 16:50:14.903060 35123 net.cpp:165] Memory required for data: 1495860224
I1219 16:50:14.903074 35123 layer_factory.hpp:77] Creating layer res4_6_res4_6_0_split
I1219 16:50:14.903084 35123 net.cpp:100] Creating Layer res4_6_res4_6_0_split
I1219 16:50:14.903095 35123 net.cpp:434] res4_6_res4_6_0_split <- res4_6
I1219 16:50:14.903102 35123 net.cpp:408] res4_6_res4_6_0_split -> res4_6_res4_6_0_split_0
I1219 16:50:14.903112 35123 net.cpp:408] res4_6_res4_6_0_split -> res4_6_res4_6_0_split_1
I1219 16:50:14.903157 35123 net.cpp:150] Setting up res4_6_res4_6_0_split
I1219 16:50:14.903167 35123 net.cpp:157] Top shape: 64 256 12 10 (1966080)
I1219 16:50:14.903174 35123 net.cpp:157] Top shape: 64 256 12 10 (1966080)
I1219 16:50:14.903180 35123 net.cpp:165] Memory required for data: 1511588864
I1219 16:50:14.903187 35123 layer_factory.hpp:77] Creating layer conv4_7
I1219 16:50:14.903203 35123 net.cpp:100] Creating Layer conv4_7
I1219 16:50:14.903209 35123 net.cpp:434] conv4_7 <- res4_6_res4_6_0_split_0
I1219 16:50:14.903223 35123 net.cpp:408] conv4_7 -> conv4_7
I1219 16:50:14.926676 35123 net.cpp:150] Setting up conv4_7
I1219 16:50:14.926707 35123 net.cpp:157] Top shape: 64 256 12 10 (1966080)
I1219 16:50:14.926712 35123 net.cpp:165] Memory required for data: 1519453184
I1219 16:50:14.926723 35123 layer_factory.hpp:77] Creating layer relu4_7
I1219 16:50:14.926731 35123 net.cpp:100] Creating Layer relu4_7
I1219 16:50:14.926738 35123 net.cpp:434] relu4_7 <- conv4_7
I1219 16:50:14.926745 35123 net.cpp:395] relu4_7 -> conv4_7 (in-place)
I1219 16:50:14.926885 35123 net.cpp:150] Setting up relu4_7
I1219 16:50:14.926897 35123 net.cpp:157] Top shape: 64 256 12 10 (1966080)
I1219 16:50:14.926901 35123 net.cpp:165] Memory required for data: 1527317504
I1219 16:50:14.926908 35123 layer_factory.hpp:77] Creating layer conv4_8
I1219 16:50:14.926959 35123 net.cpp:100] Creating Layer conv4_8
I1219 16:50:14.926966 35123 net.cpp:434] conv4_8 <- conv4_7
I1219 16:50:14.926977 35123 net.cpp:408] conv4_8 -> conv4_8
I1219 16:50:14.950775 35123 net.cpp:150] Setting up conv4_8
I1219 16:50:14.950796 35123 net.cpp:157] Top shape: 64 256 12 10 (1966080)
I1219 16:50:14.950803 35123 net.cpp:165] Memory required for data: 1535181824
I1219 16:50:14.950811 35123 layer_factory.hpp:77] Creating layer relu4_8
I1219 16:50:14.950820 35123 net.cpp:100] Creating Layer relu4_8
I1219 16:50:14.950827 35123 net.cpp:434] relu4_8 <- conv4_8
I1219 16:50:14.950837 35123 net.cpp:395] relu4_8 -> conv4_8 (in-place)
I1219 16:50:14.950974 35123 net.cpp:150] Setting up relu4_8
I1219 16:50:14.950984 35123 net.cpp:157] Top shape: 64 256 12 10 (1966080)
I1219 16:50:14.950989 35123 net.cpp:165] Memory required for data: 1543046144
I1219 16:50:14.950996 35123 layer_factory.hpp:77] Creating layer res4_8
I1219 16:50:14.951009 35123 net.cpp:100] Creating Layer res4_8
I1219 16:50:14.951015 35123 net.cpp:434] res4_8 <- res4_6_res4_6_0_split_1
I1219 16:50:14.951021 35123 net.cpp:434] res4_8 <- conv4_8
I1219 16:50:14.951031 35123 net.cpp:408] res4_8 -> res4_8
I1219 16:50:14.951061 35123 net.cpp:150] Setting up res4_8
I1219 16:50:14.951078 35123 net.cpp:157] Top shape: 64 256 12 10 (1966080)
I1219 16:50:14.951084 35123 net.cpp:165] Memory required for data: 1550910464
I1219 16:50:14.951090 35123 layer_factory.hpp:77] Creating layer res4_8_res4_8_0_split
I1219 16:50:14.951098 35123 net.cpp:100] Creating Layer res4_8_res4_8_0_split
I1219 16:50:14.951103 35123 net.cpp:434] res4_8_res4_8_0_split <- res4_8
I1219 16:50:14.951110 35123 net.cpp:408] res4_8_res4_8_0_split -> res4_8_res4_8_0_split_0
I1219 16:50:14.951122 35123 net.cpp:408] res4_8_res4_8_0_split -> res4_8_res4_8_0_split_1
I1219 16:50:14.951161 35123 net.cpp:150] Setting up res4_8_res4_8_0_split
I1219 16:50:14.951169 35123 net.cpp:157] Top shape: 64 256 12 10 (1966080)
I1219 16:50:14.951176 35123 net.cpp:157] Top shape: 64 256 12 10 (1966080)
I1219 16:50:14.951181 35123 net.cpp:165] Memory required for data: 1566639104
I1219 16:50:14.951190 35123 layer_factory.hpp:77] Creating layer conv4_9
I1219 16:50:14.951207 35123 net.cpp:100] Creating Layer conv4_9
I1219 16:50:14.951213 35123 net.cpp:434] conv4_9 <- res4_8_res4_8_0_split_0
I1219 16:50:14.951222 35123 net.cpp:408] conv4_9 -> conv4_9
I1219 16:50:14.986807 35123 net.cpp:150] Setting up conv4_9
I1219 16:50:14.986862 35123 net.cpp:157] Top shape: 64 256 12 10 (1966080)
I1219 16:50:14.986871 35123 net.cpp:165] Memory required for data: 1574503424
I1219 16:50:14.986887 35123 layer_factory.hpp:77] Creating layer relu4_9
I1219 16:50:14.986902 35123 net.cpp:100] Creating Layer relu4_9
I1219 16:50:14.986913 35123 net.cpp:434] relu4_9 <- conv4_9
I1219 16:50:14.986929 35123 net.cpp:395] relu4_9 -> conv4_9 (in-place)
I1219 16:50:14.987135 35123 net.cpp:150] Setting up relu4_9
I1219 16:50:14.987152 35123 net.cpp:157] Top shape: 64 256 12 10 (1966080)
I1219 16:50:14.987159 35123 net.cpp:165] Memory required for data: 1582367744
I1219 16:50:14.987170 35123 layer_factory.hpp:77] Creating layer conv4_10
I1219 16:50:14.987195 35123 net.cpp:100] Creating Layer conv4_10
I1219 16:50:14.987203 35123 net.cpp:434] conv4_10 <- conv4_9
I1219 16:50:14.987218 35123 net.cpp:408] conv4_10 -> conv4_10
I1219 16:50:15.010257 35123 net.cpp:150] Setting up conv4_10
I1219 16:50:15.010309 35123 net.cpp:157] Top shape: 64 256 12 10 (1966080)
I1219 16:50:15.010315 35123 net.cpp:165] Memory required for data: 1590232064
I1219 16:50:15.010325 35123 layer_factory.hpp:77] Creating layer relu4_10
I1219 16:50:15.010334 35123 net.cpp:100] Creating Layer relu4_10
I1219 16:50:15.010341 35123 net.cpp:434] relu4_10 <- conv4_10
I1219 16:50:15.010349 35123 net.cpp:395] relu4_10 -> conv4_10 (in-place)
I1219 16:50:15.010502 35123 net.cpp:150] Setting up relu4_10
I1219 16:50:15.010514 35123 net.cpp:157] Top shape: 64 256 12 10 (1966080)
I1219 16:50:15.010517 35123 net.cpp:165] Memory required for data: 1598096384
I1219 16:50:15.010535 35123 layer_factory.hpp:77] Creating layer res4_10
I1219 16:50:15.010560 35123 net.cpp:100] Creating Layer res4_10
I1219 16:50:15.010566 35123 net.cpp:434] res4_10 <- res4_8_res4_8_0_split_1
I1219 16:50:15.010574 35123 net.cpp:434] res4_10 <- conv4_10
I1219 16:50:15.010584 35123 net.cpp:408] res4_10 -> res4_10
I1219 16:50:15.010614 35123 net.cpp:150] Setting up res4_10
I1219 16:50:15.010622 35123 net.cpp:157] Top shape: 64 256 12 10 (1966080)
I1219 16:50:15.010627 35123 net.cpp:165] Memory required for data: 1605960704
I1219 16:50:15.010632 35123 layer_factory.hpp:77] Creating layer conv4
I1219 16:50:15.010655 35123 net.cpp:100] Creating Layer conv4
I1219 16:50:15.010663 35123 net.cpp:434] conv4 <- res4_10
I1219 16:50:15.010670 35123 net.cpp:408] conv4 -> conv4
I1219 16:50:15.023147 35123 net.cpp:150] Setting up conv4
I1219 16:50:15.023169 35123 net.cpp:157] Top shape: 64 512 10 8 (2621440)
I1219 16:50:15.023175 35123 net.cpp:165] Memory required for data: 1616446464
I1219 16:50:15.023185 35123 layer_factory.hpp:77] Creating layer relu4
I1219 16:50:15.023196 35123 net.cpp:100] Creating Layer relu4
I1219 16:50:15.023202 35123 net.cpp:434] relu4 <- conv4
I1219 16:50:15.023211 35123 net.cpp:395] relu4 -> conv4 (in-place)
I1219 16:50:15.023397 35123 net.cpp:150] Setting up relu4
I1219 16:50:15.023408 35123 net.cpp:157] Top shape: 64 512 10 8 (2621440)
I1219 16:50:15.023413 35123 net.cpp:165] Memory required for data: 1626932224
I1219 16:50:15.023421 35123 layer_factory.hpp:77] Creating layer pool4
I1219 16:50:15.023432 35123 net.cpp:100] Creating Layer pool4
I1219 16:50:15.023438 35123 net.cpp:434] pool4 <- conv4
I1219 16:50:15.023449 35123 net.cpp:408] pool4 -> pool4
I1219 16:50:15.023495 35123 net.cpp:150] Setting up pool4
I1219 16:50:15.023504 35123 net.cpp:157] Top shape: 64 512 5 4 (655360)
I1219 16:50:15.023509 35123 net.cpp:165] Memory required for data: 1629553664
I1219 16:50:15.023514 35123 layer_factory.hpp:77] Creating layer pool4_pool4_0_split
I1219 16:50:15.023558 35123 net.cpp:100] Creating Layer pool4_pool4_0_split
I1219 16:50:15.023564 35123 net.cpp:434] pool4_pool4_0_split <- pool4
I1219 16:50:15.023572 35123 net.cpp:408] pool4_pool4_0_split -> pool4_pool4_0_split_0
I1219 16:50:15.023581 35123 net.cpp:408] pool4_pool4_0_split -> pool4_pool4_0_split_1
I1219 16:50:15.023630 35123 net.cpp:150] Setting up pool4_pool4_0_split
I1219 16:50:15.023639 35123 net.cpp:157] Top shape: 64 512 5 4 (655360)
I1219 16:50:15.023645 35123 net.cpp:157] Top shape: 64 512 5 4 (655360)
I1219 16:50:15.023650 35123 net.cpp:165] Memory required for data: 1634796544
I1219 16:50:15.023656 35123 layer_factory.hpp:77] Creating layer conv5_1
I1219 16:50:15.023674 35123 net.cpp:100] Creating Layer conv5_1
I1219 16:50:15.023679 35123 net.cpp:434] conv5_1 <- pool4_pool4_0_split_0
I1219 16:50:15.023689 35123 net.cpp:408] conv5_1 -> conv5_1
I1219 16:50:15.112570 35123 net.cpp:150] Setting up conv5_1
I1219 16:50:15.112592 35123 net.cpp:157] Top shape: 64 512 5 4 (655360)
I1219 16:50:15.112598 35123 net.cpp:165] Memory required for data: 1637417984
I1219 16:50:15.112645 35123 layer_factory.hpp:77] Creating layer relu5_1
I1219 16:50:15.112656 35123 net.cpp:100] Creating Layer relu5_1
I1219 16:50:15.112663 35123 net.cpp:434] relu5_1 <- conv5_1
I1219 16:50:15.112670 35123 net.cpp:395] relu5_1 -> conv5_1 (in-place)
I1219 16:50:15.112795 35123 net.cpp:150] Setting up relu5_1
I1219 16:50:15.112805 35123 net.cpp:157] Top shape: 64 512 5 4 (655360)
I1219 16:50:15.112810 35123 net.cpp:165] Memory required for data: 1640039424
I1219 16:50:15.112818 35123 layer_factory.hpp:77] Creating layer conv5_2
I1219 16:50:15.112835 35123 net.cpp:100] Creating Layer conv5_2
I1219 16:50:15.112843 35123 net.cpp:434] conv5_2 <- conv5_1
I1219 16:50:15.112853 35123 net.cpp:408] conv5_2 -> conv5_2
I1219 16:50:15.201751 35123 net.cpp:150] Setting up conv5_2
I1219 16:50:15.201776 35123 net.cpp:157] Top shape: 64 512 5 4 (655360)
I1219 16:50:15.201781 35123 net.cpp:165] Memory required for data: 1642660864
I1219 16:50:15.201795 35123 layer_factory.hpp:77] Creating layer relu5_2
I1219 16:50:15.201812 35123 net.cpp:100] Creating Layer relu5_2
I1219 16:50:15.201838 35123 net.cpp:434] relu5_2 <- conv5_2
I1219 16:50:15.201858 35123 net.cpp:395] relu5_2 -> conv5_2 (in-place)
I1219 16:50:15.201977 35123 net.cpp:150] Setting up relu5_2
I1219 16:50:15.201987 35123 net.cpp:157] Top shape: 64 512 5 4 (655360)
I1219 16:50:15.201992 35123 net.cpp:165] Memory required for data: 1645282304
I1219 16:50:15.201999 35123 layer_factory.hpp:77] Creating layer res5_2
I1219 16:50:15.202014 35123 net.cpp:100] Creating Layer res5_2
I1219 16:50:15.202021 35123 net.cpp:434] res5_2 <- pool4_pool4_0_split_1
I1219 16:50:15.202028 35123 net.cpp:434] res5_2 <- conv5_2
I1219 16:50:15.202036 35123 net.cpp:408] res5_2 -> res5_2
I1219 16:50:15.202072 35123 net.cpp:150] Setting up res5_2
I1219 16:50:15.202082 35123 net.cpp:157] Top shape: 64 512 5 4 (655360)
I1219 16:50:15.202087 35123 net.cpp:165] Memory required for data: 1647903744
I1219 16:50:15.202092 35123 layer_factory.hpp:77] Creating layer res5_2_res5_2_0_split
I1219 16:50:15.202100 35123 net.cpp:100] Creating Layer res5_2_res5_2_0_split
I1219 16:50:15.202106 35123 net.cpp:434] res5_2_res5_2_0_split <- res5_2
I1219 16:50:15.202116 35123 net.cpp:408] res5_2_res5_2_0_split -> res5_2_res5_2_0_split_0
I1219 16:50:15.202124 35123 net.cpp:408] res5_2_res5_2_0_split -> res5_2_res5_2_0_split_1
I1219 16:50:15.202172 35123 net.cpp:150] Setting up res5_2_res5_2_0_split
I1219 16:50:15.202181 35123 net.cpp:157] Top shape: 64 512 5 4 (655360)
I1219 16:50:15.202188 35123 net.cpp:157] Top shape: 64 512 5 4 (655360)
I1219 16:50:15.202193 35123 net.cpp:165] Memory required for data: 1653146624
I1219 16:50:15.202199 35123 layer_factory.hpp:77] Creating layer conv5_3
I1219 16:50:15.202214 35123 net.cpp:100] Creating Layer conv5_3
I1219 16:50:15.202221 35123 net.cpp:434] conv5_3 <- res5_2_res5_2_0_split_0
I1219 16:50:15.202229 35123 net.cpp:408] conv5_3 -> conv5_3
I1219 16:50:15.313256 35123 net.cpp:150] Setting up conv5_3
I1219 16:50:15.313284 35123 net.cpp:157] Top shape: 64 512 5 4 (655360)
I1219 16:50:15.313290 35123 net.cpp:165] Memory required for data: 1655768064
I1219 16:50:15.313299 35123 layer_factory.hpp:77] Creating layer relu5_3
I1219 16:50:15.313313 35123 net.cpp:100] Creating Layer relu5_3
I1219 16:50:15.313319 35123 net.cpp:434] relu5_3 <- conv5_3
I1219 16:50:15.313328 35123 net.cpp:395] relu5_3 -> conv5_3 (in-place)
I1219 16:50:15.313452 35123 net.cpp:150] Setting up relu5_3
I1219 16:50:15.313462 35123 net.cpp:157] Top shape: 64 512 5 4 (655360)
I1219 16:50:15.313467 35123 net.cpp:165] Memory required for data: 1658389504
I1219 16:50:15.313473 35123 layer_factory.hpp:77] Creating layer conv5_4
I1219 16:50:15.313493 35123 net.cpp:100] Creating Layer conv5_4
I1219 16:50:15.313500 35123 net.cpp:434] conv5_4 <- conv5_3
I1219 16:50:15.313519 35123 net.cpp:408] conv5_4 -> conv5_4
I1219 16:50:15.398378 35123 net.cpp:150] Setting up conv5_4
I1219 16:50:15.398401 35123 net.cpp:157] Top shape: 64 512 5 4 (655360)
I1219 16:50:15.398406 35123 net.cpp:165] Memory required for data: 1661010944
I1219 16:50:15.398416 35123 layer_factory.hpp:77] Creating layer relu5_4
I1219 16:50:15.398429 35123 net.cpp:100] Creating Layer relu5_4
I1219 16:50:15.398437 35123 net.cpp:434] relu5_4 <- conv5_4
I1219 16:50:15.398443 35123 net.cpp:395] relu5_4 -> conv5_4 (in-place)
I1219 16:50:15.398561 35123 net.cpp:150] Setting up relu5_4
I1219 16:50:15.398571 35123 net.cpp:157] Top shape: 64 512 5 4 (655360)
I1219 16:50:15.398576 35123 net.cpp:165] Memory required for data: 1663632384
I1219 16:50:15.398584 35123 layer_factory.hpp:77] Creating layer res5_4
I1219 16:50:15.398609 35123 net.cpp:100] Creating Layer res5_4
I1219 16:50:15.398615 35123 net.cpp:434] res5_4 <- res5_2_res5_2_0_split_1
I1219 16:50:15.398622 35123 net.cpp:434] res5_4 <- conv5_4
I1219 16:50:15.398630 35123 net.cpp:408] res5_4 -> res5_4
I1219 16:50:15.398661 35123 net.cpp:150] Setting up res5_4
I1219 16:50:15.398669 35123 net.cpp:157] Top shape: 64 512 5 4 (655360)
I1219 16:50:15.398674 35123 net.cpp:165] Memory required for data: 1666253824
I1219 16:50:15.398690 35123 layer_factory.hpp:77] Creating layer res5_4_res5_4_0_split
I1219 16:50:15.398716 35123 net.cpp:100] Creating Layer res5_4_res5_4_0_split
I1219 16:50:15.398722 35123 net.cpp:434] res5_4_res5_4_0_split <- res5_4
I1219 16:50:15.398732 35123 net.cpp:408] res5_4_res5_4_0_split -> res5_4_res5_4_0_split_0
I1219 16:50:15.398756 35123 net.cpp:408] res5_4_res5_4_0_split -> res5_4_res5_4_0_split_1
I1219 16:50:15.398798 35123 net.cpp:150] Setting up res5_4_res5_4_0_split
I1219 16:50:15.398808 35123 net.cpp:157] Top shape: 64 512 5 4 (655360)
I1219 16:50:15.398813 35123 net.cpp:157] Top shape: 64 512 5 4 (655360)
I1219 16:50:15.398818 35123 net.cpp:165] Memory required for data: 1671496704
I1219 16:50:15.398823 35123 layer_factory.hpp:77] Creating layer conv5_5
I1219 16:50:15.398841 35123 net.cpp:100] Creating Layer conv5_5
I1219 16:50:15.398847 35123 net.cpp:434] conv5_5 <- res5_4_res5_4_0_split_0
I1219 16:50:15.398856 35123 net.cpp:408] conv5_5 -> conv5_5
I1219 16:50:15.484726 35123 net.cpp:150] Setting up conv5_5
I1219 16:50:15.484752 35123 net.cpp:157] Top shape: 64 512 5 4 (655360)
I1219 16:50:15.484758 35123 net.cpp:165] Memory required for data: 1674118144
I1219 16:50:15.484768 35123 layer_factory.hpp:77] Creating layer relu5_5
I1219 16:50:15.484777 35123 net.cpp:100] Creating Layer relu5_5
I1219 16:50:15.484783 35123 net.cpp:434] relu5_5 <- conv5_5
I1219 16:50:15.484796 35123 net.cpp:395] relu5_5 -> conv5_5 (in-place)
I1219 16:50:15.484915 35123 net.cpp:150] Setting up relu5_5
I1219 16:50:15.484930 35123 net.cpp:157] Top shape: 64 512 5 4 (655360)
I1219 16:50:15.484935 35123 net.cpp:165] Memory required for data: 1676739584
I1219 16:50:15.484941 35123 layer_factory.hpp:77] Creating layer conv5_6
I1219 16:50:15.484961 35123 net.cpp:100] Creating Layer conv5_6
I1219 16:50:15.484967 35123 net.cpp:434] conv5_6 <- conv5_5
I1219 16:50:15.484977 35123 net.cpp:408] conv5_6 -> conv5_6
I1219 16:50:15.569769 35123 net.cpp:150] Setting up conv5_6
I1219 16:50:15.569792 35123 net.cpp:157] Top shape: 64 512 5 4 (655360)
I1219 16:50:15.569798 35123 net.cpp:165] Memory required for data: 1679361024
I1219 16:50:15.569808 35123 layer_factory.hpp:77] Creating layer relu5_6
I1219 16:50:15.569820 35123 net.cpp:100] Creating Layer relu5_6
I1219 16:50:15.569833 35123 net.cpp:434] relu5_6 <- conv5_6
I1219 16:50:15.569841 35123 net.cpp:395] relu5_6 -> conv5_6 (in-place)
I1219 16:50:15.569962 35123 net.cpp:150] Setting up relu5_6
I1219 16:50:15.569972 35123 net.cpp:157] Top shape: 64 512 5 4 (655360)
I1219 16:50:15.569977 35123 net.cpp:165] Memory required for data: 1681982464
I1219 16:50:15.569989 35123 layer_factory.hpp:77] Creating layer res5_6
I1219 16:50:15.570003 35123 net.cpp:100] Creating Layer res5_6
I1219 16:50:15.570009 35123 net.cpp:434] res5_6 <- res5_4_res5_4_0_split_1
I1219 16:50:15.570016 35123 net.cpp:434] res5_6 <- conv5_6
I1219 16:50:15.570026 35123 net.cpp:408] res5_6 -> res5_6
I1219 16:50:15.570055 35123 net.cpp:150] Setting up res5_6
I1219 16:50:15.570063 35123 net.cpp:157] Top shape: 64 512 5 4 (655360)
I1219 16:50:15.570073 35123 net.cpp:165] Memory required for data: 1684603904
I1219 16:50:15.570089 35123 layer_factory.hpp:77] Creating layer fc5
I1219 16:50:15.570107 35123 net.cpp:100] Creating Layer fc5
I1219 16:50:15.570113 35123 net.cpp:434] fc5 <- res5_6
I1219 16:50:15.570123 35123 net.cpp:408] fc5 -> fc5
I1219 16:50:15.623004 35123 net.cpp:150] Setting up fc5
I1219 16:50:15.623052 35123 net.cpp:157] Top shape: 64 512 (32768)
I1219 16:50:15.623059 35123 net.cpp:165] Memory required for data: 1684734976
I1219 16:50:15.623075 35123 layer_factory.hpp:77] Creating layer fc5_fc5_0_split
I1219 16:50:15.623092 35123 net.cpp:100] Creating Layer fc5_fc5_0_split
I1219 16:50:15.623100 35123 net.cpp:434] fc5_fc5_0_split <- fc5
I1219 16:50:15.623111 35123 net.cpp:408] fc5_fc5_0_split -> fc5_fc5_0_split_0
I1219 16:50:15.623122 35123 net.cpp:408] fc5_fc5_0_split -> fc5_fc5_0_split_1
I1219 16:50:15.623172 35123 net.cpp:150] Setting up fc5_fc5_0_split
I1219 16:50:15.623180 35123 net.cpp:157] Top shape: 64 512 (32768)
I1219 16:50:15.623198 35123 net.cpp:157] Top shape: 64 512 (32768)
I1219 16:50:15.623221 35123 net.cpp:165] Memory required for data: 1684997120
I1219 16:50:15.623227 35123 layer_factory.hpp:77] Creating layer fc6
I1219 16:50:15.623246 35123 net.cpp:100] Creating Layer fc6
I1219 16:50:15.623252 35123 net.cpp:434] fc6 <- fc5_fc5_0_split_0
I1219 16:50:15.623261 35123 net.cpp:408] fc6 -> fc6
I1219 16:50:15.866433 35123 net.cpp:150] Setting up fc6
I1219 16:50:15.866499 35123 net.cpp:157] Top shape: 64 43074 (2756736)
I1219 16:50:15.866508 35123 net.cpp:165] Memory required for data: 1696024064
I1219 16:50:15.866520 35123 layer_factory.hpp:77] Creating layer fc6_fc6_0_split
I1219 16:50:15.866536 35123 net.cpp:100] Creating Layer fc6_fc6_0_split
I1219 16:50:15.866544 35123 net.cpp:434] fc6_fc6_0_split <- fc6
I1219 16:50:15.866554 35123 net.cpp:408] fc6_fc6_0_split -> fc6_fc6_0_split_0
I1219 16:50:15.866590 35123 net.cpp:408] fc6_fc6_0_split -> fc6_fc6_0_split_1
I1219 16:50:15.866641 35123 net.cpp:150] Setting up fc6_fc6_0_split
I1219 16:50:15.866650 35123 net.cpp:157] Top shape: 64 43074 (2756736)
I1219 16:50:15.866657 35123 net.cpp:157] Top shape: 64 43074 (2756736)
I1219 16:50:15.866662 35123 net.cpp:165] Memory required for data: 1718077952
I1219 16:50:15.866667 35123 layer_factory.hpp:77] Creating layer softmax
I1219 16:50:15.866677 35123 net.cpp:100] Creating Layer softmax
I1219 16:50:15.866700 35123 net.cpp:434] softmax <- fc6_fc6_0_split_0
I1219 16:50:15.866711 35123 net.cpp:408] softmax -> prob
I1219 16:50:15.868757 35123 net.cpp:150] Setting up softmax
I1219 16:50:15.868798 35123 net.cpp:157] Top shape: 64 43074 (2756736)
I1219 16:50:15.868806 35123 net.cpp:165] Memory required for data: 1729104896
I1219 16:50:15.868813 35123 layer_factory.hpp:77] Creating layer accuracy
I1219 16:50:15.868829 35123 net.cpp:100] Creating Layer accuracy
I1219 16:50:15.868836 35123 net.cpp:434] accuracy <- prob
I1219 16:50:15.868844 35123 net.cpp:434] accuracy <- label_data_1_split_0
I1219 16:50:15.868852 35123 net.cpp:408] accuracy -> accuracy
…
I1219 16:50:16.090019 35123 net.cpp:322] The NetState phase (1) differed from the phase (0) specified by a rule in layer data
I1219 16:50:16.090641 35123 net.cpp:58] Initializing net from parameters: 
name: "Face-ResNet"
state {
  phase: TEST
}
layer {
  name: "data"
  type: "Data"
  top: "data"
  top: "label"
  include {
    phase: TEST
  }
  transform_param {
    scale: 0.0078125
    mirror: true
    mean_value: 127.5
    mean_value: 127.5
    mean_value: 127.5
  }
  data_param {
    source: "/home/licheng/face_data/face_lmdb_data/val_lmdb"
    batch_size: 16
    backend: LMDB
  }
}
layer {
  name: "conv1a"
  type: "Convolution"
  bottom: "data"
  top: "conv1a"
  param {
    lr_mult: 1
    decay_mult: 1
  }
  param {
    lr_mult: 2
    decay_mult: 0
  }
  convolution_param {
    num_output: 32
    kernel_size: 3
    stride: 1
    weight_filler {
      type: "xavier"
    }
    bias_filler {
      type: "constant"
      value: 0
    }
  }
}
layer {
  name: "relu1a"
  type: "PReLU"
  bottom: "conv1a"
  top: "conv1a"
}
layer {
  name: "conv1b"
  type: "Convolution"
  bottom: "conv1a"
  top: "conv1b"
  param {
    lr_mult: 1
    decay_mult: 1
  }
  param {
    lr_mult: 2
    decay_mult: 0
  }
  convolution_param {
    num_output: 64
    kernel_size: 3
    stride: 1
    weight_filler {
      type: "xavier"
    }
    bias_filler {
      type: "constant"
      value: 0
    }
  }
}
layer {
  name: "relu1b"
  type: "PReLU"
  bottom: "conv1b"
  top: "conv1b"
}
layer {
  name: "pool1b"
  type: "Pooling"
  bottom: "conv1b"
  top: "pool1b"
  pooling_param {
    pool: MAX
    kernel_size: 2
    stride: 2
  }
}
layer {
  name: "conv2_1"
  type: "Convolution"
  bottom: "pool1b"
  top: "conv2_1"
  param {
    lr_mult: 1
    decay_mult: 1
  }
  param {
    lr_mult: 2
    decay_mult: 0
  }
  convolution_param {
    num_output: 64
    pad: 1
    kernel_size: 3
    stride: 1
    weight_filler {
      type: "gaussian"
      std: 0.01
    }
    bias_filler {
      type: "constant"
      value: 0
    }
  }
}
layer {
  name: "relu2_1"
  type: "PReLU"
  bottom: "conv2_1"
  top: "conv2_1"
}
layer {
  name: "conv2_2"
  type: "Convolution"
  bottom: "conv2_1"
  top: "conv2_2"
  param {
    lr_mult: 1
    decay_mult: 1
  }
  param {
    lr_mult: 2
    decay_mult: 0
  }
  convolution_param {
    num_output: 64
    pad: 1
    kernel_size: 3
    stride: 1
    weight_filler {
      type: "gaussian"
      std: 0.01
    }
    bias_filler {
      type: "constant"
      value: 0
    }
  }
}
layer {
  name: "relu2_2"
  type: "PReLU"
  bottom: "conv2_2"
  top: "conv2_2"
}
layer {
  name: "res2_2"
  type: "Eltwise"
  bottom: "pool1b"
  bottom: "conv2_2"
  top: "res2_2"
  eltwise_param {
    operation: SUM
  }
}
layer {
  name: "conv2"
  type: "Convolution"
  bottom: "res2_2"
  top: "conv2"
  param {
    lr_mult: 1
    decay_mult: 1
  }
  param {
    lr_mult: 2
    decay_mult: 0
  }
  convolution_param {
    num_output: 128
    kernel_size: 3
    stride: 1
    weight_filler {
      type: "xavier"
    }
    bias_filler {
      type: "constant"
      value: 0
    }
  }
}
layer {
  name: "relu2"
  type: "PReLU"
  bottom: "conv2"
  top: "conv2"
}
layer {
  name: "pool2"
  type: "Pooling"
  bottom: "conv2"
  top: "pool2"
  pooling_param {
    pool: MAX
    kernel_size: 2
    stride: 2
  }
}
layer {
  name: "conv3_1"
  type: "Convolution"
  bottom: "pool2"
  top: "conv3_1"
  param {
    lr_mult: 1
    decay_mult: 1
  }
  param {
    lr_mult: 2
    decay_mult: 0
  }
  convolution_param {
    num_output: 128
    pad: 1
    kernel_size: 3
    stride: 1
    weight_filler {
      type: "gaussian"
      std: 0.01
    }
    bias_filler {
      type: "constant"
      value: 0
    }
  }
}
layer {
  name: "relu3_1"
  type: "PReLU"
  bottom: "conv3_1"
  top: "conv3_1"
}
layer {
  name: "conv3_2"
  type: "Convolution"
  bottom: "conv3_1"
  top: "conv3_2"
  param {
    lr_mult: 1
    decay_mult: 1
  }
  param {
    lr_mult: 2
    decay_mult: 0
  }
  convolution_param {
    num_output: 128
    pad: 1
    kernel_size: 3
    stride: 1
    weight_filler {
      type: "gaussian"
      std: 0.01
    }
    bias_filler {
      type: "constant"
      value: 0
    }
  }
}
layer {
  name: "relu3_2"
  type: "PReLU"
  bottom: "conv3_2"
  top: "conv3_2"
}
layer {
  name: "res3_2"
  type: "Eltwise"
  bottom: "pool2"
  bottom: "conv3_2"
  top: "res3_2"
  eltwise_param {
    operation: SUM
  }
}
layer {
  name: "conv3_3"
  type: "Convolution"
  bottom: "res3_2"
  top: "conv3_3"
  param {
    lr_mult: 1
    decay_mult: 1
  }
  param {
    lr_mult: 2
    decay_mult: 0
  }
  convolution_param {
    num_output: 128
    pad: 1
    kernel_size: 3
    stride: 1
    weight_filler {
      type: "gaussian"
      std: 0.01
    }
    bias_filler {
      type: "constant"
      value: 0
    }
  }
}
layer {
  name: "relu3_3"
  type: "PReLU"
  bottom: "conv3_3"
  top: "conv3_3"
}
layer {
  name: "conv3_4"
  type: "Convolution"
  bottom: "conv3_3"
  top: "conv3_4"
  param {
    lr_mult: 1
    decay_mult: 1
  }
  param {
    lr_mult: 2
    decay_mult: 0
  }
  convolution_param {
    num_output: 128
    pad: 1
    kernel_size: 3
    stride: 1
    weight_filler {
      type: "gaussian"
      std: 0.01
    }
    bias_filler {
      type: "constant"
      value: 0
    }
  }
}
layer {
  name: "relu3_4"
  type: "PReLU"
  bottom: "conv3_4"
  top: "conv3_4"
}
layer {
  name: "res3_4"
  type: "Eltwise"
  bottom: "res3_2"
  bottom: "conv3_4"
  top: "res3_4"
  eltwise_param {
    operation: SUM
  }
}
layer {
  name: "conv3"
  type: "Convolution"
  bottom: "res3_4"
  top: "conv3"
  param {
    lr_mult: 1
    decay_mult: 1
  }
  param {
    lr_mult: 2
    decay_mult: 0
  }
  convolution_param {
    num_output: 256
    kernel_size: 3
    stride: 1
    weight_filler {
      type: "xavier"
    }
    bias_filler {
      type: "constant"
      value: 0
    }
  }
}
layer {
  name: "relu3"
  type: "PReLU"
  bottom: "conv3"
  top: "conv3"
}
layer {
  name: "pool3"
  type: "Pooling"
  bottom: "conv3"
  top: "pool3"
  pooling_param {
    pool: MAX
    kernel_size: 2
    stride: 2
  }
}
layer {
  name: "conv4_1"
  type: "Convolution"
  bottom: "pool3"
  top: "conv4_1"
  param {
    lr_mult: 1
    decay_mult: 1
  }
  param {
    lr_mult: 2
    decay_mult: 0
  }
  convolution_param {
    num_output: 256
    pad: 1
    kernel_size: 3
    stride: 1
    weight_filler {
      type: "gaussian"
      std: 0.01
    }
    bias_filler {
      type: "constant"
      value: 0
    }
  }
}
layer {
  name: "relu4_1"
  type: "PReLU"
  bottom: "conv4_1"
  top: "conv4_1"
}
layer {
  name: "conv4_2"
  type: "Convolution"
  bottom: "conv4_1"
  top: "conv4_2"
  param {
    lr_mult: 1
    decay_mult: 1
  }
  param {
    lr_mult: 2
    decay_mult: 0
  }
  convolution_param {
    num_output: 256
    pad: 1
    kernel_size: 3
    stride: 1
    weight_filler {
      type: "gaussian"
      std: 0.01
    }
    bias_filler {
      type: "constant"
      value: 0
    }
  }
}
layer {
  name: "relu4_2"
  type: "PReLU"
  bottom: "conv4_2"
  top: "conv4_2"
}
layer {
  name: "res4_2"
  type: "Eltwise"
  bottom: "pool3"
  bottom: "conv4_2"
  top: "res4_2"
  eltwise_param {
    operation: SUM
  }
}
layer {
  name: "conv4_3"
  type: "Convolution"
  bottom: "res4_2"
  top: "conv4_3"
  param {
    lr_mult: 1
    decay_mult: 1
  }
  param {
    lr_mult: 2
    decay_mult: 0
  }
  convolution_param {
    num_output: 256
    pad: 1
    kernel_size: 3
    stride: 1
    weight_filler {
      type: "gaussian"
      std: 0.01
    }
    bias_filler {
      type: "constant"
      value: 0
    }
  }
}
layer {
  name: "relu4_3"
  type: "PReLU"
  bottom: "conv4_3"
  top: "conv4_3"
}
layer {
  name: "conv4_4"
  type: "Convolution"
  bottom: "conv4_3"
  top: "conv4_4"
  param {
    lr_mult: 1
    decay_mult: 1
  }
  param {
    lr_mult: 2
    decay_mult: 0
  }
  convolution_param {
    num_output: 256
    pad: 1
    kernel_size: 3
    stride: 1
    weight_filler {
      type: "gaussian"
      std: 0.01
    }
    bias_filler {
      type: "constant"
      value: 0
    }
  }
}
layer {
  name: "relu4_4"
  type: "PReLU"
  bottom: "conv4_4"
  top: "conv4_4"
}
layer {
  name: "res4_4"
  type: "Eltwise"
  bottom: "res4_2"
  bottom: "conv4_4"
  top: "res4_4"
  eltwise_param {
    operation: SUM
  }
}
layer {
  name: "conv4_5"
  type: "Convolution"
  bottom: "res4_4"
  top: "conv4_5"
  param {
    lr_mult: 1
    decay_mult: 1
  }
  param {
    lr_mult: 2
    decay_mult: 0
  }
  convolution_param {
    num_output: 256
    pad: 1
    kernel_size: 3
    stride: 1
    weight_filler {
      type: "gaussian"
      std: 0.01
    }
    bias_filler {
      type: "constant"
      value: 0
    }
  }
}
layer {
  name: "relu4_5"
  type: "PReLU"
  bottom: "conv4_5"
  top: "conv4_5"
}
layer {
  name: "conv4_6"
  type: "Convolution"
  bottom: "conv4_5"
  top: "conv4_6"
  param {
    lr_mult: 1
    decay_mult: 1
  }
  param {
    lr_mult: 2
    decay_mult: 0
  }
  convolution_param {
    num_output: 256
    pad: 1
    kernel_size: 3
    stride: 1
    weight_filler {
      type: "gaussian"
      std: 0.01
    }
    bias_filler {
      type: "constant"
      value: 0
    }
  }
}
layer {
  name: "relu4_6"
  type: "PReLU"
  bottom: "conv4_6"
  top: "conv4_6"
}
layer {
  name: "res4_6"
  type: "Eltwise"
  bottom: "res4_4"
  bottom: "conv4_6"
  top: "res4_6"
  eltwise_param {
    operation: SUM
  }
}
layer {
  name: "conv4_7"
  type: "Convolution"
  bottom: "res4_6"
  top: "conv4_7"
  param {
    lr_mult: 1
    decay_mult: 1
  }
  param {
    lr_mult: 2
    decay_mult: 0
  }
  convolution_param {
    num_output: 256
    pad: 1
    kernel_size: 3
    stride: 1
    weight_filler {
      type: "gaussian"
      std: 0.01
    }
    bias_filler {
      type: "constant"
      value: 0
    }
  }
}
layer {
  name: "relu4_7"
  type: "PReLU"
  bottom: "conv4_7"
  top: "conv4_7"
}
layer {
  name: "conv4_8"
  type: "Convolution"
  bottom: "conv4_7"
  top: "conv4_8"
  param {
    lr_mult: 1
    decay_mult: 1
  }
  param {
    lr_mult: 2
    decay_mult: 0
  }
  convolution_param {
    num_output: 256
    pad: 1
    kernel_size: 3
    stride: 1
    weight_filler {
      type: "gaussian"
      std: 0.01
    }
    bias_filler {
      type: "constant"
      value: 0
    }
  }
}
layer {
  name: "relu4_8"
  type: "PReLU"
  bottom: "conv4_8"
  top: "conv4_8"
}
layer {
  name: "res4_8"
  type: "Eltwise"
  bottom: "res4_6"
  bottom: "conv4_8"
  top: "res4_8"
  eltwise_param {
    operation: SUM
  }
}
layer {
  name: "conv4_9"
  type: "Convolution"
  bottom: "res4_8"
  top: "conv4_9"
  param {
    lr_mult: 1
    decay_mult: 1
  }
  param {
    lr_mult: 2
    decay_mult: 0
  }
  convolution_param {
    num_output: 256
    pad: 1
    kernel_size: 3
    stride: 1
    weight_filler {
      type: "gaussian"
      std: 0.01
    }
    bias_filler {
      type: "constant"
      value: 0
    }
  }
}
layer {
  name: "relu4_9"
  type: "PReLU"
  bottom: "conv4_9"
  top: "conv4_9"
}
layer {
  name: "conv4_10"
  type: "Convolution"
  bottom: "conv4_9"
  top: "conv4_10"
  param {
    lr_mult: 1
    decay_mult: 1
  }
  param {
    lr_mult: 2
    decay_mult: 0
  }
  convolution_param {
    num_output: 256
    pad: 1
    kernel_size: 3
    stride: 1
    weight_filler {
      type: "gaussian"
      std: 0.01
    }
    bias_filler {
      type: "constant"
      value: 0
    }
  }
}
layer {
  name: "relu4_10"
  type: "PReLU"
  bottom: "conv4_10"
  top: "conv4_10"
}
layer {
  name: "res4_10"
  type: "Eltwise"
  bottom: "res4_8"
  bottom: "conv4_10"
  top: "res4_10"
  eltwise_param {
    operation: SUM
  }
}
layer {
  name: "conv4"
  type: "Convolution"
  bottom: "res4_10"
  top: "conv4"
  param {
    lr_mult: 1
    decay_mult: 1
  }
  param {
    lr_mult: 2
    decay_mult: 0
  }
  convolution_param {
    num_output: 512
    kernel_size: 3
    stride: 1
    weight_filler {
      type: "xavier"
    }
    bias_filler {
      type: "constant"
      value: 0
    }
  }
}
layer {
  name: "relu4"
  type: "PReLU"
  bottom: "conv4"
  top: "conv4"
}
layer {
  name: "pool4"
  type: "Pooling"
  bottom: "conv4"
  top: "pool4"
  pooling_param {
    pool: MAX
    kernel_size: 2
    stride: 2
  }
}
layer {
  name: "conv5_1"
  type: "Convolution"
  bottom: "pool4"
  top: "conv5_1"
  param {
    lr_mult: 1
    decay_mult: 1
  }
  param {
    lr_mult: 2
    decay_mult: 0
  }
  convolution_param {
    num_output: 512
    pad: 1
    kernel_size: 3
    stride: 1
    weight_filler {
      type: "gaussian"
      std: 0.01
    }
    bias_filler {
      type: "constant"
      value: 0
    }
  }
}
layer {
  name: "relu5_1"
  type: "PReLU"
  bottom: "conv5_1"
  top: "conv5_1"
}
layer {
  name: "conv5_2"
  type: "Convolution"
  bottom: "conv5_1"
  top: "conv5_2"
  param {
    lr_mult: 1
    decay_mult: 1
  }
  param {
    lr_mult: 2
    decay_mult: 0
  }
  convolution_param {
    num_output: 512
    pad: 1
    kernel_size: 3
    stride: 1
    weight_filler {
      type: "gaussian"
      std: 0.01
    }
    bias_filler {
      type: "constant"
      value: 0
    }
  }
}
layer {
  name: "relu5_2"
  type: "PReLU"
  bottom: "conv5_2"
  top: "conv5_2"
}
layer {
  name: "res5_2"
  type: "Eltwise"
  bottom: "pool4"
  bottom: "conv5_2"
  top: "res5_2"
  eltwise_param {
    operation: SUM
  }
}
layer {
  name: "conv5_3"
  type: "Convolution"
  bottom: "res5_2"
  top: "conv5_3"
  param {
    lr_mult: 1
    decay_mult: 1
  }
  param {
    lr_mult: 2
    decay_mult: 0
  }
  convolution_param {
    num_output: 512
    pad: 1
    kernel_size: 3
    stride: 1
    weight_filler {
      type: "gaussian"
      std: 0.01
    }
    bias_filler {
      type: "constant"
      value: 0
    }
  }
}
layer {
  name: "relu5_3"
  type: "PReLU"
  bottom: "conv5_3"
  top: "conv5_3"
}
layer {
  name: "conv5_4"
  type: "Convolution"
  bottom: "conv5_3"
  top: "conv5_4"
  param {
    lr_mult: 1
    decay_mult: 1
  }
  param {
    lr_mult: 2
    decay_mult: 0
  }
  convolution_param {
    num_output: 512
    pad: 1
    kernel_size: 3
    stride: 1
    weight_filler {
      type: "gaussian"
      std: 0.01
    }
    bias_filler {
      type: "constant"
      value: 0
    }
  }
}
layer {
  name: "relu5_4"
  type: "PReLU"
  bottom: "conv5_4"
  top: "conv5_4"
}
layer {
  name: "res5_4"
  type: "Eltwise"
  bottom: "res5_2"
  bottom: "conv5_4"
  top: "res5_4"
  eltwise_param {
    operation: SUM
  }
}
layer {
  name: "conv5_5"
  type: "Convolution"
  bottom: "res5_4"
  top: "conv5_5"
  param {
    lr_mult: 1
    decay_mult: 1
  }
  param {
    lr_mult: 2
    decay_mult: 0
  }
  convolution_param {
    num_output: 512
    pad: 1
    kernel_size: 3
    stride: 1
    weight_filler {
      type: "gaussian"
      std: 0.01
    }
    bias_filler {
      type: "constant"
      value: 0
    }
  }
}
layer {
  name: "relu5_5"
  type: "PReLU"
  bottom: "conv5_5"
  top: "conv5_5"
}
layer {
  name: "conv5_6"
  type: "Convolution"
  bottom: "conv5_5"
  top: "conv5_6"
  param {
    lr_mult: 1
    decay_mult: 1
  }
  param {
    lr_mult: 2
    decay_mult: 0
  }
  convolution_param {
    num_output: 512
    pad: 1
    kernel_size: 3
    stride: 1
    weight_filler {
      type: "gaussian"
      std: 0.01
    }
    bias_filler {
      type: "constant"
      value: 0
    }
  }
}
layer {
  name: "relu5_6"
  type: "PReLU"
  bottom: "conv5_6"
  top: "conv5_6"
}
layer {
  name: "res5_6"
  type: "Eltwise"
  bottom: "res5_4"
  bottom: "conv5_6"
  top: "res5_6"
  eltwise_param {
    operation: SUM
  }
}
layer {
  name: "fc5"
  type: "InnerProduct"
  bottom: "res5_6"
  top: "fc5"
  param {
    lr_mult: 1
    decay_mult: 1
  }
  param {
    lr_mult: 2
    decay_mult: 0
  }
  inner_product_param {
    num_output: 512
    weight_filler {
      type: "xavier"
    }
    bias_filler {
      type: "constant"
      value: 0
    }
  }
}
layer {
  name: "fc6"
  type: "InnerProduct"
  bottom: "fc5"
  top: "fc6"
  param {
    lr_mult: 1
    decay_mult: 1
  }
  param {
    lr_mult: 2
    decay_mult: 0
  }
  inner_product_param {
    num_output: 43074
    weight_filler {
      type: "xavier"
    }
    bias_filler {
      type: "constant"
      value: 0
    }
  }
}
layer {
  name: "softmax"
  type: "Softmax"
  bottom: "fc6"
  top: "prob"
}
layer {
  name: "accuracy"
  type: "Accuracy"
  bottom: "prob"
  bottom: "label"
  top: "accuracy"
}
layer {
  name: "softmax_loss"
  type: "SoftmaxWithLoss"
  bottom: "fc6"
  bottom: "label"
  top: "softmax_loss"
}
layer {
  name: "center_loss"
  type: "CenterLoss"
  bottom: "fc5"
  bottom: "label"
  top: "center_loss"
  loss_weight: 0.003
  param {
    lr_mult: 1
    decay_mult: 2
  }
  center_loss_param {
    num_output: 43074
    center_filler {
      type: "xavier"
    }
  }
}
I1219 16:50:16.091143 35123 layer_factory.hpp:77] Creating layer data
I1219 16:50:16.091864 35123 net.cpp:100] Creating Layer data
I1219 16:50:16.091881 35123 net.cpp:408] data -> data
I1219 16:50:16.091893 35123 net.cpp:408] data -> label
I1219 16:50:16.094482 35163 db_lmdb.cpp:35] Opened lmdb /home/licheng/face_data/face_lmdb_data/val_lmdb
I1219 16:50:16.094782 35123 data_layer.cpp:41] output data size: 16,3,112,96
I1219 16:50:16.104626 35123 net.cpp:150] Setting up data
I1219 16:50:16.104650 35123 net.cpp:157] Top shape: 16 3 112 96 (516096)
I1219 16:50:16.104657 35123 net.cpp:157] Top shape: 16 (16)
I1219 16:50:16.104663 35123 net.cpp:165] Memory required for data: 2064448
I1219 16:50:16.104670 35123 layer_factory.hpp:77] Creating layer label_data_1_split
I1219 16:50:16.104713 35123 net.cpp:100] Creating Layer label_data_1_split
I1219 16:50:16.104737 35123 net.cpp:434] label_data_1_split <- label
I1219 16:50:16.104756 35123 net.cpp:408] label_data_1_split -> label_data_1_split_0
I1219 16:50:16.104768 35123 net.cpp:408] label_data_1_split -> label_data_1_split_1
I1219 16:50:16.104775 35123 net.cpp:408] label_data_1_split -> label_data_1_split_2
I1219 16:50:16.104917 35123 net.cpp:150] Setting up label_data_1_split
I1219 16:50:16.104930 35123 net.cpp:157] Top shape: 16 (16)
I1219 16:50:16.104936 35123 net.cpp:157] Top shape: 16 (16)
I1219 16:50:16.104943 35123 net.cpp:157] Top shape: 16 (16)
I1219 16:50:16.104948 35123 net.cpp:165] Memory required for data: 2064640
I1219 16:50:16.104954 35123 layer_factory.hpp:77] Creating layer conv1a
I1219 16:50:16.104995 35123 net.cpp:100] Creating Layer conv1a
I1219 16:50:16.105005 35123 net.cpp:434] conv1a <- data
I1219 16:50:16.105015 35123 net.cpp:408] conv1a -> conv1a
I1219 16:50:16.105355 35123 net.cpp:150] Setting up conv1a
I1219 16:50:16.105391 35123 net.cpp:157] Top shape: 16 32 110 94 (5294080)
I1219 16:50:16.105398 35123 net.cpp:165] Memory required for data: 23240960
I1219 16:50:16.105412 35123 layer_factory.hpp:77] Creating layer relu1a
I1219 16:50:16.105423 35123 net.cpp:100] Creating Layer relu1a
I1219 16:50:16.105429 35123 net.cpp:434] relu1a <- conv1a
I1219 16:50:16.105437 35123 net.cpp:395] relu1a -> conv1a (in-place)
I1219 16:50:16.108536 35123 net.cpp:150] Setting up relu1a
I1219 16:50:16.108558 35123 net.cpp:157] Top shape: 16 32 110 94 (5294080)
I1219 16:50:16.108564 35123 net.cpp:165] Memory required for data: 44417280
I1219 16:50:16.108575 35123 layer_factory.hpp:77] Creating layer conv1b
I1219 16:50:16.108613 35123 net.cpp:100] Creating Layer conv1b
I1219 16:50:16.108623 35123 net.cpp:434] conv1b <- conv1a
I1219 16:50:16.108633 35123 net.cpp:408] conv1b -> conv1b
I1219 16:50:16.109540 35123 net.cpp:150] Setting up conv1b
I1219 16:50:16.109586 35123 net.cpp:157] Top shape: 16 64 108 92 (10174464)
I1219 16:50:16.109596 35123 net.cpp:165] Memory required for data: 85115136
I1219 16:50:16.109617 35123 layer_factory.hpp:77] Creating layer relu1b
I1219 16:50:16.109635 35123 net.cpp:100] Creating Layer relu1b
I1219 16:50:16.109649 35123 net.cpp:434] relu1b <- conv1b
I1219 16:50:16.109661 35123 net.cpp:395] relu1b -> conv1b (in-place)
I1219 16:50:16.114848 35123 net.cpp:150] Setting up relu1b
I1219 16:50:16.114897 35123 net.cpp:157] Top shape: 16 64 108 92 (10174464)
I1219 16:50:16.114908 35123 net.cpp:165] Memory required for data: 125812992
I1219 16:50:16.114928 35123 layer_factory.hpp:77] Creating layer pool1b
I1219 16:50:16.114950 35123 net.cpp:100] Creating Layer pool1b
I1219 16:50:16.114962 35123 net.cpp:434] pool1b <- conv1b
I1219 16:50:16.114984 35123 net.cpp:408] pool1b -> pool1b
I1219 16:50:16.115098 35123 net.cpp:150] Setting up pool1b
I1219 16:50:16.115118 35123 net.cpp:157] Top shape: 16 64 54 46 (2543616)
I1219 16:50:16.115128 35123 net.cpp:165] Memory required for data: 135987456
I1219 16:50:16.115137 35123 layer_factory.hpp:77] Creating layer pool1b_pool1b_0_split
I1219 16:50:16.115155 35123 net.cpp:100] Creating Layer pool1b_pool1b_0_split
I1219 16:50:16.115165 35123 net.cpp:434] pool1b_pool1b_0_split <- pool1b
I1219 16:50:16.115178 35123 net.cpp:408] pool1b_pool1b_0_split -> pool1b_pool1b_0_split_0
I1219 16:50:16.115200 35123 net.cpp:408] pool1b_pool1b_0_split -> pool1b_pool1b_0_split_1
I1219 16:50:16.115285 35123 net.cpp:150] Setting up pool1b_pool1b_0_split
I1219 16:50:16.115301 35123 net.cpp:157] Top shape: 16 64 54 46 (2543616)
I1219 16:50:16.115314 35123 net.cpp:157] Top shape: 16 64 54 46 (2543616)
I1219 16:50:16.115322 35123 net.cpp:165] Memory required for data: 156336384
I1219 16:50:16.115331 35123 layer_factory.hpp:77] Creating layer conv2_1
I1219 16:50:16.115363 35123 net.cpp:100] Creating Layer conv2_1
I1219 16:50:16.115375 35123 net.cpp:434] conv2_1 <- pool1b_pool1b_0_split_0
I1219 16:50:16.115392 35123 net.cpp:408] conv2_1 -> conv2_1
I1219 16:50:16.118194 35123 net.cpp:150] Setting up conv2_1
I1219 16:50:16.118229 35123 net.cpp:157] Top shape: 16 64 54 46 (2543616)
I1219 16:50:16.118264 35123 net.cpp:165] Memory required for data: 166510848
I1219 16:50:16.118281 35123 layer_factory.hpp:77] Creating layer relu2_1
I1219 16:50:16.118302 35123 net.cpp:100] Creating Layer relu2_1
I1219 16:50:16.118314 35123 net.cpp:434] relu2_1 <- conv2_1
I1219 16:50:16.118326 35123 net.cpp:395] relu2_1 -> conv2_1 (in-place)
I1219 16:50:16.118836 35123 net.cpp:150] Setting up relu2_1
I1219 16:50:16.118854 35123 net.cpp:157] Top shape: 16 64 54 46 (2543616)
I1219 16:50:16.118862 35123 net.cpp:165] Memory required for data: 176685312
I1219 16:50:16.118882 35123 layer_factory.hpp:77] Creating layer conv2_2
I1219 16:50:16.118906 35123 net.cpp:100] Creating Layer conv2_2
I1219 16:50:16.118916 35123 net.cpp:434] conv2_2 <- conv2_1
I1219 16:50:16.118937 35123 net.cpp:408] conv2_2 -> conv2_2
I1219 16:50:16.121690 35123 net.cpp:150] Setting up conv2_2
I1219 16:50:16.121711 35123 net.cpp:157] Top shape: 16 64 54 46 (2543616)
I1219 16:50:16.121719 35123 net.cpp:165] Memory required for data: 186859776
I1219 16:50:16.121734 35123 layer_factory.hpp:77] Creating layer relu2_2
I1219 16:50:16.121748 35123 net.cpp:100] Creating Layer relu2_2
I1219 16:50:16.121762 35123 net.cpp:434] relu2_2 <- conv2_2
I1219 16:50:16.121774 35123 net.cpp:395] relu2_2 -> conv2_2 (in-place)
I1219 16:50:16.124914 35123 net.cpp:150] Setting up relu2_2
I1219 16:50:16.124946 35123 net.cpp:157] Top shape: 16 64 54 46 (2543616)
I1219 16:50:16.124956 35123 net.cpp:165] Memory required for data: 197034240
I1219 16:50:16.124970 35123 layer_factory.hpp:77] Creating layer res2_2
I1219 16:50:16.124987 35123 net.cpp:100] Creating Layer res2_2
I1219 16:50:16.124997 35123 net.cpp:434] res2_2 <- pool1b_pool1b_0_split_1
I1219 16:50:16.125010 35123 net.cpp:434] res2_2 <- conv2_2
I1219 16:50:16.125025 35123 net.cpp:408] res2_2 -> res2_2
I1219 16:50:16.125092 35123 net.cpp:150] Setting up res2_2
I1219 16:50:16.125108 35123 net.cpp:157] Top shape: 16 64 54 46 (2543616)
I1219 16:50:16.125118 35123 net.cpp:165] Memory required for data: 207208704
I1219 16:50:16.125125 35123 layer_factory.hpp:77] Creating layer conv2
I1219 16:50:16.125149 35123 net.cpp:100] Creating Layer conv2
I1219 16:50:16.125159 35123 net.cpp:434] conv2 <- res2_2
I1219 16:50:16.125172 35123 net.cpp:408] conv2 -> conv2
I1219 16:50:16.126487 35123 net.cpp:150] Setting up conv2
I1219 16:50:16.126507 35123 net.cpp:157] Top shape: 16 128 52 44 (4685824)
I1219 16:50:16.126515 35123 net.cpp:165] Memory required for data: 225952000
I1219 16:50:16.126528 35123 layer_factory.hpp:77] Creating layer relu2
I1219 16:50:16.126545 35123 net.cpp:100] Creating Layer relu2
I1219 16:50:16.126555 35123 net.cpp:434] relu2 <- conv2
I1219 16:50:16.126567 35123 net.cpp:395] relu2 -> conv2 (in-place)
I1219 16:50:16.129673 35123 net.cpp:150] Setting up relu2
I1219 16:50:16.129704 35123 net.cpp:157] Top shape: 16 128 52 44 (4685824)
I1219 16:50:16.129714 35123 net.cpp:165] Memory required for data: 244695296
I1219 16:50:16.129727 35123 layer_factory.hpp:77] Creating layer pool2
I1219 16:50:16.129743 35123 net.cpp:100] Creating Layer pool2
I1219 16:50:16.129753 35123 net.cpp:434] pool2 <- conv2
I1219 16:50:16.129770 35123 net.cpp:408] pool2 -> pool2
I1219 16:50:16.129858 35123 net.cpp:150] Setting up pool2
I1219 16:50:16.129873 35123 net.cpp:157] Top shape: 16 128 26 22 (1171456)
I1219 16:50:16.129881 35123 net.cpp:165] Memory required for data: 249381120
I1219 16:50:16.129889 35123 layer_factory.hpp:77] Creating layer pool2_pool2_0_split
I1219 16:50:16.129905 35123 net.cpp:100] Creating Layer pool2_pool2_0_split
I1219 16:50:16.129915 35123 net.cpp:434] pool2_pool2_0_split <- pool2
I1219 16:50:16.129926 35123 net.cpp:408] pool2_pool2_0_split -> pool2_pool2_0_split_0
I1219 16:50:16.129946 35123 net.cpp:408] pool2_pool2_0_split -> pool2_pool2_0_split_1
I1219 16:50:16.130018 35123 net.cpp:150] Setting up pool2_pool2_0_split
I1219 16:50:16.130033 35123 net.cpp:157] Top shape: 16 128 26 22 (1171456)
I1219 16:50:16.130048 35123 net.cpp:157] Top shape: 16 128 26 22 (1171456)
I1219 16:50:16.130064 35123 net.cpp:165] Memory required for data: 258752768
I1219 16:50:16.130102 35123 layer_factory.hpp:77] Creating layer conv3_1
I1219 16:50:16.130122 35123 net.cpp:100] Creating Layer conv3_1
I1219 16:50:16.130133 35123 net.cpp:434] conv3_1 <- pool2_pool2_0_split_0
I1219 16:50:16.130147 35123 net.cpp:408] conv3_1 -> conv3_1
I1219 16:50:16.138449 35123 net.cpp:150] Setting up conv3_1
I1219 16:50:16.138469 35123 net.cpp:157] Top shape: 16 128 26 22 (1171456)
I1219 16:50:16.138476 35123 net.cpp:165] Memory required for data: 263438592
I1219 16:50:16.138499 35123 layer_factory.hpp:77] Creating layer relu3_1
I1219 16:50:16.138511 35123 net.cpp:100] Creating Layer relu3_1
I1219 16:50:16.138520 35123 net.cpp:434] relu3_1 <- conv3_1
I1219 16:50:16.138530 35123 net.cpp:395] relu3_1 -> conv3_1 (in-place)
I1219 16:50:16.138774 35123 net.cpp:150] Setting up relu3_1
I1219 16:50:16.138789 35123 net.cpp:157] Top shape: 16 128 26 22 (1171456)
I1219 16:50:16.138797 35123 net.cpp:165] Memory required for data: 268124416
I1219 16:50:16.138808 35123 layer_factory.hpp:77] Creating layer conv3_2
I1219 16:50:16.138828 35123 net.cpp:100] Creating Layer conv3_2
I1219 16:50:16.138837 35123 net.cpp:434] conv3_2 <- conv3_1
I1219 16:50:16.138859 35123 net.cpp:408] conv3_2 -> conv3_2
I1219 16:50:16.146705 35123 net.cpp:150] Setting up conv3_2
I1219 16:50:16.146723 35123 net.cpp:157] Top shape: 16 128 26 22 (1171456)
I1219 16:50:16.146730 35123 net.cpp:165] Memory required for data: 272810240
I1219 16:50:16.146742 35123 layer_factory.hpp:77] Creating layer relu3_2
I1219 16:50:16.146754 35123 net.cpp:100] Creating Layer relu3_2
I1219 16:50:16.146761 35123 net.cpp:434] relu3_2 <- conv3_2
I1219 16:50:16.146771 35123 net.cpp:395] relu3_2 -> conv3_2 (in-place)
I1219 16:50:16.146996 35123 net.cpp:150] Setting up relu3_2
I1219 16:50:16.147011 35123 net.cpp:157] Top shape: 16 128 26 22 (1171456)
I1219 16:50:16.147017 35123 net.cpp:165] Memory required for data: 277496064
I1219 16:50:16.147027 35123 layer_factory.hpp:77] Creating layer res3_2
I1219 16:50:16.147042 35123 net.cpp:100] Creating Layer res3_2
I1219 16:50:16.147050 35123 net.cpp:434] res3_2 <- pool2_pool2_0_split_1
I1219 16:50:16.147060 35123 net.cpp:434] res3_2 <- conv3_2
I1219 16:50:16.147075 35123 net.cpp:408] res3_2 -> res3_2
I1219 16:50:16.147121 35123 net.cpp:150] Setting up res3_2
I1219 16:50:16.147132 35123 net.cpp:157] Top shape: 16 128 26 22 (1171456)
I1219 16:50:16.147140 35123 net.cpp:165] Memory required for data: 282181888
I1219 16:50:16.147147 35123 layer_factory.hpp:77] Creating layer res3_2_res3_2_0_split
I1219 16:50:16.147157 35123 net.cpp:100] Creating Layer res3_2_res3_2_0_split
I1219 16:50:16.147166 35123 net.cpp:434] res3_2_res3_2_0_split <- res3_2
I1219 16:50:16.147178 35123 net.cpp:408] res3_2_res3_2_0_split -> res3_2_res3_2_0_split_0
I1219 16:50:16.147191 35123 net.cpp:408] res3_2_res3_2_0_split -> res3_2_res3_2_0_split_1
I1219 16:50:16.147249 35123 net.cpp:150] Setting up res3_2_res3_2_0_split
I1219 16:50:16.147264 35123 net.cpp:157] Top shape: 16 128 26 22 (1171456)
I1219 16:50:16.147274 35123 net.cpp:157] Top shape: 16 128 26 22 (1171456)
I1219 16:50:16.147280 35123 net.cpp:165] Memory required for data: 291553536
I1219 16:50:16.147287 35123 layer_factory.hpp:77] Creating layer conv3_3
I1219 16:50:16.147303 35123 net.cpp:100] Creating Layer conv3_3
I1219 16:50:16.147311 35123 net.cpp:434] conv3_3 <- res3_2_res3_2_0_split_0
I1219 16:50:16.147326 35123 net.cpp:408] conv3_3 -> conv3_3
I1219 16:50:16.161366 35123 net.cpp:150] Setting up conv3_3
I1219 16:50:16.161402 35123 net.cpp:157] Top shape: 16 128 26 22 (1171456)
I1219 16:50:16.161412 35123 net.cpp:165] Memory required for data: 296239360
I1219 16:50:16.161427 35123 layer_factory.hpp:77] Creating layer relu3_3
I1219 16:50:16.161443 35123 net.cpp:100] Creating Layer relu3_3
I1219 16:50:16.161453 35123 net.cpp:434] relu3_3 <- conv3_3
I1219 16:50:16.161465 35123 net.cpp:395] relu3_3 -> conv3_3 (in-place)
I1219 16:50:16.161715 35123 net.cpp:150] Setting up relu3_3
I1219 16:50:16.161739 35123 net.cpp:157] Top shape: 16 128 26 22 (1171456)
I1219 16:50:16.161767 35123 net.cpp:165] Memory required for data: 300925184
I1219 16:50:16.161779 35123 layer_factory.hpp:77] Creating layer conv3_4
I1219 16:50:16.161811 35123 net.cpp:100] Creating Layer conv3_4
I1219 16:50:16.161821 35123 net.cpp:434] conv3_4 <- conv3_3
I1219 16:50:16.161834 35123 net.cpp:408] conv3_4 -> conv3_4
I1219 16:50:16.169905 35123 net.cpp:150] Setting up conv3_4
I1219 16:50:16.169925 35123 net.cpp:157] Top shape: 16 128 26 22 (1171456)
I1219 16:50:16.169934 35123 net.cpp:165] Memory required for data: 305611008
I1219 16:50:16.169946 35123 layer_factory.hpp:77] Creating layer relu3_4
I1219 16:50:16.169962 35123 net.cpp:100] Creating Layer relu3_4
I1219 16:50:16.169970 35123 net.cpp:434] relu3_4 <- conv3_4
I1219 16:50:16.169981 35123 net.cpp:395] relu3_4 -> conv3_4 (in-place)
I1219 16:50:16.170228 35123 net.cpp:150] Setting up relu3_4
I1219 16:50:16.170245 35123 net.cpp:157] Top shape: 16 128 26 22 (1171456)
I1219 16:50:16.170253 35123 net.cpp:165] Memory required for data: 310296832
I1219 16:50:16.170264 35123 layer_factory.hpp:77] Creating layer res3_4
I1219 16:50:16.170279 35123 net.cpp:100] Creating Layer res3_4
I1219 16:50:16.170289 35123 net.cpp:434] res3_4 <- res3_2_res3_2_0_split_1
I1219 16:50:16.170300 35123 net.cpp:434] res3_4 <- conv3_4
I1219 16:50:16.170313 35123 net.cpp:408] res3_4 -> res3_4
I1219 16:50:16.170356 35123 net.cpp:150] Setting up res3_4
I1219 16:50:16.170368 35123 net.cpp:157] Top shape: 16 128 26 22 (1171456)
I1219 16:50:16.170377 35123 net.cpp:165] Memory required for data: 314982656
I1219 16:50:16.170384 35123 layer_factory.hpp:77] Creating layer conv3
I1219 16:50:16.170404 35123 net.cpp:100] Creating Layer conv3
I1219 16:50:16.170413 35123 net.cpp:434] conv3 <- res3_4
I1219 16:50:16.170428 35123 net.cpp:408] conv3 -> conv3
I1219 16:50:16.176213 35123 net.cpp:150] Setting up conv3
I1219 16:50:16.176241 35123 net.cpp:157] Top shape: 16 256 24 20 (1966080)
I1219 16:50:16.176249 35123 net.cpp:165] Memory required for data: 322846976
I1219 16:50:16.176262 35123 layer_factory.hpp:77] Creating layer relu3
I1219 16:50:16.176275 35123 net.cpp:100] Creating Layer relu3
I1219 16:50:16.176283 35123 net.cpp:434] relu3 <- conv3
I1219 16:50:16.176297 35123 net.cpp:395] relu3 -> conv3 (in-place)
I1219 16:50:16.176582 35123 net.cpp:150] Setting up relu3
I1219 16:50:16.176600 35123 net.cpp:157] Top shape: 16 256 24 20 (1966080)
I1219 16:50:16.176609 35123 net.cpp:165] Memory required for data: 330711296
I1219 16:50:16.176618 35123 layer_factory.hpp:77] Creating layer pool3
I1219 16:50:16.176630 35123 net.cpp:100] Creating Layer pool3
I1219 16:50:16.176638 35123 net.cpp:434] pool3 <- conv3
I1219 16:50:16.176648 35123 net.cpp:408] pool3 -> pool3
I1219 16:50:16.176717 35123 net.cpp:150] Setting up pool3
I1219 16:50:16.176728 35123 net.cpp:157] Top shape: 16 256 12 10 (491520)
I1219 16:50:16.176735 35123 net.cpp:165] Memory required for data: 332677376
I1219 16:50:16.176743 35123 layer_factory.hpp:77] Creating layer pool3_pool3_0_split
I1219 16:50:16.176753 35123 net.cpp:100] Creating Layer pool3_pool3_0_split
I1219 16:50:16.176761 35123 net.cpp:434] pool3_pool3_0_split <- pool3
I1219 16:50:16.176774 35123 net.cpp:408] pool3_pool3_0_split -> pool3_pool3_0_split_0
I1219 16:50:16.176786 35123 net.cpp:408] pool3_pool3_0_split -> pool3_pool3_0_split_1
I1219 16:50:16.176851 35123 net.cpp:150] Setting up pool3_pool3_0_split
I1219 16:50:16.176862 35123 net.cpp:157] Top shape: 16 256 12 10 (491520)
I1219 16:50:16.176872 35123 net.cpp:157] Top shape: 16 256 12 10 (491520)
I1219 16:50:16.176878 35123 net.cpp:165] Memory required for data: 336609536
I1219 16:50:16.176885 35123 layer_factory.hpp:77] Creating layer conv4_1
I1219 16:50:16.176908 35123 net.cpp:100] Creating Layer conv4_1
I1219 16:50:16.176918 35123 net.cpp:434] conv4_1 <- pool3_pool3_0_split_0
I1219 16:50:16.176933 35123 net.cpp:408] conv4_1 -> conv4_1
I1219 16:50:16.205516 35123 net.cpp:150] Setting up conv4_1
I1219 16:50:16.205540 35123 net.cpp:157] Top shape: 16 256 12 10 (491520)
I1219 16:50:16.205554 35123 net.cpp:165] Memory required for data: 338575616
I1219 16:50:16.205580 35123 layer_factory.hpp:77] Creating layer relu4_1
I1219 16:50:16.205591 35123 net.cpp:100] Creating Layer relu4_1
I1219 16:50:16.205600 35123 net.cpp:434] relu4_1 <- conv4_1
I1219 16:50:16.205611 35123 net.cpp:395] relu4_1 -> conv4_1 (in-place)
I1219 16:50:16.205790 35123 net.cpp:150] Setting up relu4_1
I1219 16:50:16.205801 35123 net.cpp:157] Top shape: 16 256 12 10 (491520)
I1219 16:50:16.205806 35123 net.cpp:165] Memory required for data: 340541696
I1219 16:50:16.205823 35123 layer_factory.hpp:77] Creating layer conv4_2
I1219 16:50:16.205842 35123 net.cpp:100] Creating Layer conv4_2
I1219 16:50:16.205848 35123 net.cpp:434] conv4_2 <- conv4_1
I1219 16:50:16.205862 35123 net.cpp:408] conv4_2 -> conv4_2
I1219 16:50:16.230677 35123 net.cpp:150] Setting up conv4_2
I1219 16:50:16.230698 35123 net.cpp:157] Top shape: 16 256 12 10 (491520)
I1219 16:50:16.230705 35123 net.cpp:165] Memory required for data: 342507776
I1219 16:50:16.230715 35123 layer_factory.hpp:77] Creating layer relu4_2
I1219 16:50:16.230723 35123 net.cpp:100] Creating Layer relu4_2
I1219 16:50:16.230729 35123 net.cpp:434] relu4_2 <- conv4_2
I1219 16:50:16.230741 35123 net.cpp:395] relu4_2 -> conv4_2 (in-place)
I1219 16:50:16.230892 35123 net.cpp:150] Setting up relu4_2
I1219 16:50:16.230902 35123 net.cpp:157] Top shape: 16 256 12 10 (491520)
I1219 16:50:16.230907 35123 net.cpp:165] Memory required for data: 344473856
I1219 16:50:16.230914 35123 layer_factory.hpp:77] Creating layer res4_2
I1219 16:50:16.230927 35123 net.cpp:100] Creating Layer res4_2
I1219 16:50:16.230933 35123 net.cpp:434] res4_2 <- pool3_pool3_0_split_1
I1219 16:50:16.230940 35123 net.cpp:434] res4_2 <- conv4_2
I1219 16:50:16.230947 35123 net.cpp:408] res4_2 -> res4_2
I1219 16:50:16.230980 35123 net.cpp:150] Setting up res4_2
I1219 16:50:16.230989 35123 net.cpp:157] Top shape: 16 256 12 10 (491520)
I1219 16:50:16.230994 35123 net.cpp:165] Memory required for data: 346439936
I1219 16:50:16.231000 35123 layer_factory.hpp:77] Creating layer res4_2_res4_2_0_split
I1219 16:50:16.231007 35123 net.cpp:100] Creating Layer res4_2_res4_2_0_split
I1219 16:50:16.231014 35123 net.cpp:434] res4_2_res4_2_0_split <- res4_2
I1219 16:50:16.231024 35123 net.cpp:408] res4_2_res4_2_0_split -> res4_2_res4_2_0_split_0
I1219 16:50:16.231034 35123 net.cpp:408] res4_2_res4_2_0_split -> res4_2_res4_2_0_split_1
I1219 16:50:16.231086 35123 net.cpp:150] Setting up res4_2_res4_2_0_split
I1219 16:50:16.231101 35123 net.cpp:157] Top shape: 16 256 12 10 (491520)
I1219 16:50:16.231106 35123 net.cpp:157] Top shape: 16 256 12 10 (491520)
I1219 16:50:16.231112 35123 net.cpp:165] Memory required for data: 350372096
I1219 16:50:16.231117 35123 layer_factory.hpp:77] Creating layer conv4_3
I1219 16:50:16.231133 35123 net.cpp:100] Creating Layer conv4_3
I1219 16:50:16.231139 35123 net.cpp:434] conv4_3 <- res4_2_res4_2_0_split_0
I1219 16:50:16.231151 35123 net.cpp:408] conv4_3 -> conv4_3
I1219 16:50:16.253383 35123 net.cpp:150] Setting up conv4_3
I1219 16:50:16.253402 35123 net.cpp:157] Top shape: 16 256 12 10 (491520)
I1219 16:50:16.253408 35123 net.cpp:165] Memory required for data: 352338176
I1219 16:50:16.253417 35123 layer_factory.hpp:77] Creating layer relu4_3
I1219 16:50:16.253427 35123 net.cpp:100] Creating Layer relu4_3
I1219 16:50:16.253432 35123 net.cpp:434] relu4_3 <- conv4_3
I1219 16:50:16.253443 35123 net.cpp:395] relu4_3 -> conv4_3 (in-place)
I1219 16:50:16.253587 35123 net.cpp:150] Setting up relu4_3
I1219 16:50:16.253598 35123 net.cpp:157] Top shape: 16 256 12 10 (491520)
I1219 16:50:16.253603 35123 net.cpp:165] Memory required for data: 354304256
I1219 16:50:16.253610 35123 layer_factory.hpp:77] Creating layer conv4_4
I1219 16:50:16.253628 35123 net.cpp:100] Creating Layer conv4_4
I1219 16:50:16.253634 35123 net.cpp:434] conv4_4 <- conv4_3
I1219 16:50:16.253643 35123 net.cpp:408] conv4_4 -> conv4_4
I1219 16:50:16.275604 35123 net.cpp:150] Setting up conv4_4
I1219 16:50:16.275624 35123 net.cpp:157] Top shape: 16 256 12 10 (491520)
I1219 16:50:16.275636 35123 net.cpp:165] Memory required for data: 356270336
I1219 16:50:16.275660 35123 layer_factory.hpp:77] Creating layer relu4_4
I1219 16:50:16.275677 35123 net.cpp:100] Creating Layer relu4_4
I1219 16:50:16.275684 35123 net.cpp:434] relu4_4 <- conv4_4
I1219 16:50:16.275694 35123 net.cpp:395] relu4_4 -> conv4_4 (in-place)
I1219 16:50:16.275840 35123 net.cpp:150] Setting up relu4_4
I1219 16:50:16.275852 35123 net.cpp:157] Top shape: 16 256 12 10 (491520)
I1219 16:50:16.275857 35123 net.cpp:165] Memory required for data: 358236416
I1219 16:50:16.275864 35123 layer_factory.hpp:77] Creating layer res4_4
I1219 16:50:16.275873 35123 net.cpp:100] Creating Layer res4_4
I1219 16:50:16.275879 35123 net.cpp:434] res4_4 <- res4_2_res4_2_0_split_1
I1219 16:50:16.275887 35123 net.cpp:434] res4_4 <- conv4_4
I1219 16:50:16.275893 35123 net.cpp:408] res4_4 -> res4_4
I1219 16:50:16.275926 35123 net.cpp:150] Setting up res4_4
I1219 16:50:16.275934 35123 net.cpp:157] Top shape: 16 256 12 10 (491520)
I1219 16:50:16.275939 35123 net.cpp:165] Memory required for data: 360202496
I1219 16:50:16.275944 35123 layer_factory.hpp:77] Creating layer res4_4_res4_4_0_split
I1219 16:50:16.275955 35123 net.cpp:100] Creating Layer res4_4_res4_4_0_split
I1219 16:50:16.275960 35123 net.cpp:434] res4_4_res4_4_0_split <- res4_4
I1219 16:50:16.275967 35123 net.cpp:408] res4_4_res4_4_0_split -> res4_4_res4_4_0_split_0
I1219 16:50:16.275975 35123 net.cpp:408] res4_4_res4_4_0_split -> res4_4_res4_4_0_split_1
I1219 16:50:16.276032 35123 net.cpp:150] Setting up res4_4_res4_4_0_split
I1219 16:50:16.276041 35123 net.cpp:157] Top shape: 16 256 12 10 (491520)
I1219 16:50:16.276047 35123 net.cpp:157] Top shape: 16 256 12 10 (491520)
I1219 16:50:16.276051 35123 net.cpp:165] Memory required for data: 364134656
I1219 16:50:16.276057 35123 layer_factory.hpp:77] Creating layer conv4_5
I1219 16:50:16.276077 35123 net.cpp:100] Creating Layer conv4_5
I1219 16:50:16.276084 35123 net.cpp:434] conv4_5 <- res4_4_res4_4_0_split_0
I1219 16:50:16.276095 35123 net.cpp:408] conv4_5 -> conv4_5
I1219 16:50:16.297991 35123 net.cpp:150] Setting up conv4_5
I1219 16:50:16.298012 35123 net.cpp:157] Top shape: 16 256 12 10 (491520)
I1219 16:50:16.298017 35123 net.cpp:165] Memory required for data: 366100736
I1219 16:50:16.298025 35123 layer_factory.hpp:77] Creating layer relu4_5
I1219 16:50:16.298034 35123 net.cpp:100] Creating Layer relu4_5
I1219 16:50:16.298040 35123 net.cpp:434] relu4_5 <- conv4_5
I1219 16:50:16.298048 35123 net.cpp:395] relu4_5 -> conv4_5 (in-place)
I1219 16:50:16.298203 35123 net.cpp:150] Setting up relu4_5
I1219 16:50:16.298215 35123 net.cpp:157] Top shape: 16 256 12 10 (491520)
I1219 16:50:16.298220 35123 net.cpp:165] Memory required for data: 368066816
I1219 16:50:16.298228 35123 layer_factory.hpp:77] Creating layer conv4_6
I1219 16:50:16.298243 35123 net.cpp:100] Creating Layer conv4_6
I1219 16:50:16.298249 35123 net.cpp:434] conv4_6 <- conv4_5
I1219 16:50:16.298260 35123 net.cpp:408] conv4_6 -> conv4_6
I1219 16:50:16.320171 35123 net.cpp:150] Setting up conv4_6
I1219 16:50:16.320192 35123 net.cpp:157] Top shape: 16 256 12 10 (491520)
I1219 16:50:16.320197 35123 net.cpp:165] Memory required for data: 370032896
I1219 16:50:16.320206 35123 layer_factory.hpp:77] Creating layer relu4_6
I1219 16:50:16.320215 35123 net.cpp:100] Creating Layer relu4_6
I1219 16:50:16.320222 35123 net.cpp:434] relu4_6 <- conv4_6
I1219 16:50:16.320232 35123 net.cpp:395] relu4_6 -> conv4_6 (in-place)
I1219 16:50:16.320381 35123 net.cpp:150] Setting up relu4_6
I1219 16:50:16.320391 35123 net.cpp:157] Top shape: 16 256 12 10 (491520)
I1219 16:50:16.320396 35123 net.cpp:165] Memory required for data: 371998976
I1219 16:50:16.320403 35123 layer_factory.hpp:77] Creating layer res4_6
I1219 16:50:16.320415 35123 net.cpp:100] Creating Layer res4_6
I1219 16:50:16.320420 35123 net.cpp:434] res4_6 <- res4_4_res4_4_0_split_1
I1219 16:50:16.320427 35123 net.cpp:434] res4_6 <- conv4_6
I1219 16:50:16.320435 35123 net.cpp:408] res4_6 -> res4_6
I1219 16:50:16.320474 35123 net.cpp:150] Setting up res4_6
I1219 16:50:16.320483 35123 net.cpp:157] Top shape: 16 256 12 10 (491520)
I1219 16:50:16.320500 35123 net.cpp:165] Memory required for data: 373965056
I1219 16:50:16.320505 35123 layer_factory.hpp:77] Creating layer res4_6_res4_6_0_split
I1219 16:50:16.320518 35123 net.cpp:100] Creating Layer res4_6_res4_6_0_split
I1219 16:50:16.320523 35123 net.cpp:434] res4_6_res4_6_0_split <- res4_6
I1219 16:50:16.320534 35123 net.cpp:408] res4_6_res4_6_0_split -> res4_6_res4_6_0_split_0
I1219 16:50:16.320542 35123 net.cpp:408] res4_6_res4_6_0_split -> res4_6_res4_6_0_split_1
I1219 16:50:16.320588 35123 net.cpp:150] Setting up res4_6_res4_6_0_split
I1219 16:50:16.320596 35123 net.cpp:157] Top shape: 16 256 12 10 (491520)
I1219 16:50:16.320602 35123 net.cpp:157] Top shape: 16 256 12 10 (491520)
I1219 16:50:16.320607 35123 net.cpp:165] Memory required for data: 377897216
I1219 16:50:16.320612 35123 layer_factory.hpp:77] Creating layer conv4_7
I1219 16:50:16.320629 35123 net.cpp:100] Creating Layer conv4_7
I1219 16:50:16.320636 35123 net.cpp:434] conv4_7 <- res4_6_res4_6_0_split_0
I1219 16:50:16.320644 35123 net.cpp:408] conv4_7 -> conv4_7
I1219 16:50:16.342504 35123 net.cpp:150] Setting up conv4_7
I1219 16:50:16.342525 35123 net.cpp:157] Top shape: 16 256 12 10 (491520)
I1219 16:50:16.342530 35123 net.cpp:165] Memory required for data: 379863296
I1219 16:50:16.342540 35123 layer_factory.hpp:77] Creating layer relu4_7
I1219 16:50:16.342551 35123 net.cpp:100] Creating Layer relu4_7
I1219 16:50:16.342558 35123 net.cpp:434] relu4_7 <- conv4_7
I1219 16:50:16.342566 35123 net.cpp:395] relu4_7 -> conv4_7 (in-place)
I1219 16:50:16.342715 35123 net.cpp:150] Setting up relu4_7
I1219 16:50:16.342725 35123 net.cpp:157] Top shape: 16 256 12 10 (491520)
I1219 16:50:16.342730 35123 net.cpp:165] Memory required for data: 381829376
I1219 16:50:16.342737 35123 layer_factory.hpp:77] Creating layer conv4_8
I1219 16:50:16.342752 35123 net.cpp:100] Creating Layer conv4_8
I1219 16:50:16.342758 35123 net.cpp:434] conv4_8 <- conv4_7
I1219 16:50:16.342769 35123 net.cpp:408] conv4_8 -> conv4_8
I1219 16:50:16.364641 35123 net.cpp:150] Setting up conv4_8
I1219 16:50:16.364661 35123 net.cpp:157] Top shape: 16 256 12 10 (491520)
I1219 16:50:16.364667 35123 net.cpp:165] Memory required for data: 383795456
I1219 16:50:16.364676 35123 layer_factory.hpp:77] Creating layer relu4_8
I1219 16:50:16.364684 35123 net.cpp:100] Creating Layer relu4_8
I1219 16:50:16.364691 35123 net.cpp:434] relu4_8 <- conv4_8
I1219 16:50:16.364698 35123 net.cpp:395] relu4_8 -> conv4_8 (in-place)
I1219 16:50:16.364850 35123 net.cpp:150] Setting up relu4_8
I1219 16:50:16.364861 35123 net.cpp:157] Top shape: 16 256 12 10 (491520)
I1219 16:50:16.364866 35123 net.cpp:165] Memory required for data: 385761536
I1219 16:50:16.364873 35123 layer_factory.hpp:77] Creating layer res4_8
I1219 16:50:16.364882 35123 net.cpp:100] Creating Layer res4_8
I1219 16:50:16.364888 35123 net.cpp:434] res4_8 <- res4_6_res4_6_0_split_1
I1219 16:50:16.364895 35123 net.cpp:434] res4_8 <- conv4_8
I1219 16:50:16.364904 35123 net.cpp:408] res4_8 -> res4_8
I1219 16:50:16.364934 35123 net.cpp:150] Setting up res4_8
I1219 16:50:16.364943 35123 net.cpp:157] Top shape: 16 256 12 10 (491520)
I1219 16:50:16.364948 35123 net.cpp:165] Memory required for data: 387727616
I1219 16:50:16.364953 35123 layer_factory.hpp:77] Creating layer res4_8_res4_8_0_split
I1219 16:50:16.364964 35123 net.cpp:100] Creating Layer res4_8_res4_8_0_split
I1219 16:50:16.364969 35123 net.cpp:434] res4_8_res4_8_0_split <- res4_8
I1219 16:50:16.364975 35123 net.cpp:408] res4_8_res4_8_0_split -> res4_8_res4_8_0_split_0
I1219 16:50:16.364986 35123 net.cpp:408] res4_8_res4_8_0_split -> res4_8_res4_8_0_split_1
I1219 16:50:16.365030 35123 net.cpp:150] Setting up res4_8_res4_8_0_split
I1219 16:50:16.365038 35123 net.cpp:157] Top shape: 16 256 12 10 (491520)
I1219 16:50:16.365044 35123 net.cpp:157] Top shape: 16 256 12 10 (491520)
I1219 16:50:16.365049 35123 net.cpp:165] Memory required for data: 391659776
I1219 16:50:16.365054 35123 layer_factory.hpp:77] Creating layer conv4_9
I1219 16:50:16.365101 35123 net.cpp:100] Creating Layer conv4_9
I1219 16:50:16.365108 35123 net.cpp:434] conv4_9 <- res4_8_res4_8_0_split_0
I1219 16:50:16.365120 35123 net.cpp:408] conv4_9 -> conv4_9
I1219 16:50:16.387539 35123 net.cpp:150] Setting up conv4_9
I1219 16:50:16.387562 35123 net.cpp:157] Top shape: 16 256 12 10 (491520)
I1219 16:50:16.387568 35123 net.cpp:165] Memory required for data: 393625856
I1219 16:50:16.387578 35123 layer_factory.hpp:77] Creating layer relu4_9
I1219 16:50:16.387588 35123 net.cpp:100] Creating Layer relu4_9
I1219 16:50:16.387598 35123 net.cpp:434] relu4_9 <- conv4_9
I1219 16:50:16.387605 35123 net.cpp:395] relu4_9 -> conv4_9 (in-place)
I1219 16:50:16.387760 35123 net.cpp:150] Setting up relu4_9
I1219 16:50:16.387770 35123 net.cpp:157] Top shape: 16 256 12 10 (491520)
I1219 16:50:16.387775 35123 net.cpp:165] Memory required for data: 395591936
I1219 16:50:16.387783 35123 layer_factory.hpp:77] Creating layer conv4_10
I1219 16:50:16.387801 35123 net.cpp:100] Creating Layer conv4_10
I1219 16:50:16.387809 35123 net.cpp:434] conv4_10 <- conv4_9
I1219 16:50:16.387816 35123 net.cpp:408] conv4_10 -> conv4_10
I1219 16:50:16.409766 35123 net.cpp:150] Setting up conv4_10
I1219 16:50:16.409786 35123 net.cpp:157] Top shape: 16 256 12 10 (491520)
I1219 16:50:16.409792 35123 net.cpp:165] Memory required for data: 397558016
I1219 16:50:16.409801 35123 layer_factory.hpp:77] Creating layer relu4_10
I1219 16:50:16.409811 35123 net.cpp:100] Creating Layer relu4_10
I1219 16:50:16.409816 35123 net.cpp:434] relu4_10 <- conv4_10
I1219 16:50:16.409826 35123 net.cpp:395] relu4_10 -> conv4_10 (in-place)
I1219 16:50:16.409979 35123 net.cpp:150] Setting up relu4_10
I1219 16:50:16.409989 35123 net.cpp:157] Top shape: 16 256 12 10 (491520)
I1219 16:50:16.409994 35123 net.cpp:165] Memory required for data: 399524096
I1219 16:50:16.410001 35123 layer_factory.hpp:77] Creating layer res4_10
I1219 16:50:16.410010 35123 net.cpp:100] Creating Layer res4_10
I1219 16:50:16.410017 35123 net.cpp:434] res4_10 <- res4_8_res4_8_0_split_1
I1219 16:50:16.410023 35123 net.cpp:434] res4_10 <- conv4_10
I1219 16:50:16.410032 35123 net.cpp:408] res4_10 -> res4_10
I1219 16:50:16.410064 35123 net.cpp:150] Setting up res4_10
I1219 16:50:16.410079 35123 net.cpp:157] Top shape: 16 256 12 10 (491520)
I1219 16:50:16.410084 35123 net.cpp:165] Memory required for data: 401490176
I1219 16:50:16.410089 35123 layer_factory.hpp:77] Creating layer conv4
I1219 16:50:16.410104 35123 net.cpp:100] Creating Layer conv4
I1219 16:50:16.410110 35123 net.cpp:434] conv4 <- res4_10
I1219 16:50:16.410121 35123 net.cpp:408] conv4 -> conv4
I1219 16:50:16.422530 35123 net.cpp:150] Setting up conv4
I1219 16:50:16.422554 35123 net.cpp:157] Top shape: 16 512 10 8 (655360)
I1219 16:50:16.422559 35123 net.cpp:165] Memory required for data: 404111616
I1219 16:50:16.422569 35123 layer_factory.hpp:77] Creating layer relu4
I1219 16:50:16.422577 35123 net.cpp:100] Creating Layer relu4
I1219 16:50:16.422583 35123 net.cpp:434] relu4 <- conv4
I1219 16:50:16.422591 35123 net.cpp:395] relu4 -> conv4 (in-place)
I1219 16:50:16.424681 35123 net.cpp:150] Setting up relu4
I1219 16:50:16.424700 35123 net.cpp:157] Top shape: 16 512 10 8 (655360)
I1219 16:50:16.424706 35123 net.cpp:165] Memory required for data: 406733056
I1219 16:50:16.424715 35123 layer_factory.hpp:77] Creating layer pool4
I1219 16:50:16.424726 35123 net.cpp:100] Creating Layer pool4
I1219 16:50:16.424731 35123 net.cpp:434] pool4 <- conv4
I1219 16:50:16.424742 35123 net.cpp:408] pool4 -> pool4
I1219 16:50:16.424800 35123 net.cpp:150] Setting up pool4
I1219 16:50:16.424810 35123 net.cpp:157] Top shape: 16 512 5 4 (163840)
I1219 16:50:16.424815 35123 net.cpp:165] Memory required for data: 407388416
I1219 16:50:16.424820 35123 layer_factory.hpp:77] Creating layer pool4_pool4_0_split
I1219 16:50:16.424842 35123 net.cpp:100] Creating Layer pool4_pool4_0_split
I1219 16:50:16.424849 35123 net.cpp:434] pool4_pool4_0_split <- pool4
I1219 16:50:16.424855 35123 net.cpp:408] pool4_pool4_0_split -> pool4_pool4_0_split_0
I1219 16:50:16.424872 35123 net.cpp:408] pool4_pool4_0_split -> pool4_pool4_0_split_1
I1219 16:50:16.424937 35123 net.cpp:150] Setting up pool4_pool4_0_split
I1219 16:50:16.424947 35123 net.cpp:157] Top shape: 16 512 5 4 (163840)
I1219 16:50:16.424952 35123 net.cpp:157] Top shape: 16 512 5 4 (163840)
I1219 16:50:16.424957 35123 net.cpp:165] Memory required for data: 408699136
I1219 16:50:16.424963 35123 layer_factory.hpp:77] Creating layer conv5_1
I1219 16:50:16.424978 35123 net.cpp:100] Creating Layer conv5_1
I1219 16:50:16.424984 35123 net.cpp:434] conv5_1 <- pool4_pool4_0_split_0
I1219 16:50:16.424994 35123 net.cpp:408] conv5_1 -> conv5_1
I1219 16:50:16.551209 35123 net.cpp:150] Setting up conv5_1
I1219 16:50:16.551260 35123 net.cpp:157] Top shape: 16 512 5 4 (163840)
I1219 16:50:16.551267 35123 net.cpp:165] Memory required for data: 409354496
I1219 16:50:16.551296 35123 layer_factory.hpp:77] Creating layer relu5_1
I1219 16:50:16.551311 35123 net.cpp:100] Creating Layer relu5_1
I1219 16:50:16.551342 35123 net.cpp:434] relu5_1 <- conv5_1
I1219 16:50:16.551352 35123 net.cpp:395] relu5_1 -> conv5_1 (in-place)
I1219 16:50:16.551565 35123 net.cpp:150] Setting up relu5_1
I1219 16:50:16.551580 35123 net.cpp:157] Top shape: 16 512 5 4 (163840)
I1219 16:50:16.551585 35123 net.cpp:165] Memory required for data: 410009856
I1219 16:50:16.551594 35123 layer_factory.hpp:77] Creating layer conv5_2
I1219 16:50:16.551609 35123 net.cpp:100] Creating Layer conv5_2
I1219 16:50:16.551616 35123 net.cpp:434] conv5_2 <- conv5_1
I1219 16:50:16.551646 35123 net.cpp:408] conv5_2 -> conv5_2
I1219 16:50:16.642365 35123 net.cpp:150] Setting up conv5_2
I1219 16:50:16.642415 35123 net.cpp:157] Top shape: 16 512 5 4 (163840)
I1219 16:50:16.642421 35123 net.cpp:165] Memory required for data: 410665216
I1219 16:50:16.642433 35123 layer_factory.hpp:77] Creating layer relu5_2
I1219 16:50:16.642448 35123 net.cpp:100] Creating Layer relu5_2
I1219 16:50:16.642457 35123 net.cpp:434] relu5_2 <- conv5_2
I1219 16:50:16.642467 35123 net.cpp:395] relu5_2 -> conv5_2 (in-place)
I1219 16:50:16.642627 35123 net.cpp:150] Setting up relu5_2
I1219 16:50:16.642640 35123 net.cpp:157] Top shape: 16 512 5 4 (163840)
I1219 16:50:16.642647 35123 net.cpp:165] Memory required for data: 411320576
I1219 16:50:16.642653 35123 layer_factory.hpp:77] Creating layer res5_2
I1219 16:50:16.642666 35123 net.cpp:100] Creating Layer res5_2
I1219 16:50:16.642673 35123 net.cpp:434] res5_2 <- pool4_pool4_0_split_1
I1219 16:50:16.642680 35123 net.cpp:434] res5_2 <- conv5_2
I1219 16:50:16.642688 35123 net.cpp:408] res5_2 -> res5_2
I1219 16:50:16.642725 35123 net.cpp:150] Setting up res5_2
I1219 16:50:16.642735 35123 net.cpp:157] Top shape: 16 512 5 4 (163840)
I1219 16:50:16.642740 35123 net.cpp:165] Memory required for data: 411975936
I1219 16:50:16.642745 35123 layer_factory.hpp:77] Creating layer res5_2_res5_2_0_split
I1219 16:50:16.642753 35123 net.cpp:100] Creating Layer res5_2_res5_2_0_split
I1219 16:50:16.642760 35123 net.cpp:434] res5_2_res5_2_0_split <- res5_2
I1219 16:50:16.642768 35123 net.cpp:408] res5_2_res5_2_0_split -> res5_2_res5_2_0_split_0
I1219 16:50:16.642777 35123 net.cpp:408] res5_2_res5_2_0_split -> res5_2_res5_2_0_split_1
I1219 16:50:16.642832 35123 net.cpp:150] Setting up res5_2_res5_2_0_split
I1219 16:50:16.642840 35123 net.cpp:157] Top shape: 16 512 5 4 (163840)
I1219 16:50:16.642846 35123 net.cpp:157] Top shape: 16 512 5 4 (163840)
I1219 16:50:16.642851 35123 net.cpp:165] Memory required for data: 413286656
I1219 16:50:16.642858 35123 layer_factory.hpp:77] Creating layer conv5_3
I1219 16:50:16.642873 35123 net.cpp:100] Creating Layer conv5_3
I1219 16:50:16.642879 35123 net.cpp:434] conv5_3 <- res5_2_res5_2_0_split_0
I1219 16:50:16.642889 35123 net.cpp:408] conv5_3 -> conv5_3
I1219 16:50:16.754441 35123 net.cpp:150] Setting up conv5_3
I1219 16:50:16.754469 35123 net.cpp:157] Top shape: 16 512 5 4 (163840)
I1219 16:50:16.754477 35123 net.cpp:165] Memory required for data: 413942016
I1219 16:50:16.754488 35123 layer_factory.hpp:77] Creating layer relu5_3
I1219 16:50:16.754508 35123 net.cpp:100] Creating Layer relu5_3
I1219 16:50:16.754534 35123 net.cpp:434] relu5_3 <- conv5_3
I1219 16:50:16.754549 35123 net.cpp:395] relu5_3 -> conv5_3 (in-place)
I1219 16:50:16.754716 35123 net.cpp:150] Setting up relu5_3
I1219 16:50:16.754729 35123 net.cpp:157] Top shape: 16 512 5 4 (163840)
I1219 16:50:16.754734 35123 net.cpp:165] Memory required for data: 414597376
I1219 16:50:16.754742 35123 layer_factory.hpp:77] Creating layer conv5_4
I1219 16:50:16.754760 35123 net.cpp:100] Creating Layer conv5_4
I1219 16:50:16.754766 35123 net.cpp:434] conv5_4 <- conv5_3
I1219 16:50:16.754779 35123 net.cpp:408] conv5_4 -> conv5_4
I1219 16:50:16.844564 35123 net.cpp:150] Setting up conv5_4
I1219 16:50:16.844602 35123 net.cpp:157] Top shape: 16 512 5 4 (163840)
I1219 16:50:16.844609 35123 net.cpp:165] Memory required for data: 415252736
I1219 16:50:16.844621 35123 layer_factory.hpp:77] Creating layer relu5_4
I1219 16:50:16.844633 35123 net.cpp:100] Creating Layer relu5_4
I1219 16:50:16.844642 35123 net.cpp:434] relu5_4 <- conv5_4
I1219 16:50:16.844655 35123 net.cpp:395] relu5_4 -> conv5_4 (in-place)
I1219 16:50:16.844805 35123 net.cpp:150] Setting up relu5_4
I1219 16:50:16.844815 35123 net.cpp:157] Top shape: 16 512 5 4 (163840)
I1219 16:50:16.844820 35123 net.cpp:165] Memory required for data: 415908096
I1219 16:50:16.844827 35123 layer_factory.hpp:77] Creating layer res5_4
I1219 16:50:16.844841 35123 net.cpp:100] Creating Layer res5_4
I1219 16:50:16.844848 35123 net.cpp:434] res5_4 <- res5_2_res5_2_0_split_1
I1219 16:50:16.844856 35123 net.cpp:434] res5_4 <- conv5_4
I1219 16:50:16.844863 35123 net.cpp:408] res5_4 -> res5_4
I1219 16:50:16.844899 35123 net.cpp:150] Setting up res5_4
I1219 16:50:16.844908 35123 net.cpp:157] Top shape: 16 512 5 4 (163840)
I1219 16:50:16.844913 35123 net.cpp:165] Memory required for data: 416563456
I1219 16:50:16.844918 35123 layer_factory.hpp:77] Creating layer res5_4_res5_4_0_split
I1219 16:50:16.844928 35123 net.cpp:100] Creating Layer res5_4_res5_4_0_split
I1219 16:50:16.844934 35123 net.cpp:434] res5_4_res5_4_0_split <- res5_4
I1219 16:50:16.844944 35123 net.cpp:408] res5_4_res5_4_0_split -> res5_4_res5_4_0_split_0
I1219 16:50:16.844966 35123 net.cpp:408] res5_4_res5_4_0_split -> res5_4_res5_4_0_split_1
I1219 16:50:16.845013 35123 net.cpp:150] Setting up res5_4_res5_4_0_split
I1219 16:50:16.845023 35123 net.cpp:157] Top shape: 16 512 5 4 (163840)
I1219 16:50:16.845029 35123 net.cpp:157] Top shape: 16 512 5 4 (163840)
I1219 16:50:16.845034 35123 net.cpp:165] Memory required for data: 417874176
I1219 16:50:16.845039 35123 layer_factory.hpp:77] Creating layer conv5_5
I1219 16:50:16.845060 35123 net.cpp:100] Creating Layer conv5_5
I1219 16:50:16.845072 35123 net.cpp:434] conv5_5 <- res5_4_res5_4_0_split_0
I1219 16:50:16.845082 35123 net.cpp:408] conv5_5 -> conv5_5
I1219 16:50:16.929785 35123 net.cpp:150] Setting up conv5_5
I1219 16:50:16.929806 35123 net.cpp:157] Top shape: 16 512 5 4 (163840)
I1219 16:50:16.929812 35123 net.cpp:165] Memory required for data: 418529536
I1219 16:50:16.929822 35123 layer_factory.hpp:77] Creating layer relu5_5
I1219 16:50:16.929834 35123 net.cpp:100] Creating Layer relu5_5
I1219 16:50:16.929841 35123 net.cpp:434] relu5_5 <- conv5_5
I1219 16:50:16.929848 35123 net.cpp:395] relu5_5 -> conv5_5 (in-place)
I1219 16:50:16.929987 35123 net.cpp:150] Setting up relu5_5
I1219 16:50:16.929997 35123 net.cpp:157] Top shape: 16 512 5 4 (163840)
I1219 16:50:16.930002 35123 net.cpp:165] Memory required for data: 419184896
I1219 16:50:16.930011 35123 layer_factory.hpp:77] Creating layer conv5_6
I1219 16:50:16.930027 35123 net.cpp:100] Creating Layer conv5_6
I1219 16:50:16.930033 35123 net.cpp:434] conv5_6 <- conv5_5
I1219 16:50:16.930042 35123 net.cpp:408] conv5_6 -> conv5_6
I1219 16:50:17.052700 35123 net.cpp:150] Setting up conv5_6
I1219 16:50:17.052772 35123 net.cpp:157] Top shape: 16 512 5 4 (163840)
I1219 16:50:17.052780 35123 net.cpp:165] Memory required for data: 419840256
I1219 16:50:17.052793 35123 layer_factory.hpp:77] Creating layer relu5_6
I1219 16:50:17.052817 35123 net.cpp:100] Creating Layer relu5_6
I1219 16:50:17.052891 35123 net.cpp:434] relu5_6 <- conv5_6
I1219 16:50:17.052914 35123 net.cpp:395] relu5_6 -> conv5_6 (in-place)
I1219 16:50:17.053119 35123 net.cpp:150] Setting up relu5_6
I1219 16:50:17.053135 35123 net.cpp:157] Top shape: 16 512 5 4 (163840)
I1219 16:50:17.053141 35123 net.cpp:165] Memory required for data: 420495616
I1219 16:50:17.053148 35123 layer_factory.hpp:77] Creating layer res5_6
I1219 16:50:17.053159 35123 net.cpp:100] Creating Layer res5_6
I1219 16:50:17.053167 35123 net.cpp:434] res5_6 <- res5_4_res5_4_0_split_1
I1219 16:50:17.053174 35123 net.cpp:434] res5_6 <- conv5_6
I1219 16:50:17.053184 35123 net.cpp:408] res5_6 -> res5_6
I1219 16:50:17.053217 35123 net.cpp:150] Setting up res5_6
I1219 16:50:17.053226 35123 net.cpp:157] Top shape: 16 512 5 4 (163840)
I1219 16:50:17.053231 35123 net.cpp:165] Memory required for data: 421150976
I1219 16:50:17.053236 35123 layer_factory.hpp:77] Creating layer fc5
I1219 16:50:17.053259 35123 net.cpp:100] Creating Layer fc5
I1219 16:50:17.053264 35123 net.cpp:434] fc5 <- res5_6
I1219 16:50:17.053297 35123 net.cpp:408] fc5 -> fc5
I1219 16:50:17.107741 35123 net.cpp:150] Setting up fc5
I1219 16:50:17.107791 35123 net.cpp:157] Top shape: 16 512 (8192)
I1219 16:50:17.107798 35123 net.cpp:165] Memory required for data: 421183744
I1219 16:50:17.107831 35123 layer_factory.hpp:77] Creating layer fc5_fc5_0_split
I1219 16:50:17.107849 35123 net.cpp:100] Creating Layer fc5_fc5_0_split
I1219 16:50:17.107867 35123 net.cpp:434] fc5_fc5_0_split <- fc5
I1219 16:50:17.107880 35123 net.cpp:408] fc5_fc5_0_split -> fc5_fc5_0_split_0
I1219 16:50:17.107893 35123 net.cpp:408] fc5_fc5_0_split -> fc5_fc5_0_split_1
I1219 16:50:17.107992 35123 net.cpp:150] Setting up fc5_fc5_0_split
I1219 16:50:17.108006 35123 net.cpp:157] Top shape: 16 512 (8192)
I1219 16:50:17.108013 35123 net.cpp:157] Top shape: 16 512 (8192)
I1219 16:50:17.108019 35123 net.cpp:165] Memory required for data: 421249280
I1219 16:50:17.108024 35123 layer_factory.hpp:77] Creating layer fc6
I1219 16:50:17.108036 35123 net.cpp:100] Creating Layer fc6
I1219 16:50:17.108042 35123 net.cpp:434] fc6 <- fc5_fc5_0_split_0
I1219 16:50:17.108052 35123 net.cpp:408] fc6 -> fc6
I1219 16:50:17.339423 35123 net.cpp:150] Setting up fc6
I1219 16:50:17.339501 35123 net.cpp:157] Top shape: 16 43074 (689184)
I1219 16:50:17.339509 35123 net.cpp:165] Memory required for data: 424006016
I1219 16:50:17.339548 35123 layer_factory.hpp:77] Creating layer fc6_fc6_0_split
I1219 16:50:17.339574 35123 net.cpp:100] Creating Layer fc6_fc6_0_split
I1219 16:50:17.339597 35123 net.cpp:434] fc6_fc6_0_split <- fc6
I1219 16:50:17.339609 35123 net.cpp:408] fc6_fc6_0_split -> fc6_fc6_0_split_0
I1219 16:50:17.339628 35123 net.cpp:408] fc6_fc6_0_split -> fc6_fc6_0_split_1
I1219 16:50:17.339735 35123 net.cpp:150] Setting up fc6_fc6_0_split
I1219 16:50:17.339745 35123 net.cpp:157] Top shape: 16 43074 (689184)
I1219 16:50:17.339751 35123 net.cpp:157] Top shape: 16 43074 (689184)
I1219 16:50:17.339756 35123 net.cpp:165] Memory required for data: 429519488
I1219 16:50:17.339761 35123 layer_factory.hpp:77] Creating layer softmax
I1219 16:50:17.339774 35123 net.cpp:100] Creating Layer softmax
I1219 16:50:17.339781 35123 net.cpp:434] softmax <- fc6_fc6_0_split_0
I1219 16:50:17.339795 35123 net.cpp:408] softmax -> prob
I1219 16:50:17.339994 35123 net.cpp:150] Setting up softmax
I1219 16:50:17.340006 35123 net.cpp:157] Top shape: 16 43074 (689184)
I1219 16:50:17.340013 35123 net.cpp:165] Memory required for data: 432276224
I1219 16:50:17.340018 35123 layer_factory.hpp:77] Creating layer accuracy
I1219 16:50:17.340030 35123 net.cpp:100] Creating Layer accuracy
I1219 16:50:17.340036 35123 net.cpp:434] accuracy <- prob
I1219 16:50:17.340044 35123 net.cpp:434] accuracy <- label_data_1_split_0
I1219 16:50:17.340060 35123 net.cpp:408] accuracy -> accuracy
…
