…
I1219 11:39:31.647099   397 net.cpp:322] The NetState phase (0) differed from the phase (1) specified by a rule in layer data
I1219 11:39:31.647917   397 net.cpp:58] Initializing net from parameters: 
name: "Face-ResNet"
state {
  phase: TRAIN
  level: 0
  stage: ""
}
layer {
  name: "data"
  type: "Data"
  top: "data"
  top: "label"
  include {
    phase: TRAIN
  }
  transform_param {
    scale: 0.0078125
    mirror: true
    mean_value: 127.5
    mean_value: 127.5
    mean_value: 127.5
  }
  data_param {
    source: "/home/licheng/face_data/face_lmdb_data/train_lmdb"
    batch_size: 32
    backend: LMDB
  }
}
layer {
  name: "conv1a"
  type: "Convolution"
  bottom: "data"
  top: "conv1a"
  param {
    lr_mult: 1
    decay_mult: 1
  }
  param {
    lr_mult: 2
    decay_mult: 0
  }
  convolution_param {
    num_output: 32
    kernel_size: 3
    stride: 1
    weight_filler {
      type: "xavier"
    }
    bias_filler {
      type: "constant"
      value: 0
    }
  }
}
layer {
  name: "relu1a"
  type: "PReLU"
  bottom: "conv1a"
  top: "conv1a"
}
layer {
  name: "conv1b"
  type: "Convolution"
  bottom: "conv1a"
  top: "conv1b"
  param {
    lr_mult: 1
    decay_mult: 1
  }
  param {
    lr_mult: 2
    decay_mult: 0
  }
  convolution_param {
    num_output: 64
    kernel_size: 3
    stride: 1
    weight_filler {
      type: "xavier"
    }
    bias_filler {
      type: "constant"
      value: 0
    }
  }
}
layer {
  name: "relu1b"
  type: "PReLU"
  bottom: "conv1b"
  top: "conv1b"
}
layer {
  name: "pool1b"
  type: "Pooling"
  bottom: "conv1b"
  top: "pool1b"
  pooling_param {
    pool: MAX
    kernel_size: 2
    stride: 2
  }
}
layer {
  name: "conv2_1"
  type: "Convolution"
  bottom: "pool1b"
  top: "conv2_1"
  param {
    lr_mult: 1
    decay_mult: 1
  }
  param {
    lr_mult: 2
    decay_mult: 0
  }
  convolution_param {
    num_output: 64
    pad: 1
    kernel_size: 3
    stride: 1
    weight_filler {
      type: "gaussian"
      std: 0.01
    }
    bias_filler {
      type: "constant"
      value: 0
    }
  }
}
layer {
  name: "relu2_1"
  type: "PReLU"
  bottom: "conv2_1"
  top: "conv2_1"
}
layer {
  name: "conv2_2"
  type: "Convolution"
  bottom: "conv2_1"
  top: "conv2_2"
  param {
    lr_mult: 1
    decay_mult: 1
  }
  param {
    lr_mult: 2
    decay_mult: 0
  }
  convolution_param {
    num_output: 64
    pad: 1
    kernel_size: 3
    stride: 1
    weight_filler {
      type: "gaussian"
      std: 0.01
    }
    bias_filler {
      type: "constant"
      value: 0
    }
  }
}
layer {
  name: "relu2_2"
  type: "PReLU"
  bottom: "conv2_2"
  top: "conv2_2"
}
layer {
  name: "res2_2"
  type: "Eltwise"
  bottom: "pool1b"
  bottom: "conv2_2"
  top: "res2_2"
  eltwise_param {
    operation: SUM
  }
}
layer {
  name: "conv2"
  type: "Convolution"
  bottom: "res2_2"
  top: "conv2"
  param {
    lr_mult: 1
    decay_mult: 1
  }
  param {
    lr_mult: 2
    decay_mult: 0
  }
  convolution_param {
    num_output: 128
    kernel_size: 3
    stride: 1
    weight_filler {
      type: "xavier"
    }
    bias_filler {
      type: "constant"
      value: 0
    }
  }
}
layer {
  name: "relu2"
  type: "PReLU"
  bottom: "conv2"
  top: "conv2"
}
layer {
  name: "pool2"
  type: "Pooling"
  bottom: "conv2"
  top: "pool2"
  pooling_param {
    pool: MAX
    kernel_size: 2
    stride: 2
  }
}
layer {
  name: "conv3_1"
  type: "Convolution"
  bottom: "pool2"
  top: "conv3_1"
  param {
    lr_mult: 1
    decay_mult: 1
  }
  param {
    lr_mult: 2
    decay_mult: 0
  }
  convolution_param {
    num_output: 128
    pad: 1
    kernel_size: 3
    stride: 1
    weight_filler {
      type: "gaussian"
      std: 0.01
    }
    bias_filler {
      type: "constant"
      value: 0
    }
  }
}
layer {
  name: "relu3_1"
  type: "PReLU"
  bottom: "conv3_1"
  top: "conv3_1"
}
layer {
  name: "conv3_2"
  type: "Convolution"
  bottom: "conv3_1"
  top: "conv3_2"
  param {
    lr_mult: 1
    decay_mult: 1
  }
  param {
    lr_mult: 2
    decay_mult: 0
  }
  convolution_param {
    num_output: 128
    pad: 1
    kernel_size: 3
    stride: 1
    weight_filler {
      type: "gaussian"
      std: 0.01
    }
    bias_filler {
      type: "constant"
      value: 0
    }
  }
}
layer {
  name: "relu3_2"
  type: "PReLU"
  bottom: "conv3_2"
  top: "conv3_2"
}
layer {
  name: "res3_2"
  type: "Eltwise"
  bottom: "pool2"
  bottom: "conv3_2"
  top: "res3_2"
  eltwise_param {
    operation: SUM
  }
}
layer {
  name: "conv3_3"
  type: "Convolution"
  bottom: "res3_2"
  top: "conv3_3"
  param {
    lr_mult: 1
    decay_mult: 1
  }
  param {
    lr_mult: 2
    decay_mult: 0
  }
  convolution_param {
    num_output: 128
    pad: 1
    kernel_size: 3
    stride: 1
    weight_filler {
      type: "gaussian"
      std: 0.01
    }
    bias_filler {
      type: "constant"
      value: 0
    }
  }
}
layer {
  name: "relu3_3"
  type: "PReLU"
  bottom: "conv3_3"
  top: "conv3_3"
}
layer {
  name: "conv3_4"
  type: "Convolution"
  bottom: "conv3_3"
  top: "conv3_4"
  param {
    lr_mult: 1
    decay_mult: 1
  }
  param {
    lr_mult: 2
    decay_mult: 0
  }
  convolution_param {
    num_output: 128
    pad: 1
    kernel_size: 3
    stride: 1
    weight_filler {
      type: "gaussian"
      std: 0.01
    }
    bias_filler {
      type: "constant"
      value: 0
    }
  }
}
layer {
  name: "relu3_4"
  type: "PReLU"
  bottom: "conv3_4"
  top: "conv3_4"
}
layer {
  name: "res3_4"
  type: "Eltwise"
  bottom: "res3_2"
  bottom: "conv3_4"
  top: "res3_4"
  eltwise_param {
    operation: SUM
  }
}
layer {
  name: "conv3"
  type: "Convolution"
  bottom: "res3_4"
  top: "conv3"
  param {
    lr_mult: 1
    decay_mult: 1
  }
  param {
    lr_mult: 2
    decay_mult: 0
  }
  convolution_param {
    num_output: 256
    kernel_size: 3
    stride: 1
    weight_filler {
      type: "xavier"
    }
    bias_filler {
      type: "constant"
      value: 0
    }
  }
}
layer {
  name: "relu3"
  type: "PReLU"
  bottom: "conv3"
  top: "conv3"
}
layer {
  name: "pool3"
  type: "Pooling"
  bottom: "conv3"
  top: "pool3"
  pooling_param {
    pool: MAX
    kernel_size: 2
    stride: 2
  }
}
layer {
  name: "conv4_1"
  type: "Convolution"
  bottom: "pool3"
  top: "conv4_1"
  param {
    lr_mult: 1
    decay_mult: 1
  }
  param {
    lr_mult: 2
    decay_mult: 0
  }
  convolution_param {
    num_output: 256
    pad: 1
    kernel_size: 3
    stride: 1
    weight_filler {
      type: "gaussian"
      std: 0.01
    }
    bias_filler {
      type: "constant"
      value: 0
    }
  }
}
layer {
  name: "relu4_1"
  type: "PReLU"
  bottom: "conv4_1"
  top: "conv4_1"
}
layer {
  name: "conv4_2"
  type: "Convolution"
  bottom: "conv4_1"
  top: "conv4_2"
  param {
    lr_mult: 1
    decay_mult: 1
  }
  param {
    lr_mult: 2
    decay_mult: 0
  }
  convolution_param {
    num_output: 256
    pad: 1
    kernel_size: 3
    stride: 1
    weight_filler {
      type: "gaussian"
      std: 0.01
    }
    bias_filler {
      type: "constant"
      value: 0
    }
  }
}
layer {
  name: "relu4_2"
  type: "PReLU"
  bottom: "conv4_2"
  top: "conv4_2"
}
layer {
  name: "res4_2"
  type: "Eltwise"
  bottom: "pool3"
  bottom: "conv4_2"
  top: "res4_2"
  eltwise_param {
    operation: SUM
  }
}
layer {
  name: "conv4_3"
  type: "Convolution"
  bottom: "res4_2"
  top: "conv4_3"
  param {
    lr_mult: 1
    decay_mult: 1
  }
  param {
    lr_mult: 2
    decay_mult: 0
  }
  convolution_param {
    num_output: 256
    pad: 1
    kernel_size: 3
    stride: 1
    weight_filler {
      type: "gaussian"
      std: 0.01
    }
    bias_filler {
      type: "constant"
      value: 0
    }
  }
}
layer {
  name: "relu4_3"
  type: "PReLU"
  bottom: "conv4_3"
  top: "conv4_3"
}
layer {
  name: "conv4_4"
  type: "Convolution"
  bottom: "conv4_3"
  top: "conv4_4"
  param {
    lr_mult: 1
    decay_mult: 1
  }
  param {
    lr_mult: 2
    decay_mult: 0
  }
  convolution_param {
    num_output: 256
    pad: 1
    kernel_size: 3
    stride: 1
    weight_filler {
      type: "gaussian"
      std: 0.01
    }
    bias_filler {
      type: "constant"
      value: 0
    }
  }
}
layer {
  name: "relu4_4"
  type: "PReLU"
  bottom: "conv4_4"
  top: "conv4_4"
}
layer {
  name: "res4_4"
  type: "Eltwise"
  bottom: "res4_2"
  bottom: "conv4_4"
  top: "res4_4"
  eltwise_param {
    operation: SUM
  }
}
layer {
  name: "conv4_5"
  type: "Convolution"
  bottom: "res4_4"
  top: "conv4_5"
  param {
    lr_mult: 1
    decay_mult: 1
  }
  param {
    lr_mult: 2
    decay_mult: 0
  }
  convolution_param {
    num_output: 256
    pad: 1
    kernel_size: 3
    stride: 1
    weight_filler {
      type: "gaussian"
      std: 0.01
    }
    bias_filler {
      type: "constant"
      value: 0
    }
  }
}
layer {
  name: "relu4_5"
  type: "PReLU"
  bottom: "conv4_5"
  top: "conv4_5"
}
layer {
  name: "conv4_6"
  type: "Convolution"
  bottom: "conv4_5"
  top: "conv4_6"
  param {
    lr_mult: 1
    decay_mult: 1
  }
  param {
    lr_mult: 2
    decay_mult: 0
  }
  convolution_param {
    num_output: 256
    pad: 1
    kernel_size: 3
    stride: 1
    weight_filler {
      type: "gaussian"
      std: 0.01
    }
    bias_filler {
      type: "constant"
      value: 0
    }
  }
}
layer {
  name: "relu4_6"
  type: "PReLU"
  bottom: "conv4_6"
  top: "conv4_6"
}
layer {
  name: "res4_6"
  type: "Eltwise"
  bottom: "res4_4"
  bottom: "conv4_6"
  top: "res4_6"
  eltwise_param {
    operation: SUM
  }
}
layer {
  name: "conv4_7"
  type: "Convolution"
  bottom: "res4_6"
  top: "conv4_7"
  param {
    lr_mult: 1
    decay_mult: 1
  }
  param {
    lr_mult: 2
    decay_mult: 0
  }
  convolution_param {
    num_output: 256
    pad: 1
    kernel_size: 3
    stride: 1
    weight_filler {
      type: "gaussian"
      std: 0.01
    }
    bias_filler {
      type: "constant"
      value: 0
    }
  }
}
layer {
  name: "relu4_7"
  type: "PReLU"
  bottom: "conv4_7"
  top: "conv4_7"
}
layer {
  name: "conv4_8"
  type: "Convolution"
  bottom: "conv4_7"
  top: "conv4_8"
  param {
    lr_mult: 1
    decay_mult: 1
  }
  param {
    lr_mult: 2
    decay_mult: 0
  }
  convolution_param {
    num_output: 256
    pad: 1
    kernel_size: 3
    stride: 1
    weight_filler {
      type: "gaussian"
      std: 0.01
    }
    bias_filler {
      type: "constant"
      value: 0
    }
  }
}
layer {
  name: "relu4_8"
  type: "PReLU"
  bottom: "conv4_8"
  top: "conv4_8"
}
layer {
  name: "res4_8"
  type: "Eltwise"
  bottom: "res4_6"
  bottom: "conv4_8"
  top: "res4_8"
  eltwise_param {
    operation: SUM
  }
}
layer {
  name: "conv4_9"
  type: "Convolution"
  bottom: "res4_8"
  top: "conv4_9"
  param {
    lr_mult: 1
    decay_mult: 1
  }
  param {
    lr_mult: 2
    decay_mult: 0
  }
  convolution_param {
    num_output: 256
    pad: 1
    kernel_size: 3
    stride: 1
    weight_filler {
      type: "gaussian"
      std: 0.01
    }
    bias_filler {
      type: "constant"
      value: 0
    }
  }
}
layer {
  name: "relu4_9"
  type: "PReLU"
  bottom: "conv4_9"
  top: "conv4_9"
}
layer {
  name: "conv4_10"
  type: "Convolution"
  bottom: "conv4_9"
  top: "conv4_10"
  param {
    lr_mult: 1
    decay_mult: 1
  }
  param {
    lr_mult: 2
    decay_mult: 0
  }
  convolution_param {
    num_output: 256
    pad: 1
    kernel_size: 3
    stride: 1
    weight_filler {
      type: "gaussian"
      std: 0.01
    }
    bias_filler {
      type: "constant"
      value: 0
    }
  }
}
layer {
  name: "relu4_10"
  type: "PReLU"
  bottom: "conv4_10"
  top: "conv4_10"
}
layer {
  name: "res4_10"
  type: "Eltwise"
  bottom: "res4_8"
  bottom: "conv4_10"
  top: "res4_10"
  eltwise_param {
    operation: SUM
  }
}
layer {
  name: "conv4"
  type: "Convolution"
  bottom: "res4_10"
  top: "conv4"
  param {
    lr_mult: 1
    decay_mult: 1
  }
  param {
    lr_mult: 2
    decay_mult: 0
  }
  convolution_param {
    num_output: 512
    kernel_size: 3
    stride: 1
    weight_filler {
      type: "xavier"
    }
    bias_filler {
      type: "constant"
      value: 0
    }
  }
}
layer {
  name: "relu4"
  type: "PReLU"
  bottom: "conv4"
  top: "conv4"
}
layer {
  name: "pool4"
  type: "Pooling"
  bottom: "conv4"
  top: "pool4"
  pooling_param {
    pool: MAX
    kernel_size: 2
    stride: 2
  }
}
layer {
  name: "conv5_1"
  type: "Convolution"
  bottom: "pool4"
  top: "conv5_1"
  param {
    lr_mult: 1
    decay_mult: 1
  }
  param {
    lr_mult: 2
    decay_mult: 0
  }
  convolution_param {
    num_output: 512
    pad: 1
    kernel_size: 3
    stride: 1
    weight_filler {
      type: "gaussian"
      std: 0.01
    }
    bias_filler {
      type: "constant"
      value: 0
    }
  }
}
layer {
  name: "relu5_1"
  type: "PReLU"
  bottom: "conv5_1"
  top: "conv5_1"
}
layer {
  name: "conv5_2"
  type: "Convolution"
  bottom: "conv5_1"
  top: "conv5_2"
  param {
    lr_mult: 1
    decay_mult: 1
  }
  param {
    lr_mult: 2
    decay_mult: 0
  }
  convolution_param {
    num_output: 512
    pad: 1
    kernel_size: 3
    stride: 1
    weight_filler {
      type: "gaussian"
      std: 0.01
    }
    bias_filler {
      type: "constant"
      value: 0
    }
  }
}
layer {
  name: "relu5_2"
  type: "PReLU"
  bottom: "conv5_2"
  top: "conv5_2"
}
layer {
  name: "res5_2"
  type: "Eltwise"
  bottom: "pool4"
  bottom: "conv5_2"
  top: "res5_2"
  eltwise_param {
    operation: SUM
  }
}
layer {
  name: "conv5_3"
  type: "Convolution"
  bottom: "res5_2"
  top: "conv5_3"
  param {
    lr_mult: 1
    decay_mult: 1
  }
  param {
    lr_mult: 2
    decay_mult: 0
  }
  convolution_param {
    num_output: 512
    pad: 1
    kernel_size: 3
    stride: 1
    weight_filler {
      type: "gaussian"
      std: 0.01
    }
    bias_filler {
      type: "constant"
      value: 0
    }
  }
}
layer {
  name: "relu5_3"
  type: "PReLU"
  bottom: "conv5_3"
  top: "conv5_3"
}
layer {
  name: "conv5_4"
  type: "Convolution"
  bottom: "conv5_3"
  top: "conv5_4"
  param {
    lr_mult: 1
    decay_mult: 1
  }
  param {
    lr_mult: 2
    decay_mult: 0
  }
  convolution_param {
    num_output: 512
    pad: 1
    kernel_size: 3
    stride: 1
    weight_filler {
      type: "gaussian"
      std: 0.01
    }
    bias_filler {
      type: "constant"
      value: 0
    }
  }
}
layer {
  name: "relu5_4"
  type: "PReLU"
  bottom: "conv5_4"
  top: "conv5_4"
}
layer {
  name: "res5_4"
  type: "Eltwise"
  bottom: "res5_2"
  bottom: "conv5_4"
  top: "res5_4"
  eltwise_param {
    operation: SUM
  }
}
layer {
  name: "conv5_5"
  type: "Convolution"
  bottom: "res5_4"
  top: "conv5_5"
  param {
    lr_mult: 1
    decay_mult: 1
  }
  param {
    lr_mult: 2
    decay_mult: 0
  }
  convolution_param {
    num_output: 512
    pad: 1
    kernel_size: 3
    stride: 1
    weight_filler {
      type: "gaussian"
      std: 0.01
    }
    bias_filler {
      type: "constant"
      value: 0
    }
  }
}
layer {
  name: "relu5_5"
  type: "PReLU"
  bottom: "conv5_5"
  top: "conv5_5"
}
layer {
  name: "conv5_6"
  type: "Convolution"
  bottom: "conv5_5"
  top: "conv5_6"
  param {
    lr_mult: 1
    decay_mult: 1
  }
  param {
    lr_mult: 2
    decay_mult: 0
  }
  convolution_param {
    num_output: 512
    pad: 1
    kernel_size: 3
    stride: 1
    weight_filler {
      type: "gaussian"
      std: 0.01
    }
    bias_filler {
      type: "constant"
      value: 0
    }
  }
}
layer {
  name: "relu5_6"
  type: "PReLU"
  bottom: "conv5_6"
  top: "conv5_6"
}
layer {
  name: "res5_6"
  type: "Eltwise"
  bottom: "res5_4"
  bottom: "conv5_6"
  top: "res5_6"
  eltwise_param {
    operation: SUM
  }
}
layer {
  name: "fc5"
  type: "InnerProduct"
  bottom: "res5_6"
  top: "fc5"
  param {
    lr_mult: 1
    decay_mult: 1
  }
  param {
    lr_mult: 2
    decay_mult: 0
  }
  inner_product_param {
    num_output: 512
    weight_filler {
      type: "xavier"
    }
    bias_filler {
      type: "constant"
      value: 0
    }
  }
}
layer {
  name: "fc6"
  type: "InnerProduct"
  bottom: "fc5"
  top: "fc6"
  param {
    lr_mult: 1
    decay_mult: 1
  }
  param {
    lr_mult: 2
    decay_mult: 0
  }
  inner_product_param {
    num_output: 43074
    weight_filler {
      type: "xavier"
    }
    bias_filler {
      type: "constant"
      value: 0
    }
  }
}
layer {
  name: "softmax"
  type: "Softmax"
  bottom: "fc6"
  top: "prob"
}
layer {
  name: "accuracy"
  type: "Accuracy"
  bottom: "prob"
  bottom: "label"
  top: "accuracy"
}
layer {
  name: "softmax_loss"
  type: "SoftmaxWithLoss"
  bottom: "fc6"
  bottom: "label"
  top: "softmax_loss"
}
I1219 11:39:31.648614   397 layer_factory.hpp:77] Creating layer data
I1219 11:39:31.649451   397 net.cpp:100] Creating Layer data
I1219 11:39:31.649479   397 net.cpp:408] data -> data
I1219 11:39:31.649526   397 net.cpp:408] data -> label
I1219 11:39:31.653249   426 db_lmdb.cpp:35] Opened lmdb /home/licheng/face_data/face_lmdb_data/train_lmdb
I1219 11:39:31.679821   397 data_layer.cpp:41] output data size: 32,3,112,96
I1219 11:39:31.695452   397 net.cpp:150] Setting up data
I1219 11:39:31.695525   397 net.cpp:157] Top shape: 32 3 112 96 (1032192)
I1219 11:39:31.695539   397 net.cpp:157] Top shape: 32 (32)
I1219 11:39:31.695546   397 net.cpp:165] Memory required for data: 4128896
I1219 11:39:31.695561   397 layer_factory.hpp:77] Creating layer label_data_1_split
I1219 11:39:31.695581   397 net.cpp:100] Creating Layer label_data_1_split
I1219 11:39:31.695591   397 net.cpp:434] label_data_1_split <- label
I1219 11:39:31.695611   397 net.cpp:408] label_data_1_split -> label_data_1_split_0
I1219 11:39:31.695626   397 net.cpp:408] label_data_1_split -> label_data_1_split_1
I1219 11:39:31.695811   397 net.cpp:150] Setting up label_data_1_split
I1219 11:39:31.695824   397 net.cpp:157] Top shape: 32 (32)
I1219 11:39:31.695832   397 net.cpp:157] Top shape: 32 (32)
I1219 11:39:31.695838   397 net.cpp:165] Memory required for data: 4129152
I1219 11:39:31.695845   397 layer_factory.hpp:77] Creating layer conv1a
I1219 11:39:31.695876   397 net.cpp:100] Creating Layer conv1a
I1219 11:39:31.695884   397 net.cpp:434] conv1a <- data
I1219 11:39:31.695894   397 net.cpp:408] conv1a -> conv1a
I1219 11:39:31.700100   397 net.cpp:150] Setting up conv1a
I1219 11:39:31.700126   397 net.cpp:157] Top shape: 32 32 110 94 (10588160)
I1219 11:39:31.700134   397 net.cpp:165] Memory required for data: 46481792
I1219 11:39:31.700157   397 layer_factory.hpp:77] Creating layer relu1a
I1219 11:39:31.700170   397 net.cpp:100] Creating Layer relu1a
I1219 11:39:31.700176   397 net.cpp:434] relu1a <- conv1a
I1219 11:39:31.700186   397 net.cpp:395] relu1a -> conv1a (in-place)
I1219 11:39:31.702615   397 net.cpp:150] Setting up relu1a
I1219 11:39:31.702639   397 net.cpp:157] Top shape: 32 32 110 94 (10588160)
I1219 11:39:31.702657   397 net.cpp:165] Memory required for data: 88834432
I1219 11:39:31.702672   397 layer_factory.hpp:77] Creating layer conv1b
I1219 11:39:31.702688   397 net.cpp:100] Creating Layer conv1b
I1219 11:39:31.702697   397 net.cpp:434] conv1b <- conv1a
I1219 11:39:31.702706   397 net.cpp:408] conv1b -> conv1b
I1219 11:39:31.702932   431 blocking_queue.cpp:50] Waiting for data
I1219 11:39:31.704835   397 net.cpp:150] Setting up conv1b
I1219 11:39:31.704859   397 net.cpp:157] Top shape: 32 64 108 92 (20348928)
I1219 11:39:31.704866   397 net.cpp:165] Memory required for data: 170230144
I1219 11:39:31.704879   397 layer_factory.hpp:77] Creating layer relu1b
I1219 11:39:31.704890   397 net.cpp:100] Creating Layer relu1b
I1219 11:39:31.704896   397 net.cpp:434] relu1b <- conv1b
I1219 11:39:31.704913   397 net.cpp:395] relu1b -> conv1b (in-place)
I1219 11:39:31.707608   397 net.cpp:150] Setting up relu1b
I1219 11:39:31.707630   397 net.cpp:157] Top shape: 32 64 108 92 (20348928)
I1219 11:39:31.707638   397 net.cpp:165] Memory required for data: 251625856
I1219 11:39:31.707646   397 layer_factory.hpp:77] Creating layer pool1b
I1219 11:39:31.707662   397 net.cpp:100] Creating Layer pool1b
I1219 11:39:31.707670   397 net.cpp:434] pool1b <- conv1b
I1219 11:39:31.707679   397 net.cpp:408] pool1b -> pool1b
I1219 11:39:31.707737   397 net.cpp:150] Setting up pool1b
I1219 11:39:31.707747   397 net.cpp:157] Top shape: 32 64 54 46 (5087232)
I1219 11:39:31.707753   397 net.cpp:165] Memory required for data: 271974784
I1219 11:39:31.707759   397 layer_factory.hpp:77] Creating layer pool1b_pool1b_0_split
I1219 11:39:31.707767   397 net.cpp:100] Creating Layer pool1b_pool1b_0_split
I1219 11:39:31.707773   397 net.cpp:434] pool1b_pool1b_0_split <- pool1b
I1219 11:39:31.707782   397 net.cpp:408] pool1b_pool1b_0_split -> pool1b_pool1b_0_split_0
I1219 11:39:31.707790   397 net.cpp:408] pool1b_pool1b_0_split -> pool1b_pool1b_0_split_1
I1219 11:39:31.707828   397 net.cpp:150] Setting up pool1b_pool1b_0_split
I1219 11:39:31.707836   397 net.cpp:157] Top shape: 32 64 54 46 (5087232)
I1219 11:39:31.707844   397 net.cpp:157] Top shape: 32 64 54 46 (5087232)
I1219 11:39:31.707849   397 net.cpp:165] Memory required for data: 312672640
I1219 11:39:31.707854   397 layer_factory.hpp:77] Creating layer conv2_1
I1219 11:39:31.707870   397 net.cpp:100] Creating Layer conv2_1
I1219 11:39:31.707875   397 net.cpp:434] conv2_1 <- pool1b_pool1b_0_split_0
I1219 11:39:31.707885   397 net.cpp:408] conv2_1 -> conv2_1
I1219 11:39:31.713112   397 net.cpp:150] Setting up conv2_1
I1219 11:39:31.713138   397 net.cpp:157] Top shape: 32 64 54 46 (5087232)
I1219 11:39:31.713145   397 net.cpp:165] Memory required for data: 333021568
I1219 11:39:31.713157   397 layer_factory.hpp:77] Creating layer relu2_1
I1219 11:39:31.713167   397 net.cpp:100] Creating Layer relu2_1
I1219 11:39:31.713174   397 net.cpp:434] relu2_1 <- conv2_1
I1219 11:39:31.713183   397 net.cpp:395] relu2_1 -> conv2_1 (in-place)
I1219 11:39:31.713421   397 net.cpp:150] Setting up relu2_1
I1219 11:39:31.713433   397 net.cpp:157] Top shape: 32 64 54 46 (5087232)
I1219 11:39:31.713439   397 net.cpp:165] Memory required for data: 353370496
I1219 11:39:31.713451   397 layer_factory.hpp:77] Creating layer conv2_2
I1219 11:39:31.713465   397 net.cpp:100] Creating Layer conv2_2
I1219 11:39:31.713472   397 net.cpp:434] conv2_2 <- conv2_1
I1219 11:39:31.713481   397 net.cpp:408] conv2_2 -> conv2_2
I1219 11:39:31.714998   397 net.cpp:150] Setting up conv2_2
I1219 11:39:31.715011   397 net.cpp:157] Top shape: 32 64 54 46 (5087232)
I1219 11:39:31.715018   397 net.cpp:165] Memory required for data: 373719424
I1219 11:39:31.715026   397 layer_factory.hpp:77] Creating layer relu2_2
I1219 11:39:31.715034   397 net.cpp:100] Creating Layer relu2_2
I1219 11:39:31.715040   397 net.cpp:434] relu2_2 <- conv2_2
I1219 11:39:31.715049   397 net.cpp:395] relu2_2 -> conv2_2 (in-place)
I1219 11:39:31.717839   397 net.cpp:150] Setting up relu2_2
I1219 11:39:31.717886   397 net.cpp:157] Top shape: 32 64 54 46 (5087232)
I1219 11:39:31.717900   397 net.cpp:165] Memory required for data: 394068352
I1219 11:39:31.717918   397 layer_factory.hpp:77] Creating layer res2_2
I1219 11:39:31.717949   397 net.cpp:100] Creating Layer res2_2
I1219 11:39:31.717964   397 net.cpp:434] res2_2 <- pool1b_pool1b_0_split_1
I1219 11:39:31.717981   397 net.cpp:434] res2_2 <- conv2_2
I1219 11:39:31.717996   397 net.cpp:408] res2_2 -> res2_2
I1219 11:39:31.718083   397 net.cpp:150] Setting up res2_2
I1219 11:39:31.718104   397 net.cpp:157] Top shape: 32 64 54 46 (5087232)
I1219 11:39:31.718114   397 net.cpp:165] Memory required for data: 414417280
I1219 11:39:31.718124   397 layer_factory.hpp:77] Creating layer conv2
I1219 11:39:31.718152   397 net.cpp:100] Creating Layer conv2
I1219 11:39:31.718164   397 net.cpp:434] conv2 <- res2_2
I1219 11:39:31.718194   397 net.cpp:408] conv2 -> conv2
I1219 11:39:31.719584   397 net.cpp:150] Setting up conv2
I1219 11:39:31.719635   397 net.cpp:157] Top shape: 32 128 52 44 (9371648)
I1219 11:39:31.719646   397 net.cpp:165] Memory required for data: 451903872
I1219 11:39:31.719662   397 layer_factory.hpp:77] Creating layer relu2
I1219 11:39:31.719679   397 net.cpp:100] Creating Layer relu2
I1219 11:39:31.719691   397 net.cpp:434] relu2 <- conv2
I1219 11:39:31.719704   397 net.cpp:395] relu2 -> conv2 (in-place)
I1219 11:39:31.722561   397 net.cpp:150] Setting up relu2
I1219 11:39:31.722597   397 net.cpp:157] Top shape: 32 128 52 44 (9371648)
I1219 11:39:31.722609   397 net.cpp:165] Memory required for data: 489390464
I1219 11:39:31.722625   397 layer_factory.hpp:77] Creating layer pool2
I1219 11:39:31.722645   397 net.cpp:100] Creating Layer pool2
I1219 11:39:31.722657   397 net.cpp:434] pool2 <- conv2
I1219 11:39:31.722673   397 net.cpp:408] pool2 -> pool2
I1219 11:39:31.722751   397 net.cpp:150] Setting up pool2
I1219 11:39:31.722767   397 net.cpp:157] Top shape: 32 128 26 22 (2342912)
I1219 11:39:31.722777   397 net.cpp:165] Memory required for data: 498762112
I1219 11:39:31.722786   397 layer_factory.hpp:77] Creating layer pool2_pool2_0_split
I1219 11:39:31.722807   397 net.cpp:100] Creating Layer pool2_pool2_0_split
I1219 11:39:31.722818   397 net.cpp:434] pool2_pool2_0_split <- pool2
I1219 11:39:31.722832   397 net.cpp:408] pool2_pool2_0_split -> pool2_pool2_0_split_0
I1219 11:39:31.722849   397 net.cpp:408] pool2_pool2_0_split -> pool2_pool2_0_split_1
I1219 11:39:31.722913   397 net.cpp:150] Setting up pool2_pool2_0_split
I1219 11:39:31.722929   397 net.cpp:157] Top shape: 32 128 26 22 (2342912)
I1219 11:39:31.722940   397 net.cpp:157] Top shape: 32 128 26 22 (2342912)
I1219 11:39:31.722949   397 net.cpp:165] Memory required for data: 517505408
I1219 11:39:31.722959   397 layer_factory.hpp:77] Creating layer conv3_1
I1219 11:39:31.722982   397 net.cpp:100] Creating Layer conv3_1
I1219 11:39:31.722993   397 net.cpp:434] conv3_1 <- pool2_pool2_0_split_0
I1219 11:39:31.723011   397 net.cpp:408] conv3_1 -> conv3_1
I1219 11:39:31.732094   397 net.cpp:150] Setting up conv3_1
I1219 11:39:31.732116   397 net.cpp:157] Top shape: 32 128 26 22 (2342912)
I1219 11:39:31.732126   397 net.cpp:165] Memory required for data: 526877056
I1219 11:39:31.732148   397 layer_factory.hpp:77] Creating layer relu3_1
I1219 11:39:31.732163   397 net.cpp:100] Creating Layer relu3_1
I1219 11:39:31.732173   397 net.cpp:434] relu3_1 <- conv3_1
I1219 11:39:31.732187   397 net.cpp:395] relu3_1 -> conv3_1 (in-place)
I1219 11:39:31.732424   397 net.cpp:150] Setting up relu3_1
I1219 11:39:31.732441   397 net.cpp:157] Top shape: 32 128 26 22 (2342912)
I1219 11:39:31.732450   397 net.cpp:165] Memory required for data: 536248704
I1219 11:39:31.732463   397 layer_factory.hpp:77] Creating layer conv3_2
I1219 11:39:31.732486   397 net.cpp:100] Creating Layer conv3_2
I1219 11:39:31.732496   397 net.cpp:434] conv3_2 <- conv3_1
I1219 11:39:31.732511   397 net.cpp:408] conv3_2 -> conv3_2
I1219 11:39:31.741045   397 net.cpp:150] Setting up conv3_2
I1219 11:39:31.741065   397 net.cpp:157] Top shape: 32 128 26 22 (2342912)
I1219 11:39:31.741078   397 net.cpp:165] Memory required for data: 545620352
I1219 11:39:31.741092   397 layer_factory.hpp:77] Creating layer relu3_2
I1219 11:39:31.741106   397 net.cpp:100] Creating Layer relu3_2
I1219 11:39:31.741117   397 net.cpp:434] relu3_2 <- conv3_2
I1219 11:39:31.741127   397 net.cpp:395] relu3_2 -> conv3_2 (in-place)
I1219 11:39:31.741376   397 net.cpp:150] Setting up relu3_2
I1219 11:39:31.741392   397 net.cpp:157] Top shape: 32 128 26 22 (2342912)
I1219 11:39:31.741401   397 net.cpp:165] Memory required for data: 554992000
I1219 11:39:31.741411   397 layer_factory.hpp:77] Creating layer res3_2
I1219 11:39:31.741426   397 net.cpp:100] Creating Layer res3_2
I1219 11:39:31.741436   397 net.cpp:434] res3_2 <- pool2_pool2_0_split_1
I1219 11:39:31.741446   397 net.cpp:434] res3_2 <- conv3_2
I1219 11:39:31.741458   397 net.cpp:408] res3_2 -> res3_2
I1219 11:39:31.741510   397 net.cpp:150] Setting up res3_2
I1219 11:39:31.741544   397 net.cpp:157] Top shape: 32 128 26 22 (2342912)
I1219 11:39:31.741552   397 net.cpp:165] Memory required for data: 564363648
I1219 11:39:31.741560   397 layer_factory.hpp:77] Creating layer res3_2_res3_2_0_split
I1219 11:39:31.741575   397 net.cpp:100] Creating Layer res3_2_res3_2_0_split
I1219 11:39:31.741583   397 net.cpp:434] res3_2_res3_2_0_split <- res3_2
I1219 11:39:31.741595   397 net.cpp:408] res3_2_res3_2_0_split -> res3_2_res3_2_0_split_0
I1219 11:39:31.741611   397 net.cpp:408] res3_2_res3_2_0_split -> res3_2_res3_2_0_split_1
I1219 11:39:31.741670   397 net.cpp:150] Setting up res3_2_res3_2_0_split
I1219 11:39:31.741683   397 net.cpp:157] Top shape: 32 128 26 22 (2342912)
I1219 11:39:31.741694   397 net.cpp:157] Top shape: 32 128 26 22 (2342912)
I1219 11:39:31.741703   397 net.cpp:165] Memory required for data: 583106944
I1219 11:39:31.741710   397 layer_factory.hpp:77] Creating layer conv3_3
I1219 11:39:31.741731   397 net.cpp:100] Creating Layer conv3_3
I1219 11:39:31.741741   397 net.cpp:434] conv3_3 <- res3_2_res3_2_0_split_0
I1219 11:39:31.741755   397 net.cpp:408] conv3_3 -> conv3_3
I1219 11:39:31.751791   397 net.cpp:150] Setting up conv3_3
I1219 11:39:31.751821   397 net.cpp:157] Top shape: 32 128 26 22 (2342912)
I1219 11:39:31.751832   397 net.cpp:165] Memory required for data: 592478592
I1219 11:39:31.751847   397 layer_factory.hpp:77] Creating layer relu3_3
I1219 11:39:31.751862   397 net.cpp:100] Creating Layer relu3_3
I1219 11:39:31.751871   397 net.cpp:434] relu3_3 <- conv3_3
I1219 11:39:31.751883   397 net.cpp:395] relu3_3 -> conv3_3 (in-place)
I1219 11:39:31.752104   397 net.cpp:150] Setting up relu3_3
I1219 11:39:31.752121   397 net.cpp:157] Top shape: 32 128 26 22 (2342912)
I1219 11:39:31.752130   397 net.cpp:165] Memory required for data: 601850240
I1219 11:39:31.752140   397 layer_factory.hpp:77] Creating layer conv3_4
I1219 11:39:31.752161   397 net.cpp:100] Creating Layer conv3_4
I1219 11:39:31.752171   397 net.cpp:434] conv3_4 <- conv3_3
I1219 11:39:31.752184   397 net.cpp:408] conv3_4 -> conv3_4
I1219 11:39:31.759642   397 net.cpp:150] Setting up conv3_4
I1219 11:39:31.759660   397 net.cpp:157] Top shape: 32 128 26 22 (2342912)
I1219 11:39:31.759668   397 net.cpp:165] Memory required for data: 611221888
I1219 11:39:31.759680   397 layer_factory.hpp:77] Creating layer relu3_4
I1219 11:39:31.759693   397 net.cpp:100] Creating Layer relu3_4
I1219 11:39:31.759701   397 net.cpp:434] relu3_4 <- conv3_4
I1219 11:39:31.759712   397 net.cpp:395] relu3_4 -> conv3_4 (in-place)
I1219 11:39:31.759909   397 net.cpp:150] Setting up relu3_4
I1219 11:39:31.759924   397 net.cpp:157] Top shape: 32 128 26 22 (2342912)
I1219 11:39:31.759932   397 net.cpp:165] Memory required for data: 620593536
I1219 11:39:31.759943   397 layer_factory.hpp:77] Creating layer res3_4
I1219 11:39:31.759956   397 net.cpp:100] Creating Layer res3_4
I1219 11:39:31.759964   397 net.cpp:434] res3_4 <- res3_2_res3_2_0_split_1
I1219 11:39:31.759974   397 net.cpp:434] res3_4 <- conv3_4
I1219 11:39:31.759985   397 net.cpp:408] res3_4 -> res3_4
I1219 11:39:31.760023   397 net.cpp:150] Setting up res3_4
I1219 11:39:31.760035   397 net.cpp:157] Top shape: 32 128 26 22 (2342912)
I1219 11:39:31.760042   397 net.cpp:165] Memory required for data: 629965184
I1219 11:39:31.760049   397 layer_factory.hpp:77] Creating layer conv3
I1219 11:39:31.760072   397 net.cpp:100] Creating Layer conv3
I1219 11:39:31.760083   397 net.cpp:434] conv3 <- res3_4
I1219 11:39:31.760097   397 net.cpp:408] conv3 -> conv3
I1219 11:39:31.765262   397 net.cpp:150] Setting up conv3
I1219 11:39:31.765291   397 net.cpp:157] Top shape: 32 256 24 20 (3932160)
I1219 11:39:31.765300   397 net.cpp:165] Memory required for data: 645693824
I1219 11:39:31.765314   397 layer_factory.hpp:77] Creating layer relu3
I1219 11:39:31.765327   397 net.cpp:100] Creating Layer relu3
I1219 11:39:31.765336   397 net.cpp:434] relu3 <- conv3
I1219 11:39:31.765347   397 net.cpp:395] relu3 -> conv3 (in-place)
I1219 11:39:31.765615   397 net.cpp:150] Setting up relu3
I1219 11:39:31.765650   397 net.cpp:157] Top shape: 32 256 24 20 (3932160)
I1219 11:39:31.765658   397 net.cpp:165] Memory required for data: 661422464
I1219 11:39:31.765669   397 layer_factory.hpp:77] Creating layer pool3
I1219 11:39:31.765683   397 net.cpp:100] Creating Layer pool3
I1219 11:39:31.765691   397 net.cpp:434] pool3 <- conv3
I1219 11:39:31.765702   397 net.cpp:408] pool3 -> pool3
I1219 11:39:31.765763   397 net.cpp:150] Setting up pool3
I1219 11:39:31.765774   397 net.cpp:157] Top shape: 32 256 12 10 (983040)
I1219 11:39:31.765782   397 net.cpp:165] Memory required for data: 665354624
I1219 11:39:31.765789   397 layer_factory.hpp:77] Creating layer pool3_pool3_0_split
I1219 11:39:31.765801   397 net.cpp:100] Creating Layer pool3_pool3_0_split
I1219 11:39:31.765810   397 net.cpp:434] pool3_pool3_0_split <- pool3
I1219 11:39:31.765820   397 net.cpp:408] pool3_pool3_0_split -> pool3_pool3_0_split_0
I1219 11:39:31.765833   397 net.cpp:408] pool3_pool3_0_split -> pool3_pool3_0_split_1
I1219 11:39:31.765882   397 net.cpp:150] Setting up pool3_pool3_0_split
I1219 11:39:31.765894   397 net.cpp:157] Top shape: 32 256 12 10 (983040)
I1219 11:39:31.765903   397 net.cpp:157] Top shape: 32 256 12 10 (983040)
I1219 11:39:31.765910   397 net.cpp:165] Memory required for data: 673218944
I1219 11:39:31.765918   397 layer_factory.hpp:77] Creating layer conv4_1
I1219 11:39:31.765941   397 net.cpp:100] Creating Layer conv4_1
I1219 11:39:31.765949   397 net.cpp:434] conv4_1 <- pool3_pool3_0_split_0
I1219 11:39:31.765964   397 net.cpp:408] conv4_1 -> conv4_1
I1219 11:39:31.792990   397 net.cpp:150] Setting up conv4_1
I1219 11:39:31.793015   397 net.cpp:157] Top shape: 32 256 12 10 (983040)
I1219 11:39:31.793022   397 net.cpp:165] Memory required for data: 677151104
I1219 11:39:31.793033   397 layer_factory.hpp:77] Creating layer relu4_1
I1219 11:39:31.793045   397 net.cpp:100] Creating Layer relu4_1
I1219 11:39:31.793053   397 net.cpp:434] relu4_1 <- conv4_1
I1219 11:39:31.793063   397 net.cpp:395] relu4_1 -> conv4_1 (in-place)
I1219 11:39:31.793223   397 net.cpp:150] Setting up relu4_1
I1219 11:39:31.793236   397 net.cpp:157] Top shape: 32 256 12 10 (983040)
I1219 11:39:31.793243   397 net.cpp:165] Memory required for data: 681083264
I1219 11:39:31.793259   397 layer_factory.hpp:77] Creating layer conv4_2
I1219 11:39:31.793278   397 net.cpp:100] Creating Layer conv4_2
I1219 11:39:31.793285   397 net.cpp:434] conv4_2 <- conv4_1
I1219 11:39:31.793298   397 net.cpp:408] conv4_2 -> conv4_2
I1219 11:39:31.817049   397 net.cpp:150] Setting up conv4_2
I1219 11:39:31.817076   397 net.cpp:157] Top shape: 32 256 12 10 (983040)
I1219 11:39:31.817085   397 net.cpp:165] Memory required for data: 685015424
I1219 11:39:31.817095   397 layer_factory.hpp:77] Creating layer relu4_2
I1219 11:39:31.817104   397 net.cpp:100] Creating Layer relu4_2
I1219 11:39:31.817111   397 net.cpp:434] relu4_2 <- conv4_2
I1219 11:39:31.817121   397 net.cpp:395] relu4_2 -> conv4_2 (in-place)
I1219 11:39:31.817265   397 net.cpp:150] Setting up relu4_2
I1219 11:39:31.817276   397 net.cpp:157] Top shape: 32 256 12 10 (983040)
I1219 11:39:31.817281   397 net.cpp:165] Memory required for data: 688947584
I1219 11:39:31.817289   397 layer_factory.hpp:77] Creating layer res4_2
I1219 11:39:31.817299   397 net.cpp:100] Creating Layer res4_2
I1219 11:39:31.817306   397 net.cpp:434] res4_2 <- pool3_pool3_0_split_1
I1219 11:39:31.817314   397 net.cpp:434] res4_2 <- conv4_2
I1219 11:39:31.817322   397 net.cpp:408] res4_2 -> res4_2
I1219 11:39:31.817351   397 net.cpp:150] Setting up res4_2
I1219 11:39:31.817360   397 net.cpp:157] Top shape: 32 256 12 10 (983040)
I1219 11:39:31.817366   397 net.cpp:165] Memory required for data: 692879744
I1219 11:39:31.817371   397 layer_factory.hpp:77] Creating layer res4_2_res4_2_0_split
I1219 11:39:31.817381   397 net.cpp:100] Creating Layer res4_2_res4_2_0_split
I1219 11:39:31.817386   397 net.cpp:434] res4_2_res4_2_0_split <- res4_2
I1219 11:39:31.817394   397 net.cpp:408] res4_2_res4_2_0_split -> res4_2_res4_2_0_split_0
I1219 11:39:31.817423   397 net.cpp:408] res4_2_res4_2_0_split -> res4_2_res4_2_0_split_1
I1219 11:39:31.817469   397 net.cpp:150] Setting up res4_2_res4_2_0_split
I1219 11:39:31.817478   397 net.cpp:157] Top shape: 32 256 12 10 (983040)
I1219 11:39:31.817487   397 net.cpp:157] Top shape: 32 256 12 10 (983040)
I1219 11:39:31.817492   397 net.cpp:165] Memory required for data: 700744064
I1219 11:39:31.817497   397 layer_factory.hpp:77] Creating layer conv4_3
I1219 11:39:31.817512   397 net.cpp:100] Creating Layer conv4_3
I1219 11:39:31.817518   397 net.cpp:434] conv4_3 <- res4_2_res4_2_0_split_0
I1219 11:39:31.817528   397 net.cpp:408] conv4_3 -> conv4_3
I1219 11:39:31.839404   397 net.cpp:150] Setting up conv4_3
I1219 11:39:31.839426   397 net.cpp:157] Top shape: 32 256 12 10 (983040)
I1219 11:39:31.839432   397 net.cpp:165] Memory required for data: 704676224
I1219 11:39:31.839442   397 layer_factory.hpp:77] Creating layer relu4_3
I1219 11:39:31.839452   397 net.cpp:100] Creating Layer relu4_3
I1219 11:39:31.839458   397 net.cpp:434] relu4_3 <- conv4_3
I1219 11:39:31.839468   397 net.cpp:395] relu4_3 -> conv4_3 (in-place)
I1219 11:39:31.839594   397 net.cpp:150] Setting up relu4_3
I1219 11:39:31.839606   397 net.cpp:157] Top shape: 32 256 12 10 (983040)
I1219 11:39:31.839612   397 net.cpp:165] Memory required for data: 708608384
I1219 11:39:31.839618   397 layer_factory.hpp:77] Creating layer conv4_4
I1219 11:39:31.839633   397 net.cpp:100] Creating Layer conv4_4
I1219 11:39:31.839639   397 net.cpp:434] conv4_4 <- conv4_3
I1219 11:39:31.839650   397 net.cpp:408] conv4_4 -> conv4_4
I1219 11:39:31.861472   397 net.cpp:150] Setting up conv4_4
I1219 11:39:31.861492   397 net.cpp:157] Top shape: 32 256 12 10 (983040)
I1219 11:39:31.861500   397 net.cpp:165] Memory required for data: 712540544
I1219 11:39:31.861510   397 layer_factory.hpp:77] Creating layer relu4_4
I1219 11:39:31.861519   397 net.cpp:100] Creating Layer relu4_4
I1219 11:39:31.861526   397 net.cpp:434] relu4_4 <- conv4_4
I1219 11:39:31.861534   397 net.cpp:395] relu4_4 -> conv4_4 (in-place)
I1219 11:39:31.861665   397 net.cpp:150] Setting up relu4_4
I1219 11:39:31.861676   397 net.cpp:157] Top shape: 32 256 12 10 (983040)
I1219 11:39:31.861682   397 net.cpp:165] Memory required for data: 716472704
I1219 11:39:31.861690   397 layer_factory.hpp:77] Creating layer res4_4
I1219 11:39:31.861701   397 net.cpp:100] Creating Layer res4_4
I1219 11:39:31.861707   397 net.cpp:434] res4_4 <- res4_2_res4_2_0_split_1
I1219 11:39:31.861716   397 net.cpp:434] res4_4 <- conv4_4
I1219 11:39:31.861722   397 net.cpp:408] res4_4 -> res4_4
I1219 11:39:31.861752   397 net.cpp:150] Setting up res4_4
I1219 11:39:31.861760   397 net.cpp:157] Top shape: 32 256 12 10 (983040)
I1219 11:39:31.861765   397 net.cpp:165] Memory required for data: 720404864
I1219 11:39:31.861770   397 layer_factory.hpp:77] Creating layer res4_4_res4_4_0_split
I1219 11:39:31.861780   397 net.cpp:100] Creating Layer res4_4_res4_4_0_split
I1219 11:39:31.861785   397 net.cpp:434] res4_4_res4_4_0_split <- res4_4
I1219 11:39:31.861794   397 net.cpp:408] res4_4_res4_4_0_split -> res4_4_res4_4_0_split_0
I1219 11:39:31.861804   397 net.cpp:408] res4_4_res4_4_0_split -> res4_4_res4_4_0_split_1
I1219 11:39:31.861840   397 net.cpp:150] Setting up res4_4_res4_4_0_split
I1219 11:39:31.861848   397 net.cpp:157] Top shape: 32 256 12 10 (983040)
I1219 11:39:31.861855   397 net.cpp:157] Top shape: 32 256 12 10 (983040)
I1219 11:39:31.861860   397 net.cpp:165] Memory required for data: 728269184
I1219 11:39:31.861865   397 layer_factory.hpp:77] Creating layer conv4_5
I1219 11:39:31.861881   397 net.cpp:100] Creating Layer conv4_5
I1219 11:39:31.861886   397 net.cpp:434] conv4_5 <- res4_4_res4_4_0_split_0
I1219 11:39:31.861896   397 net.cpp:408] conv4_5 -> conv4_5
I1219 11:39:31.883716   397 net.cpp:150] Setting up conv4_5
I1219 11:39:31.883738   397 net.cpp:157] Top shape: 32 256 12 10 (983040)
I1219 11:39:31.883744   397 net.cpp:165] Memory required for data: 732201344
I1219 11:39:31.883759   397 layer_factory.hpp:77] Creating layer relu4_5
I1219 11:39:31.883783   397 net.cpp:100] Creating Layer relu4_5
I1219 11:39:31.883791   397 net.cpp:434] relu4_5 <- conv4_5
I1219 11:39:31.883800   397 net.cpp:395] relu4_5 -> conv4_5 (in-place)
I1219 11:39:31.883930   397 net.cpp:150] Setting up relu4_5
I1219 11:39:31.883941   397 net.cpp:157] Top shape: 32 256 12 10 (983040)
I1219 11:39:31.883947   397 net.cpp:165] Memory required for data: 736133504
I1219 11:39:31.883955   397 layer_factory.hpp:77] Creating layer conv4_6
I1219 11:39:31.883971   397 net.cpp:100] Creating Layer conv4_6
I1219 11:39:31.883977   397 net.cpp:434] conv4_6 <- conv4_5
I1219 11:39:31.883987   397 net.cpp:408] conv4_6 -> conv4_6
I1219 11:39:31.917081   397 net.cpp:150] Setting up conv4_6
I1219 11:39:31.917114   397 net.cpp:157] Top shape: 32 256 12 10 (983040)
I1219 11:39:31.917124   397 net.cpp:165] Memory required for data: 740065664
I1219 11:39:31.917136   397 layer_factory.hpp:77] Creating layer relu4_6
I1219 11:39:31.917148   397 net.cpp:100] Creating Layer relu4_6
I1219 11:39:31.917157   397 net.cpp:434] relu4_6 <- conv4_6
I1219 11:39:31.917167   397 net.cpp:395] relu4_6 -> conv4_6 (in-place)
I1219 11:39:31.917312   397 net.cpp:150] Setting up relu4_6
I1219 11:39:31.917325   397 net.cpp:157] Top shape: 32 256 12 10 (983040)
I1219 11:39:31.917331   397 net.cpp:165] Memory required for data: 743997824
I1219 11:39:31.917340   397 layer_factory.hpp:77] Creating layer res4_6
I1219 11:39:31.917353   397 net.cpp:100] Creating Layer res4_6
I1219 11:39:31.917361   397 net.cpp:434] res4_6 <- res4_4_res4_4_0_split_1
I1219 11:39:31.917371   397 net.cpp:434] res4_6 <- conv4_6
I1219 11:39:31.917379   397 net.cpp:408] res4_6 -> res4_6
I1219 11:39:31.917414   397 net.cpp:150] Setting up res4_6
I1219 11:39:31.917425   397 net.cpp:157] Top shape: 32 256 12 10 (983040)
I1219 11:39:31.917431   397 net.cpp:165] Memory required for data: 747929984
I1219 11:39:31.917438   397 layer_factory.hpp:77] Creating layer res4_6_res4_6_0_split
I1219 11:39:31.917448   397 net.cpp:100] Creating Layer res4_6_res4_6_0_split
I1219 11:39:31.917454   397 net.cpp:434] res4_6_res4_6_0_split <- res4_6
I1219 11:39:31.917464   397 net.cpp:408] res4_6_res4_6_0_split -> res4_6_res4_6_0_split_0
I1219 11:39:31.917474   397 net.cpp:408] res4_6_res4_6_0_split -> res4_6_res4_6_0_split_1
I1219 11:39:31.917517   397 net.cpp:150] Setting up res4_6_res4_6_0_split
I1219 11:39:31.917526   397 net.cpp:157] Top shape: 32 256 12 10 (983040)
I1219 11:39:31.917534   397 net.cpp:157] Top shape: 32 256 12 10 (983040)
I1219 11:39:31.917541   397 net.cpp:165] Memory required for data: 755794304
I1219 11:39:31.917546   397 layer_factory.hpp:77] Creating layer conv4_7
I1219 11:39:31.917562   397 net.cpp:100] Creating Layer conv4_7
I1219 11:39:31.917569   397 net.cpp:434] conv4_7 <- res4_6_res4_6_0_split_0
I1219 11:39:31.917579   397 net.cpp:408] conv4_7 -> conv4_7
I1219 11:39:31.942525   397 net.cpp:150] Setting up conv4_7
I1219 11:39:31.942550   397 net.cpp:157] Top shape: 32 256 12 10 (983040)
I1219 11:39:31.942559   397 net.cpp:165] Memory required for data: 759726464
I1219 11:39:31.942569   397 layer_factory.hpp:77] Creating layer relu4_7
I1219 11:39:31.942579   397 net.cpp:100] Creating Layer relu4_7
I1219 11:39:31.942586   397 net.cpp:434] relu4_7 <- conv4_7
I1219 11:39:31.942595   397 net.cpp:395] relu4_7 -> conv4_7 (in-place)
I1219 11:39:31.942720   397 net.cpp:150] Setting up relu4_7
I1219 11:39:31.942733   397 net.cpp:157] Top shape: 32 256 12 10 (983040)
I1219 11:39:31.942739   397 net.cpp:165] Memory required for data: 763658624
I1219 11:39:31.942746   397 layer_factory.hpp:77] Creating layer conv4_8
I1219 11:39:31.942760   397 net.cpp:100] Creating Layer conv4_8
I1219 11:39:31.942767   397 net.cpp:434] conv4_8 <- conv4_7
I1219 11:39:31.942778   397 net.cpp:408] conv4_8 -> conv4_8
I1219 11:39:31.964648   397 net.cpp:150] Setting up conv4_8
I1219 11:39:31.964668   397 net.cpp:157] Top shape: 32 256 12 10 (983040)
I1219 11:39:31.964675   397 net.cpp:165] Memory required for data: 767590784
I1219 11:39:31.964692   397 layer_factory.hpp:77] Creating layer relu4_8
I1219 11:39:31.964727   397 net.cpp:100] Creating Layer relu4_8
I1219 11:39:31.964735   397 net.cpp:434] relu4_8 <- conv4_8
I1219 11:39:31.964743   397 net.cpp:395] relu4_8 -> conv4_8 (in-place)
I1219 11:39:31.964864   397 net.cpp:150] Setting up relu4_8
I1219 11:39:31.964874   397 net.cpp:157] Top shape: 32 256 12 10 (983040)
I1219 11:39:31.964880   397 net.cpp:165] Memory required for data: 771522944
I1219 11:39:31.964889   397 layer_factory.hpp:77] Creating layer res4_8
I1219 11:39:31.964898   397 net.cpp:100] Creating Layer res4_8
I1219 11:39:31.964905   397 net.cpp:434] res4_8 <- res4_6_res4_6_0_split_1
I1219 11:39:31.964912   397 net.cpp:434] res4_8 <- conv4_8
I1219 11:39:31.964920   397 net.cpp:408] res4_8 -> res4_8
I1219 11:39:31.964949   397 net.cpp:150] Setting up res4_8
I1219 11:39:31.964958   397 net.cpp:157] Top shape: 32 256 12 10 (983040)
I1219 11:39:31.964963   397 net.cpp:165] Memory required for data: 775455104
I1219 11:39:31.964968   397 layer_factory.hpp:77] Creating layer res4_8_res4_8_0_split
I1219 11:39:31.964977   397 net.cpp:100] Creating Layer res4_8_res4_8_0_split
I1219 11:39:31.964983   397 net.cpp:434] res4_8_res4_8_0_split <- res4_8
I1219 11:39:31.964992   397 net.cpp:408] res4_8_res4_8_0_split -> res4_8_res4_8_0_split_0
I1219 11:39:31.965000   397 net.cpp:408] res4_8_res4_8_0_split -> res4_8_res4_8_0_split_1
I1219 11:39:31.965039   397 net.cpp:150] Setting up res4_8_res4_8_0_split
I1219 11:39:31.965046   397 net.cpp:157] Top shape: 32 256 12 10 (983040)
I1219 11:39:31.965054   397 net.cpp:157] Top shape: 32 256 12 10 (983040)
I1219 11:39:31.965059   397 net.cpp:165] Memory required for data: 783319424
I1219 11:39:31.965064   397 layer_factory.hpp:77] Creating layer conv4_9
I1219 11:39:31.965083   397 net.cpp:100] Creating Layer conv4_9
I1219 11:39:31.965090   397 net.cpp:434] conv4_9 <- res4_8_res4_8_0_split_0
I1219 11:39:31.965101   397 net.cpp:408] conv4_9 -> conv4_9
I1219 11:39:31.987149   397 net.cpp:150] Setting up conv4_9
I1219 11:39:31.987174   397 net.cpp:157] Top shape: 32 256 12 10 (983040)
I1219 11:39:31.987181   397 net.cpp:165] Memory required for data: 787251584
I1219 11:39:31.987191   397 layer_factory.hpp:77] Creating layer relu4_9
I1219 11:39:31.987201   397 net.cpp:100] Creating Layer relu4_9
I1219 11:39:31.987208   397 net.cpp:434] relu4_9 <- conv4_9
I1219 11:39:31.987217   397 net.cpp:395] relu4_9 -> conv4_9 (in-place)
I1219 11:39:31.987355   397 net.cpp:150] Setting up relu4_9
I1219 11:39:31.987366   397 net.cpp:157] Top shape: 32 256 12 10 (983040)
I1219 11:39:31.987372   397 net.cpp:165] Memory required for data: 791183744
I1219 11:39:31.987380   397 layer_factory.hpp:77] Creating layer conv4_10
I1219 11:39:31.987395   397 net.cpp:100] Creating Layer conv4_10
I1219 11:39:31.987401   397 net.cpp:434] conv4_10 <- conv4_9
I1219 11:39:31.987411   397 net.cpp:408] conv4_10 -> conv4_10
I1219 11:39:32.010670   397 net.cpp:150] Setting up conv4_10
I1219 11:39:32.010694   397 net.cpp:157] Top shape: 32 256 12 10 (983040)
I1219 11:39:32.010700   397 net.cpp:165] Memory required for data: 795115904
I1219 11:39:32.010710   397 layer_factory.hpp:77] Creating layer relu4_10
I1219 11:39:32.010721   397 net.cpp:100] Creating Layer relu4_10
I1219 11:39:32.010727   397 net.cpp:434] relu4_10 <- conv4_10
I1219 11:39:32.010736   397 net.cpp:395] relu4_10 -> conv4_10 (in-place)
I1219 11:39:32.010870   397 net.cpp:150] Setting up relu4_10
I1219 11:39:32.010881   397 net.cpp:157] Top shape: 32 256 12 10 (983040)
I1219 11:39:32.010886   397 net.cpp:165] Memory required for data: 799048064
I1219 11:39:32.010893   397 layer_factory.hpp:77] Creating layer res4_10
I1219 11:39:32.010902   397 net.cpp:100] Creating Layer res4_10
I1219 11:39:32.010910   397 net.cpp:434] res4_10 <- res4_8_res4_8_0_split_1
I1219 11:39:32.010916   397 net.cpp:434] res4_10 <- conv4_10
I1219 11:39:32.010924   397 net.cpp:408] res4_10 -> res4_10
I1219 11:39:32.010956   397 net.cpp:150] Setting up res4_10
I1219 11:39:32.010964   397 net.cpp:157] Top shape: 32 256 12 10 (983040)
I1219 11:39:32.010975   397 net.cpp:165] Memory required for data: 802980224
I1219 11:39:32.010994   397 layer_factory.hpp:77] Creating layer conv4
I1219 11:39:32.011006   397 net.cpp:100] Creating Layer conv4
I1219 11:39:32.011013   397 net.cpp:434] conv4 <- res4_10
I1219 11:39:32.011023   397 net.cpp:408] conv4 -> conv4
I1219 11:39:32.023162   397 net.cpp:150] Setting up conv4
I1219 11:39:32.023185   397 net.cpp:157] Top shape: 32 512 10 8 (1310720)
I1219 11:39:32.023191   397 net.cpp:165] Memory required for data: 808223104
I1219 11:39:32.023201   397 layer_factory.hpp:77] Creating layer relu4
I1219 11:39:32.023214   397 net.cpp:100] Creating Layer relu4
I1219 11:39:32.023221   397 net.cpp:434] relu4 <- conv4
I1219 11:39:32.023229   397 net.cpp:395] relu4 -> conv4 (in-place)
I1219 11:39:32.023378   397 net.cpp:150] Setting up relu4
I1219 11:39:32.023388   397 net.cpp:157] Top shape: 32 512 10 8 (1310720)
I1219 11:39:32.023394   397 net.cpp:165] Memory required for data: 813465984
I1219 11:39:32.023401   397 layer_factory.hpp:77] Creating layer pool4
I1219 11:39:32.023412   397 net.cpp:100] Creating Layer pool4
I1219 11:39:32.023418   397 net.cpp:434] pool4 <- conv4
I1219 11:39:32.023428   397 net.cpp:408] pool4 -> pool4
I1219 11:39:32.023474   397 net.cpp:150] Setting up pool4
I1219 11:39:32.023486   397 net.cpp:157] Top shape: 32 512 5 4 (327680)
I1219 11:39:32.023491   397 net.cpp:165] Memory required for data: 814776704
I1219 11:39:32.023496   397 layer_factory.hpp:77] Creating layer pool4_pool4_0_split
I1219 11:39:32.023519   397 net.cpp:100] Creating Layer pool4_pool4_0_split
I1219 11:39:32.023526   397 net.cpp:434] pool4_pool4_0_split <- pool4
I1219 11:39:32.023533   397 net.cpp:408] pool4_pool4_0_split -> pool4_pool4_0_split_0
I1219 11:39:32.023542   397 net.cpp:408] pool4_pool4_0_split -> pool4_pool4_0_split_1
I1219 11:39:32.023586   397 net.cpp:150] Setting up pool4_pool4_0_split
I1219 11:39:32.023594   397 net.cpp:157] Top shape: 32 512 5 4 (327680)
I1219 11:39:32.023600   397 net.cpp:157] Top shape: 32 512 5 4 (327680)
I1219 11:39:32.023605   397 net.cpp:165] Memory required for data: 817398144
I1219 11:39:32.023612   397 layer_factory.hpp:77] Creating layer conv5_1
I1219 11:39:32.023625   397 net.cpp:100] Creating Layer conv5_1
I1219 11:39:32.023632   397 net.cpp:434] conv5_1 <- pool4_pool4_0_split_0
I1219 11:39:32.023639   397 net.cpp:408] conv5_1 -> conv5_1
I1219 11:39:32.115288   397 net.cpp:150] Setting up conv5_1
I1219 11:39:32.115314   397 net.cpp:157] Top shape: 32 512 5 4 (327680)
I1219 11:39:32.115319   397 net.cpp:165] Memory required for data: 818708864
I1219 11:39:32.115348   397 layer_factory.hpp:77] Creating layer relu5_1
I1219 11:39:32.115360   397 net.cpp:100] Creating Layer relu5_1
I1219 11:39:32.115367   397 net.cpp:434] relu5_1 <- conv5_1
I1219 11:39:32.115377   397 net.cpp:395] relu5_1 -> conv5_1 (in-place)
I1219 11:39:32.115510   397 net.cpp:150] Setting up relu5_1
I1219 11:39:32.115521   397 net.cpp:157] Top shape: 32 512 5 4 (327680)
I1219 11:39:32.115527   397 net.cpp:165] Memory required for data: 820019584
I1219 11:39:32.115535   397 layer_factory.hpp:77] Creating layer conv5_2
I1219 11:39:32.115548   397 net.cpp:100] Creating Layer conv5_2
I1219 11:39:32.115556   397 net.cpp:434] conv5_2 <- conv5_1
I1219 11:39:32.115566   397 net.cpp:408] conv5_2 -> conv5_2
I1219 11:39:32.205327   397 net.cpp:150] Setting up conv5_2
I1219 11:39:32.205360   397 net.cpp:157] Top shape: 32 512 5 4 (327680)
I1219 11:39:32.205370   397 net.cpp:165] Memory required for data: 821330304
I1219 11:39:32.205387   397 layer_factory.hpp:77] Creating layer relu5_2
I1219 11:39:32.205400   397 net.cpp:100] Creating Layer relu5_2
I1219 11:39:32.205411   397 net.cpp:434] relu5_2 <- conv5_2
I1219 11:39:32.205423   397 net.cpp:395] relu5_2 -> conv5_2 (in-place)
I1219 11:39:32.205588   397 net.cpp:150] Setting up relu5_2
I1219 11:39:32.205605   397 net.cpp:157] Top shape: 32 512 5 4 (327680)
I1219 11:39:32.205613   397 net.cpp:165] Memory required for data: 822641024
I1219 11:39:32.205636   397 layer_factory.hpp:77] Creating layer res5_2
I1219 11:39:32.205677   397 net.cpp:100] Creating Layer res5_2
I1219 11:39:32.205688   397 net.cpp:434] res5_2 <- pool4_pool4_0_split_1
I1219 11:39:32.205699   397 net.cpp:434] res5_2 <- conv5_2
I1219 11:39:32.205713   397 net.cpp:408] res5_2 -> res5_2
I1219 11:39:32.205760   397 net.cpp:150] Setting up res5_2
I1219 11:39:32.205775   397 net.cpp:157] Top shape: 32 512 5 4 (327680)
I1219 11:39:32.205782   397 net.cpp:165] Memory required for data: 823951744
I1219 11:39:32.205791   397 layer_factory.hpp:77] Creating layer res5_2_res5_2_0_split
I1219 11:39:32.205804   397 net.cpp:100] Creating Layer res5_2_res5_2_0_split
I1219 11:39:32.205813   397 net.cpp:434] res5_2_res5_2_0_split <- res5_2
I1219 11:39:32.205827   397 net.cpp:408] res5_2_res5_2_0_split -> res5_2_res5_2_0_split_0
I1219 11:39:32.205842   397 net.cpp:408] res5_2_res5_2_0_split -> res5_2_res5_2_0_split_1
I1219 11:39:32.205899   397 net.cpp:150] Setting up res5_2_res5_2_0_split
I1219 11:39:32.205914   397 net.cpp:157] Top shape: 32 512 5 4 (327680)
I1219 11:39:32.205926   397 net.cpp:157] Top shape: 32 512 5 4 (327680)
I1219 11:39:32.205935   397 net.cpp:165] Memory required for data: 826573184
I1219 11:39:32.205942   397 layer_factory.hpp:77] Creating layer conv5_3
I1219 11:39:32.205963   397 net.cpp:100] Creating Layer conv5_3
I1219 11:39:32.205973   397 net.cpp:434] conv5_3 <- res5_2_res5_2_0_split_0
I1219 11:39:32.205987   397 net.cpp:408] conv5_3 -> conv5_3
I1219 11:39:32.321440   397 net.cpp:150] Setting up conv5_3
I1219 11:39:32.321539   397 net.cpp:157] Top shape: 32 512 5 4 (327680)
I1219 11:39:32.321547   397 net.cpp:165] Memory required for data: 827883904
I1219 11:39:32.321602   397 layer_factory.hpp:77] Creating layer relu5_3
I1219 11:39:32.321662   397 net.cpp:100] Creating Layer relu5_3
I1219 11:39:32.321729   397 net.cpp:434] relu5_3 <- conv5_3
I1219 11:39:32.321748   397 net.cpp:395] relu5_3 -> conv5_3 (in-place)
I1219 11:39:32.321962   397 net.cpp:150] Setting up relu5_3
I1219 11:39:32.321974   397 net.cpp:157] Top shape: 32 512 5 4 (327680)
I1219 11:39:32.321980   397 net.cpp:165] Memory required for data: 829194624
I1219 11:39:32.321987   397 layer_factory.hpp:77] Creating layer conv5_4
I1219 11:39:32.322013   397 net.cpp:100] Creating Layer conv5_4
I1219 11:39:32.322021   397 net.cpp:434] conv5_4 <- conv5_3
I1219 11:39:32.322031   397 net.cpp:408] conv5_4 -> conv5_4
I1219 11:39:32.407276   397 net.cpp:150] Setting up conv5_4
I1219 11:39:32.407300   397 net.cpp:157] Top shape: 32 512 5 4 (327680)
I1219 11:39:32.407306   397 net.cpp:165] Memory required for data: 830505344
I1219 11:39:32.407316   397 layer_factory.hpp:77] Creating layer relu5_4
I1219 11:39:32.407335   397 net.cpp:100] Creating Layer relu5_4
I1219 11:39:32.407341   397 net.cpp:434] relu5_4 <- conv5_4
I1219 11:39:32.407349   397 net.cpp:395] relu5_4 -> conv5_4 (in-place)
I1219 11:39:32.407469   397 net.cpp:150] Setting up relu5_4
I1219 11:39:32.407480   397 net.cpp:157] Top shape: 32 512 5 4 (327680)
I1219 11:39:32.407485   397 net.cpp:165] Memory required for data: 831816064
I1219 11:39:32.407497   397 layer_factory.hpp:77] Creating layer res5_4
I1219 11:39:32.407526   397 net.cpp:100] Creating Layer res5_4
I1219 11:39:32.407563   397 net.cpp:434] res5_4 <- res5_2_res5_2_0_split_1
I1219 11:39:32.407572   397 net.cpp:434] res5_4 <- conv5_4
I1219 11:39:32.407582   397 net.cpp:408] res5_4 -> res5_4
I1219 11:39:32.407614   397 net.cpp:150] Setting up res5_4
I1219 11:39:32.407624   397 net.cpp:157] Top shape: 32 512 5 4 (327680)
I1219 11:39:32.407629   397 net.cpp:165] Memory required for data: 833126784
I1219 11:39:32.407639   397 layer_factory.hpp:77] Creating layer res5_4_res5_4_0_split
I1219 11:39:32.407647   397 net.cpp:100] Creating Layer res5_4_res5_4_0_split
I1219 11:39:32.407652   397 net.cpp:434] res5_4_res5_4_0_split <- res5_4
I1219 11:39:32.407660   397 net.cpp:408] res5_4_res5_4_0_split -> res5_4_res5_4_0_split_0
I1219 11:39:32.407673   397 net.cpp:408] res5_4_res5_4_0_split -> res5_4_res5_4_0_split_1
I1219 11:39:32.407877   397 net.cpp:150] Setting up res5_4_res5_4_0_split
I1219 11:39:32.407907   397 net.cpp:157] Top shape: 32 512 5 4 (327680)
I1219 11:39:32.407914   397 net.cpp:157] Top shape: 32 512 5 4 (327680)
I1219 11:39:32.407919   397 net.cpp:165] Memory required for data: 835748224
I1219 11:39:32.407924   397 layer_factory.hpp:77] Creating layer conv5_5
I1219 11:39:32.407945   397 net.cpp:100] Creating Layer conv5_5
I1219 11:39:32.407951   397 net.cpp:434] conv5_5 <- res5_4_res5_4_0_split_0
I1219 11:39:32.407963   397 net.cpp:408] conv5_5 -> conv5_5
I1219 11:39:32.492653   397 net.cpp:150] Setting up conv5_5
I1219 11:39:32.492679   397 net.cpp:157] Top shape: 32 512 5 4 (327680)
I1219 11:39:32.492686   397 net.cpp:165] Memory required for data: 837058944
I1219 11:39:32.492696   397 layer_factory.hpp:77] Creating layer relu5_5
I1219 11:39:32.492703   397 net.cpp:100] Creating Layer relu5_5
I1219 11:39:32.492710   397 net.cpp:434] relu5_5 <- conv5_5
I1219 11:39:32.492723   397 net.cpp:395] relu5_5 -> conv5_5 (in-place)
I1219 11:39:32.492843   397 net.cpp:150] Setting up relu5_5
I1219 11:39:32.492853   397 net.cpp:157] Top shape: 32 512 5 4 (327680)
I1219 11:39:32.492858   397 net.cpp:165] Memory required for data: 838369664
I1219 11:39:32.492866   397 layer_factory.hpp:77] Creating layer conv5_6
I1219 11:39:32.492890   397 net.cpp:100] Creating Layer conv5_6
I1219 11:39:32.492897   397 net.cpp:434] conv5_6 <- conv5_5
I1219 11:39:32.492907   397 net.cpp:408] conv5_6 -> conv5_6
I1219 11:39:32.577558   397 net.cpp:150] Setting up conv5_6
I1219 11:39:32.577589   397 net.cpp:157] Top shape: 32 512 5 4 (327680)
I1219 11:39:32.577594   397 net.cpp:165] Memory required for data: 839680384
I1219 11:39:32.577605   397 layer_factory.hpp:77] Creating layer relu5_6
I1219 11:39:32.577615   397 net.cpp:100] Creating Layer relu5_6
I1219 11:39:32.577621   397 net.cpp:434] relu5_6 <- conv5_6
I1219 11:39:32.577632   397 net.cpp:395] relu5_6 -> conv5_6 (in-place)
I1219 11:39:32.577755   397 net.cpp:150] Setting up relu5_6
I1219 11:39:32.577767   397 net.cpp:157] Top shape: 32 512 5 4 (327680)
I1219 11:39:32.577774   397 net.cpp:165] Memory required for data: 840991104
I1219 11:39:32.577780   397 layer_factory.hpp:77] Creating layer res5_6
I1219 11:39:32.577798   397 net.cpp:100] Creating Layer res5_6
I1219 11:39:32.577805   397 net.cpp:434] res5_6 <- res5_4_res5_4_0_split_1
I1219 11:39:32.577812   397 net.cpp:434] res5_6 <- conv5_6
I1219 11:39:32.577819   397 net.cpp:408] res5_6 -> res5_6
I1219 11:39:32.577852   397 net.cpp:150] Setting up res5_6
I1219 11:39:32.577862   397 net.cpp:157] Top shape: 32 512 5 4 (327680)
I1219 11:39:32.577867   397 net.cpp:165] Memory required for data: 842301824
I1219 11:39:32.577877   397 layer_factory.hpp:77] Creating layer fc5
I1219 11:39:32.577893   397 net.cpp:100] Creating Layer fc5
I1219 11:39:32.577899   397 net.cpp:434] fc5 <- res5_6
I1219 11:39:32.577908   397 net.cpp:408] fc5 -> fc5
I1219 11:39:32.626293   397 net.cpp:150] Setting up fc5
I1219 11:39:32.626334   397 net.cpp:157] Top shape: 32 512 (16384)
I1219 11:39:32.626340   397 net.cpp:165] Memory required for data: 842367360
I1219 11:39:32.626353   397 layer_factory.hpp:77] Creating layer fc6
I1219 11:39:32.626366   397 net.cpp:100] Creating Layer fc6
I1219 11:39:32.626374   397 net.cpp:434] fc6 <- fc5
I1219 11:39:32.626384   397 net.cpp:408] fc6 -> fc6
I1219 11:39:32.854648   397 net.cpp:150] Setting up fc6
I1219 11:39:32.854719   397 net.cpp:157] Top shape: 32 43074 (1378368)
I1219 11:39:32.854727   397 net.cpp:165] Memory required for data: 847880832
I1219 11:39:32.854743   397 layer_factory.hpp:77] Creating layer fc6_fc6_0_split
I1219 11:39:32.854763   397 net.cpp:100] Creating Layer fc6_fc6_0_split
I1219 11:39:32.854774   397 net.cpp:434] fc6_fc6_0_split <- fc6
I1219 11:39:32.854786   397 net.cpp:408] fc6_fc6_0_split -> fc6_fc6_0_split_0
I1219 11:39:32.854802   397 net.cpp:408] fc6_fc6_0_split -> fc6_fc6_0_split_1
I1219 11:39:32.854859   397 net.cpp:150] Setting up fc6_fc6_0_split
I1219 11:39:32.854869   397 net.cpp:157] Top shape: 32 43074 (1378368)
I1219 11:39:32.854887   397 net.cpp:157] Top shape: 32 43074 (1378368)
I1219 11:39:32.854917   397 net.cpp:165] Memory required for data: 858907776
I1219 11:39:32.854923   397 layer_factory.hpp:77] Creating layer softmax
I1219 11:39:32.854935   397 net.cpp:100] Creating Layer softmax
I1219 11:39:32.854941   397 net.cpp:434] softmax <- fc6_fc6_0_split_0
I1219 11:39:32.854950   397 net.cpp:408] softmax -> prob
I1219 11:39:32.857544   397 net.cpp:150] Setting up softmax
I1219 11:39:32.857569   397 net.cpp:157] Top shape: 32 43074 (1378368)
I1219 11:39:32.857576   397 net.cpp:165] Memory required for data: 864421248
I1219 11:39:32.857583   397 layer_factory.hpp:77] Creating layer accuracy
I1219 11:39:32.857602   397 net.cpp:100] Creating Layer accuracy
I1219 11:39:32.857609   397 net.cpp:434] accuracy <- prob
I1219 11:39:32.857617   397 net.cpp:434] accuracy <- label_data_1_split_0
I1219 11:39:32.857630   397 net.cpp:408] accuracy -> accuracy
…
I1219 11:39:32.865664   397 net.cpp:322] The NetState phase (1) differed from the phase (0) specified by a rule in layer data
I1219 11:39:32.866240   397 net.cpp:58] Initializing net from parameters: 
name: "Face-ResNet"
state {
  phase: TEST
}
layer {
  name: "data"
  type: "Data"
  top: "data"
  top: "label"
  include {
    phase: TEST
  }
  transform_param {
    scale: 0.0078125
    mirror: true
    mean_value: 127.5
    mean_value: 127.5
    mean_value: 127.5
  }
  data_param {
    source: "/home/licheng/face_data/face_lmdb_data/val_lmdb"
    batch_size: 16
    backend: LMDB
  }
}
layer {
  name: "conv1a"
  type: "Convolution"
  bottom: "data"
  top: "conv1a"
  param {
    lr_mult: 1
    decay_mult: 1
  }
  param {
    lr_mult: 2
    decay_mult: 0
  }
  convolution_param {
    num_output: 32
    kernel_size: 3
    stride: 1
    weight_filler {
      type: "xavier"
    }
    bias_filler {
      type: "constant"
      value: 0
    }
  }
}
layer {
  name: "relu1a"
  type: "PReLU"
  bottom: "conv1a"
  top: "conv1a"
}
layer {
  name: "conv1b"
  type: "Convolution"
  bottom: "conv1a"
  top: "conv1b"
  param {
    lr_mult: 1
    decay_mult: 1
  }
  param {
    lr_mult: 2
    decay_mult: 0
  }
  convolution_param {
    num_output: 64
    kernel_size: 3
    stride: 1
    weight_filler {
      type: "xavier"
    }
    bias_filler {
      type: "constant"
      value: 0
    }
  }
}
layer {
  name: "relu1b"
  type: "PReLU"
  bottom: "conv1b"
  top: "conv1b"
}
layer {
  name: "pool1b"
  type: "Pooling"
  bottom: "conv1b"
  top: "pool1b"
  pooling_param {
    pool: MAX
    kernel_size: 2
    stride: 2
  }
}
layer {
  name: "conv2_1"
  type: "Convolution"
  bottom: "pool1b"
  top: "conv2_1"
  param {
    lr_mult: 1
    decay_mult: 1
  }
  param {
    lr_mult: 2
    decay_mult: 0
  }
  convolution_param {
    num_output: 64
    pad: 1
    kernel_size: 3
    stride: 1
    weight_filler {
      type: "gaussian"
      std: 0.01
    }
    bias_filler {
      type: "constant"
      value: 0
    }
  }
}
layer {
  name: "relu2_1"
  type: "PReLU"
  bottom: "conv2_1"
  top: "conv2_1"
}
layer {
  name: "conv2_2"
  type: "Convolution"
  bottom: "conv2_1"
  top: "conv2_2"
  param {
    lr_mult: 1
    decay_mult: 1
  }
  param {
    lr_mult: 2
    decay_mult: 0
  }
  convolution_param {
    num_output: 64
    pad: 1
    kernel_size: 3
    stride: 1
    weight_filler {
      type: "gaussian"
      std: 0.01
    }
    bias_filler {
      type: "constant"
      value: 0
    }
  }
}
layer {
  name: "relu2_2"
  type: "PReLU"
  bottom: "conv2_2"
  top: "conv2_2"
}
layer {
  name: "res2_2"
  type: "Eltwise"
  bottom: "pool1b"
  bottom: "conv2_2"
  top: "res2_2"
  eltwise_param {
    operation: SUM
  }
}
layer {
  name: "conv2"
  type: "Convolution"
  bottom: "res2_2"
  top: "conv2"
  param {
    lr_mult: 1
    decay_mult: 1
  }
  param {
    lr_mult: 2
    decay_mult: 0
  }
  convolution_param {
    num_output: 128
    kernel_size: 3
    stride: 1
    weight_filler {
      type: "xavier"
    }
    bias_filler {
      type: "constant"
      value: 0
    }
  }
}
layer {
  name: "relu2"
  type: "PReLU"
  bottom: "conv2"
  top: "conv2"
}
layer {
  name: "pool2"
  type: "Pooling"
  bottom: "conv2"
  top: "pool2"
  pooling_param {
    pool: MAX
    kernel_size: 2
    stride: 2
  }
}
layer {
  name: "conv3_1"
  type: "Convolution"
  bottom: "pool2"
  top: "conv3_1"
  param {
    lr_mult: 1
    decay_mult: 1
  }
  param {
    lr_mult: 2
    decay_mult: 0
  }
  convolution_param {
    num_output: 128
    pad: 1
    kernel_size: 3
    stride: 1
    weight_filler {
      type: "gaussian"
      std: 0.01
    }
    bias_filler {
      type: "constant"
      value: 0
    }
  }
}
layer {
  name: "relu3_1"
  type: "PReLU"
  bottom: "conv3_1"
  top: "conv3_1"
}
layer {
  name: "conv3_2"
  type: "Convolution"
  bottom: "conv3_1"
  top: "conv3_2"
  param {
    lr_mult: 1
    decay_mult: 1
  }
  param {
    lr_mult: 2
    decay_mult: 0
  }
  convolution_param {
    num_output: 128
    pad: 1
    kernel_size: 3
    stride: 1
    weight_filler {
      type: "gaussian"
      std: 0.01
    }
    bias_filler {
      type: "constant"
      value: 0
    }
  }
}
layer {
  name: "relu3_2"
  type: "PReLU"
  bottom: "conv3_2"
  top: "conv3_2"
}
layer {
  name: "res3_2"
  type: "Eltwise"
  bottom: "pool2"
  bottom: "conv3_2"
  top: "res3_2"
  eltwise_param {
    operation: SUM
  }
}
layer {
  name: "conv3_3"
  type: "Convolution"
  bottom: "res3_2"
  top: "conv3_3"
  param {
    lr_mult: 1
    decay_mult: 1
  }
  param {
    lr_mult: 2
    decay_mult: 0
  }
  convolution_param {
    num_output: 128
    pad: 1
    kernel_size: 3
    stride: 1
    weight_filler {
      type: "gaussian"
      std: 0.01
    }
    bias_filler {
      type: "constant"
      value: 0
    }
  }
}
layer {
  name: "relu3_3"
  type: "PReLU"
  bottom: "conv3_3"
  top: "conv3_3"
}
layer {
  name: "conv3_4"
  type: "Convolution"
  bottom: "conv3_3"
  top: "conv3_4"
  param {
    lr_mult: 1
    decay_mult: 1
  }
  param {
    lr_mult: 2
    decay_mult: 0
  }
  convolution_param {
    num_output: 128
    pad: 1
    kernel_size: 3
    stride: 1
    weight_filler {
      type: "gaussian"
      std: 0.01
    }
    bias_filler {
      type: "constant"
      value: 0
    }
  }
}
layer {
  name: "relu3_4"
  type: "PReLU"
  bottom: "conv3_4"
  top: "conv3_4"
}
layer {
  name: "res3_4"
  type: "Eltwise"
  bottom: "res3_2"
  bottom: "conv3_4"
  top: "res3_4"
  eltwise_param {
    operation: SUM
  }
}
layer {
  name: "conv3"
  type: "Convolution"
  bottom: "res3_4"
  top: "conv3"
  param {
    lr_mult: 1
    decay_mult: 1
  }
  param {
    lr_mult: 2
    decay_mult: 0
  }
  convolution_param {
    num_output: 256
    kernel_size: 3
    stride: 1
    weight_filler {
      type: "xavier"
    }
    bias_filler {
      type: "constant"
      value: 0
    }
  }
}
layer {
  name: "relu3"
  type: "PReLU"
  bottom: "conv3"
  top: "conv3"
}
layer {
  name: "pool3"
  type: "Pooling"
  bottom: "conv3"
  top: "pool3"
  pooling_param {
    pool: MAX
    kernel_size: 2
    stride: 2
  }
}
layer {
  name: "conv4_1"
  type: "Convolution"
  bottom: "pool3"
  top: "conv4_1"
  param {
    lr_mult: 1
    decay_mult: 1
  }
  param {
    lr_mult: 2
    decay_mult: 0
  }
  convolution_param {
    num_output: 256
    pad: 1
    kernel_size: 3
    stride: 1
    weight_filler {
      type: "gaussian"
      std: 0.01
    }
    bias_filler {
      type: "constant"
      value: 0
    }
  }
}
layer {
  name: "relu4_1"
  type: "PReLU"
  bottom: "conv4_1"
  top: "conv4_1"
}
layer {
  name: "conv4_2"
  type: "Convolution"
  bottom: "conv4_1"
  top: "conv4_2"
  param {
    lr_mult: 1
    decay_mult: 1
  }
  param {
    lr_mult: 2
    decay_mult: 0
  }
  convolution_param {
    num_output: 256
    pad: 1
    kernel_size: 3
    stride: 1
    weight_filler {
      type: "gaussian"
      std: 0.01
    }
    bias_filler {
      type: "constant"
      value: 0
    }
  }
}
layer {
  name: "relu4_2"
  type: "PReLU"
  bottom: "conv4_2"
  top: "conv4_2"
}
layer {
  name: "res4_2"
  type: "Eltwise"
  bottom: "pool3"
  bottom: "conv4_2"
  top: "res4_2"
  eltwise_param {
    operation: SUM
  }
}
layer {
  name: "conv4_3"
  type: "Convolution"
  bottom: "res4_2"
  top: "conv4_3"
  param {
    lr_mult: 1
    decay_mult: 1
  }
  param {
    lr_mult: 2
    decay_mult: 0
  }
  convolution_param {
    num_output: 256
    pad: 1
    kernel_size: 3
    stride: 1
    weight_filler {
      type: "gaussian"
      std: 0.01
    }
    bias_filler {
      type: "constant"
      value: 0
    }
  }
}
layer {
  name: "relu4_3"
  type: "PReLU"
  bottom: "conv4_3"
  top: "conv4_3"
}
layer {
  name: "conv4_4"
  type: "Convolution"
  bottom: "conv4_3"
  top: "conv4_4"
  param {
    lr_mult: 1
    decay_mult: 1
  }
  param {
    lr_mult: 2
    decay_mult: 0
  }
  convolution_param {
    num_output: 256
    pad: 1
    kernel_size: 3
    stride: 1
    weight_filler {
      type: "gaussian"
      std: 0.01
    }
    bias_filler {
      type: "constant"
      value: 0
    }
  }
}
layer {
  name: "relu4_4"
  type: "PReLU"
  bottom: "conv4_4"
  top: "conv4_4"
}
layer {
  name: "res4_4"
  type: "Eltwise"
  bottom: "res4_2"
  bottom: "conv4_4"
  top: "res4_4"
  eltwise_param {
    operation: SUM
  }
}
layer {
  name: "conv4_5"
  type: "Convolution"
  bottom: "res4_4"
  top: "conv4_5"
  param {
    lr_mult: 1
    decay_mult: 1
  }
  param {
    lr_mult: 2
    decay_mult: 0
  }
  convolution_param {
    num_output: 256
    pad: 1
    kernel_size: 3
    stride: 1
    weight_filler {
      type: "gaussian"
      std: 0.01
    }
    bias_filler {
      type: "constant"
      value: 0
    }
  }
}
layer {
  name: "relu4_5"
  type: "PReLU"
  bottom: "conv4_5"
  top: "conv4_5"
}
layer {
  name: "conv4_6"
  type: "Convolution"
  bottom: "conv4_5"
  top: "conv4_6"
  param {
    lr_mult: 1
    decay_mult: 1
  }
  param {
    lr_mult: 2
    decay_mult: 0
  }
  convolution_param {
    num_output: 256
    pad: 1
    kernel_size: 3
    stride: 1
    weight_filler {
      type: "gaussian"
      std: 0.01
    }
    bias_filler {
      type: "constant"
      value: 0
    }
  }
}
layer {
  name: "relu4_6"
  type: "PReLU"
  bottom: "conv4_6"
  top: "conv4_6"
}
layer {
  name: "res4_6"
  type: "Eltwise"
  bottom: "res4_4"
  bottom: "conv4_6"
  top: "res4_6"
  eltwise_param {
    operation: SUM
  }
}
layer {
  name: "conv4_7"
  type: "Convolution"
  bottom: "res4_6"
  top: "conv4_7"
  param {
    lr_mult: 1
    decay_mult: 1
  }
  param {
    lr_mult: 2
    decay_mult: 0
  }
  convolution_param {
    num_output: 256
    pad: 1
    kernel_size: 3
    stride: 1
    weight_filler {
      type: "gaussian"
      std: 0.01
    }
    bias_filler {
      type: "constant"
      value: 0
    }
  }
}
layer {
  name: "relu4_7"
  type: "PReLU"
  bottom: "conv4_7"
  top: "conv4_7"
}
layer {
  name: "conv4_8"
  type: "Convolution"
  bottom: "conv4_7"
  top: "conv4_8"
  param {
    lr_mult: 1
    decay_mult: 1
  }
  param {
    lr_mult: 2
    decay_mult: 0
  }
  convolution_param {
    num_output: 256
    pad: 1
    kernel_size: 3
    stride: 1
    weight_filler {
      type: "gaussian"
      std: 0.01
    }
    bias_filler {
      type: "constant"
      value: 0
    }
  }
}
layer {
  name: "relu4_8"
  type: "PReLU"
  bottom: "conv4_8"
  top: "conv4_8"
}
layer {
  name: "res4_8"
  type: "Eltwise"
  bottom: "res4_6"
  bottom: "conv4_8"
  top: "res4_8"
  eltwise_param {
    operation: SUM
  }
}
layer {
  name: "conv4_9"
  type: "Convolution"
  bottom: "res4_8"
  top: "conv4_9"
  param {
    lr_mult: 1
    decay_mult: 1
  }
  param {
    lr_mult: 2
    decay_mult: 0
  }
  convolution_param {
    num_output: 256
    pad: 1
    kernel_size: 3
    stride: 1
    weight_filler {
      type: "gaussian"
      std: 0.01
    }
    bias_filler {
      type: "constant"
      value: 0
    }
  }
}
layer {
  name: "relu4_9"
  type: "PReLU"
  bottom: "conv4_9"
  top: "conv4_9"
}
layer {
  name: "conv4_10"
  type: "Convolution"
  bottom: "conv4_9"
  top: "conv4_10"
  param {
    lr_mult: 1
    decay_mult: 1
  }
  param {
    lr_mult: 2
    decay_mult: 0
  }
  convolution_param {
    num_output: 256
    pad: 1
    kernel_size: 3
    stride: 1
    weight_filler {
      type: "gaussian"
      std: 0.01
    }
    bias_filler {
      type: "constant"
      value: 0
    }
  }
}
layer {
  name: "relu4_10"
  type: "PReLU"
  bottom: "conv4_10"
  top: "conv4_10"
}
layer {
  name: "res4_10"
  type: "Eltwise"
  bottom: "res4_8"
  bottom: "conv4_10"
  top: "res4_10"
  eltwise_param {
    operation: SUM
  }
}
layer {
  name: "conv4"
  type: "Convolution"
  bottom: "res4_10"
  top: "conv4"
  param {
    lr_mult: 1
    decay_mult: 1
  }
  param {
    lr_mult: 2
    decay_mult: 0
  }
  convolution_param {
    num_output: 512
    kernel_size: 3
    stride: 1
    weight_filler {
      type: "xavier"
    }
    bias_filler {
      type: "constant"
      value: 0
    }
  }
}
layer {
  name: "relu4"
  type: "PReLU"
  bottom: "conv4"
  top: "conv4"
}
layer {
  name: "pool4"
  type: "Pooling"
  bottom: "conv4"
  top: "pool4"
  pooling_param {
    pool: MAX
    kernel_size: 2
    stride: 2
  }
}
layer {
  name: "conv5_1"
  type: "Convolution"
  bottom: "pool4"
  top: "conv5_1"
  param {
    lr_mult: 1
    decay_mult: 1
  }
  param {
    lr_mult: 2
    decay_mult: 0
  }
  convolution_param {
    num_output: 512
    pad: 1
    kernel_size: 3
    stride: 1
    weight_filler {
      type: "gaussian"
      std: 0.01
    }
    bias_filler {
      type: "constant"
      value: 0
    }
  }
}
layer {
  name: "relu5_1"
  type: "PReLU"
  bottom: "conv5_1"
  top: "conv5_1"
}
layer {
  name: "conv5_2"
  type: "Convolution"
  bottom: "conv5_1"
  top: "conv5_2"
  param {
    lr_mult: 1
    decay_mult: 1
  }
  param {
    lr_mult: 2
    decay_mult: 0
  }
  convolution_param {
    num_output: 512
    pad: 1
    kernel_size: 3
    stride: 1
    weight_filler {
      type: "gaussian"
      std: 0.01
    }
    bias_filler {
      type: "constant"
      value: 0
    }
  }
}
layer {
  name: "relu5_2"
  type: "PReLU"
  bottom: "conv5_2"
  top: "conv5_2"
}
layer {
  name: "res5_2"
  type: "Eltwise"
  bottom: "pool4"
  bottom: "conv5_2"
  top: "res5_2"
  eltwise_param {
    operation: SUM
  }
}
layer {
  name: "conv5_3"
  type: "Convolution"
  bottom: "res5_2"
  top: "conv5_3"
  param {
    lr_mult: 1
    decay_mult: 1
  }
  param {
    lr_mult: 2
    decay_mult: 0
  }
  convolution_param {
    num_output: 512
    pad: 1
    kernel_size: 3
    stride: 1
    weight_filler {
      type: "gaussian"
      std: 0.01
    }
    bias_filler {
      type: "constant"
      value: 0
    }
  }
}
layer {
  name: "relu5_3"
  type: "PReLU"
  bottom: "conv5_3"
  top: "conv5_3"
}
layer {
  name: "conv5_4"
  type: "Convolution"
  bottom: "conv5_3"
  top: "conv5_4"
  param {
    lr_mult: 1
    decay_mult: 1
  }
  param {
    lr_mult: 2
    decay_mult: 0
  }
  convolution_param {
    num_output: 512
    pad: 1
    kernel_size: 3
    stride: 1
    weight_filler {
      type: "gaussian"
      std: 0.01
    }
    bias_filler {
      type: "constant"
      value: 0
    }
  }
}
layer {
  name: "relu5_4"
  type: "PReLU"
  bottom: "conv5_4"
  top: "conv5_4"
}
layer {
  name: "res5_4"
  type: "Eltwise"
  bottom: "res5_2"
  bottom: "conv5_4"
  top: "res5_4"
  eltwise_param {
    operation: SUM
  }
}
layer {
  name: "conv5_5"
  type: "Convolution"
  bottom: "res5_4"
  top: "conv5_5"
  param {
    lr_mult: 1
    decay_mult: 1
  }
  param {
    lr_mult: 2
    decay_mult: 0
  }
  convolution_param {
    num_output: 512
    pad: 1
    kernel_size: 3
    stride: 1
    weight_filler {
      type: "gaussian"
      std: 0.01
    }
    bias_filler {
      type: "constant"
      value: 0
    }
  }
}
layer {
  name: "relu5_5"
  type: "PReLU"
  bottom: "conv5_5"
  top: "conv5_5"
}
layer {
  name: "conv5_6"
  type: "Convolution"
  bottom: "conv5_5"
  top: "conv5_6"
  param {
    lr_mult: 1
    decay_mult: 1
  }
  param {
    lr_mult: 2
    decay_mult: 0
  }
  convolution_param {
    num_output: 512
    pad: 1
    kernel_size: 3
    stride: 1
    weight_filler {
      type: "gaussian"
      std: 0.01
    }
    bias_filler {
      type: "constant"
      value: 0
    }
  }
}
layer {
  name: "relu5_6"
  type: "PReLU"
  bottom: "conv5_6"
  top: "conv5_6"
}
layer {
  name: "res5_6"
  type: "Eltwise"
  bottom: "res5_4"
  bottom: "conv5_6"
  top: "res5_6"
  eltwise_param {
    operation: SUM
  }
}
layer {
  name: "fc5"
  type: "InnerProduct"
  bottom: "res5_6"
  top: "fc5"
  param {
    lr_mult: 1
    decay_mult: 1
  }
  param {
    lr_mult: 2
    decay_mult: 0
  }
  inner_product_param {
    num_output: 512
    weight_filler {
      type: "xavier"
    }
    bias_filler {
      type: "constant"
      value: 0
    }
  }
}
layer {
  name: "fc6"
  type: "InnerProduct"
  bottom: "fc5"
  top: "fc6"
  param {
    lr_mult: 1
    decay_mult: 1
  }
  param {
    lr_mult: 2
    decay_mult: 0
  }
  inner_product_param {
    num_output: 43074
    weight_filler {
      type: "xavier"
    }
    bias_filler {
      type: "constant"
      value: 0
    }
  }
}
layer {
  name: "softmax"
  type: "Softmax"
  bottom: "fc6"
  top: "prob"
}
layer {
  name: "accuracy"
  type: "Accuracy"
  bottom: "prob"
  bottom: "label"
  top: "accuracy"
}
layer {
  name: "softmax_loss"
  type: "SoftmaxWithLoss"
  bottom: "fc6"
  bottom: "label"
  top: "softmax_loss"
}
I1219 11:39:32.866667   397 layer_factory.hpp:77] Creating layer data
I1219 11:39:32.867486   397 net.cpp:100] Creating Layer data
I1219 11:39:32.867501   397 net.cpp:408] data -> data
I1219 11:39:32.867516   397 net.cpp:408] data -> label
I1219 11:39:32.870537   445 db_lmdb.cpp:35] Opened lmdb /home/licheng/face_data/face_lmdb_data/val_lmdb
I1219 11:39:32.870841   397 data_layer.cpp:41] output data size: 16,3,112,96
I1219 11:39:32.886595   397 net.cpp:150] Setting up data
I1219 11:39:32.886637   397 net.cpp:157] Top shape: 16 3 112 96 (516096)
I1219 11:39:32.886653   397 net.cpp:157] Top shape: 16 (16)
I1219 11:39:32.886663   397 net.cpp:165] Memory required for data: 2064448
I1219 11:39:32.886675   397 layer_factory.hpp:77] Creating layer label_data_1_split
I1219 11:39:32.886694   397 net.cpp:100] Creating Layer label_data_1_split
I1219 11:39:32.886705   397 net.cpp:434] label_data_1_split <- label
I1219 11:39:32.886720   397 net.cpp:408] label_data_1_split -> label_data_1_split_0
I1219 11:39:32.886741   397 net.cpp:408] label_data_1_split -> label_data_1_split_1
I1219 11:39:32.886888   397 net.cpp:150] Setting up label_data_1_split
I1219 11:39:32.886907   397 net.cpp:157] Top shape: 16 (16)
I1219 11:39:32.886919   397 net.cpp:157] Top shape: 16 (16)
I1219 11:39:32.886927   397 net.cpp:165] Memory required for data: 2064576
I1219 11:39:32.886937   397 layer_factory.hpp:77] Creating layer conv1a
I1219 11:39:32.886962   397 net.cpp:100] Creating Layer conv1a
I1219 11:39:32.886975   397 net.cpp:434] conv1a <- data
I1219 11:39:32.886991   397 net.cpp:408] conv1a -> conv1a
I1219 11:39:32.887567   397 net.cpp:150] Setting up conv1a
I1219 11:39:32.887590   397 net.cpp:157] Top shape: 16 32 110 94 (5294080)
I1219 11:39:32.887599   397 net.cpp:165] Memory required for data: 23240896
I1219 11:39:32.887621   397 layer_factory.hpp:77] Creating layer relu1a
I1219 11:39:32.887636   397 net.cpp:100] Creating Layer relu1a
I1219 11:39:32.887647   397 net.cpp:434] relu1a <- conv1a
I1219 11:39:32.887665   397 net.cpp:395] relu1a -> conv1a (in-place)
I1219 11:39:32.891047   397 net.cpp:150] Setting up relu1a
I1219 11:39:32.891091   397 net.cpp:157] Top shape: 16 32 110 94 (5294080)
I1219 11:39:32.891103   397 net.cpp:165] Memory required for data: 44417216
I1219 11:39:32.891120   397 layer_factory.hpp:77] Creating layer conv1b
I1219 11:39:32.891144   397 net.cpp:100] Creating Layer conv1b
I1219 11:39:32.891155   397 net.cpp:434] conv1b <- conv1a
I1219 11:39:32.891170   397 net.cpp:408] conv1b -> conv1b
I1219 11:39:32.891978   397 net.cpp:150] Setting up conv1b
I1219 11:39:32.892000   397 net.cpp:157] Top shape: 16 64 108 92 (10174464)
I1219 11:39:32.892009   397 net.cpp:165] Memory required for data: 85115072
I1219 11:39:32.892032   397 layer_factory.hpp:77] Creating layer relu1b
I1219 11:39:32.892050   397 net.cpp:100] Creating Layer relu1b
I1219 11:39:32.892060   397 net.cpp:434] relu1b <- conv1b
I1219 11:39:32.892081   397 net.cpp:395] relu1b -> conv1b (in-place)
I1219 11:39:32.895808   397 net.cpp:150] Setting up relu1b
I1219 11:39:32.895851   397 net.cpp:157] Top shape: 16 64 108 92 (10174464)
I1219 11:39:32.895881   397 net.cpp:165] Memory required for data: 125812928
I1219 11:39:32.895896   397 layer_factory.hpp:77] Creating layer pool1b
I1219 11:39:32.895912   397 net.cpp:100] Creating Layer pool1b
I1219 11:39:32.895923   397 net.cpp:434] pool1b <- conv1b
I1219 11:39:32.895941   397 net.cpp:408] pool1b -> pool1b
I1219 11:39:32.896029   397 net.cpp:150] Setting up pool1b
I1219 11:39:32.896046   397 net.cpp:157] Top shape: 16 64 54 46 (2543616)
I1219 11:39:32.896054   397 net.cpp:165] Memory required for data: 135987392
I1219 11:39:32.896064   397 layer_factory.hpp:77] Creating layer pool1b_pool1b_0_split
I1219 11:39:32.896083   397 net.cpp:100] Creating Layer pool1b_pool1b_0_split
I1219 11:39:32.896092   397 net.cpp:434] pool1b_pool1b_0_split <- pool1b
I1219 11:39:32.896107   397 net.cpp:408] pool1b_pool1b_0_split -> pool1b_pool1b_0_split_0
I1219 11:39:32.896121   397 net.cpp:408] pool1b_pool1b_0_split -> pool1b_pool1b_0_split_1
I1219 11:39:32.896193   397 net.cpp:150] Setting up pool1b_pool1b_0_split
I1219 11:39:32.896214   397 net.cpp:157] Top shape: 16 64 54 46 (2543616)
I1219 11:39:32.896224   397 net.cpp:157] Top shape: 16 64 54 46 (2543616)
I1219 11:39:32.896237   397 net.cpp:165] Memory required for data: 156336320
I1219 11:39:32.896250   397 layer_factory.hpp:77] Creating layer conv2_1
I1219 11:39:32.896273   397 net.cpp:100] Creating Layer conv2_1
I1219 11:39:32.896283   397 net.cpp:434] conv2_1 <- pool1b_pool1b_0_split_0
I1219 11:39:32.896297   397 net.cpp:408] conv2_1 -> conv2_1
I1219 11:39:32.898875   397 net.cpp:150] Setting up conv2_1
I1219 11:39:32.898896   397 net.cpp:157] Top shape: 16 64 54 46 (2543616)
I1219 11:39:32.898905   397 net.cpp:165] Memory required for data: 166510784
I1219 11:39:32.898918   397 layer_factory.hpp:77] Creating layer relu2_1
I1219 11:39:32.898933   397 net.cpp:100] Creating Layer relu2_1
I1219 11:39:32.898944   397 net.cpp:434] relu2_1 <- conv2_1
I1219 11:39:32.898958   397 net.cpp:395] relu2_1 -> conv2_1 (in-place)
I1219 11:39:32.899327   397 net.cpp:150] Setting up relu2_1
I1219 11:39:32.899344   397 net.cpp:157] Top shape: 16 64 54 46 (2543616)
I1219 11:39:32.899353   397 net.cpp:165] Memory required for data: 176685248
I1219 11:39:32.899369   397 layer_factory.hpp:77] Creating layer conv2_2
I1219 11:39:32.899391   397 net.cpp:100] Creating Layer conv2_2
I1219 11:39:32.899401   397 net.cpp:434] conv2_2 <- conv2_1
I1219 11:39:32.899413   397 net.cpp:408] conv2_2 -> conv2_2
I1219 11:39:32.901803   397 net.cpp:150] Setting up conv2_2
I1219 11:39:32.901821   397 net.cpp:157] Top shape: 16 64 54 46 (2543616)
I1219 11:39:32.901830   397 net.cpp:165] Memory required for data: 186859712
I1219 11:39:32.901844   397 layer_factory.hpp:77] Creating layer relu2_2
I1219 11:39:32.901859   397 net.cpp:100] Creating Layer relu2_2
I1219 11:39:32.901867   397 net.cpp:434] relu2_2 <- conv2_2
I1219 11:39:32.901878   397 net.cpp:395] relu2_2 -> conv2_2 (in-place)
I1219 11:39:32.904439   397 net.cpp:150] Setting up relu2_2
I1219 11:39:32.904470   397 net.cpp:157] Top shape: 16 64 54 46 (2543616)
I1219 11:39:32.904480   397 net.cpp:165] Memory required for data: 197034176
I1219 11:39:32.904492   397 layer_factory.hpp:77] Creating layer res2_2
I1219 11:39:32.904511   397 net.cpp:100] Creating Layer res2_2
I1219 11:39:32.904521   397 net.cpp:434] res2_2 <- pool1b_pool1b_0_split_1
I1219 11:39:32.904533   397 net.cpp:434] res2_2 <- conv2_2
I1219 11:39:32.904544   397 net.cpp:408] res2_2 -> res2_2
I1219 11:39:32.904599   397 net.cpp:150] Setting up res2_2
I1219 11:39:32.904613   397 net.cpp:157] Top shape: 16 64 54 46 (2543616)
I1219 11:39:32.904621   397 net.cpp:165] Memory required for data: 207208640
I1219 11:39:32.904629   397 layer_factory.hpp:77] Creating layer conv2
I1219 11:39:32.904649   397 net.cpp:100] Creating Layer conv2
I1219 11:39:32.904659   397 net.cpp:434] conv2 <- res2_2
I1219 11:39:32.904675   397 net.cpp:408] conv2 -> conv2
I1219 11:39:32.905890   397 net.cpp:150] Setting up conv2
I1219 11:39:32.905918   397 net.cpp:157] Top shape: 16 128 52 44 (4685824)
I1219 11:39:32.905942   397 net.cpp:165] Memory required for data: 225951936
I1219 11:39:32.905956   397 layer_factory.hpp:77] Creating layer relu2
I1219 11:39:32.905975   397 net.cpp:100] Creating Layer relu2
I1219 11:39:32.905984   397 net.cpp:434] relu2 <- conv2
I1219 11:39:32.905995   397 net.cpp:395] relu2 -> conv2 (in-place)
I1219 11:39:32.908743   397 net.cpp:150] Setting up relu2
I1219 11:39:32.908772   397 net.cpp:157] Top shape: 16 128 52 44 (4685824)
I1219 11:39:32.908782   397 net.cpp:165] Memory required for data: 244695232
I1219 11:39:32.908793   397 layer_factory.hpp:77] Creating layer pool2
I1219 11:39:32.908812   397 net.cpp:100] Creating Layer pool2
I1219 11:39:32.908820   397 net.cpp:434] pool2 <- conv2
I1219 11:39:32.908833   397 net.cpp:408] pool2 -> pool2
I1219 11:39:32.908910   397 net.cpp:150] Setting up pool2
I1219 11:39:32.908923   397 net.cpp:157] Top shape: 16 128 26 22 (1171456)
I1219 11:39:32.908931   397 net.cpp:165] Memory required for data: 249381056
I1219 11:39:32.908939   397 layer_factory.hpp:77] Creating layer pool2_pool2_0_split
I1219 11:39:32.908952   397 net.cpp:100] Creating Layer pool2_pool2_0_split
I1219 11:39:32.908960   397 net.cpp:434] pool2_pool2_0_split <- pool2
I1219 11:39:32.908975   397 net.cpp:408] pool2_pool2_0_split -> pool2_pool2_0_split_0
I1219 11:39:32.908988   397 net.cpp:408] pool2_pool2_0_split -> pool2_pool2_0_split_1
I1219 11:39:32.909054   397 net.cpp:150] Setting up pool2_pool2_0_split
I1219 11:39:32.909073   397 net.cpp:157] Top shape: 16 128 26 22 (1171456)
I1219 11:39:32.909085   397 net.cpp:157] Top shape: 16 128 26 22 (1171456)
I1219 11:39:32.909092   397 net.cpp:165] Memory required for data: 258752704
I1219 11:39:32.909099   397 layer_factory.hpp:77] Creating layer conv3_1
I1219 11:39:32.909121   397 net.cpp:100] Creating Layer conv3_1
I1219 11:39:32.909129   397 net.cpp:434] conv3_1 <- pool2_pool2_0_split_0
I1219 11:39:32.909142   397 net.cpp:408] conv3_1 -> conv3_1
I1219 11:39:32.916782   397 net.cpp:150] Setting up conv3_1
I1219 11:39:32.916806   397 net.cpp:157] Top shape: 16 128 26 22 (1171456)
I1219 11:39:32.916815   397 net.cpp:165] Memory required for data: 263438528
I1219 11:39:32.916831   397 layer_factory.hpp:77] Creating layer relu3_1
I1219 11:39:32.916843   397 net.cpp:100] Creating Layer relu3_1
I1219 11:39:32.916852   397 net.cpp:434] relu3_1 <- conv3_1
I1219 11:39:32.916877   397 net.cpp:395] relu3_1 -> conv3_1 (in-place)
I1219 11:39:32.917122   397 net.cpp:150] Setting up relu3_1
I1219 11:39:32.917140   397 net.cpp:157] Top shape: 16 128 26 22 (1171456)
I1219 11:39:32.917147   397 net.cpp:165] Memory required for data: 268124352
I1219 11:39:32.917157   397 layer_factory.hpp:77] Creating layer conv3_2
I1219 11:39:32.917176   397 net.cpp:100] Creating Layer conv3_2
I1219 11:39:32.917186   397 net.cpp:434] conv3_2 <- conv3_1
I1219 11:39:32.917201   397 net.cpp:408] conv3_2 -> conv3_2
I1219 11:39:32.924459   397 net.cpp:150] Setting up conv3_2
I1219 11:39:32.924477   397 net.cpp:157] Top shape: 16 128 26 22 (1171456)
I1219 11:39:32.924484   397 net.cpp:165] Memory required for data: 272810176
I1219 11:39:32.924495   397 layer_factory.hpp:77] Creating layer relu3_2
I1219 11:39:32.924506   397 net.cpp:100] Creating Layer relu3_2
I1219 11:39:32.924515   397 net.cpp:434] relu3_2 <- conv3_2
I1219 11:39:32.924527   397 net.cpp:395] relu3_2 -> conv3_2 (in-place)
I1219 11:39:32.924746   397 net.cpp:150] Setting up relu3_2
I1219 11:39:32.924760   397 net.cpp:157] Top shape: 16 128 26 22 (1171456)
I1219 11:39:32.924767   397 net.cpp:165] Memory required for data: 277496000
I1219 11:39:32.924777   397 layer_factory.hpp:77] Creating layer res3_2
I1219 11:39:32.924791   397 net.cpp:100] Creating Layer res3_2
I1219 11:39:32.924800   397 net.cpp:434] res3_2 <- pool2_pool2_0_split_1
I1219 11:39:32.924809   397 net.cpp:434] res3_2 <- conv3_2
I1219 11:39:32.924819   397 net.cpp:408] res3_2 -> res3_2
I1219 11:39:32.924863   397 net.cpp:150] Setting up res3_2
I1219 11:39:32.924885   397 net.cpp:157] Top shape: 16 128 26 22 (1171456)
I1219 11:39:32.924911   397 net.cpp:165] Memory required for data: 282181824
I1219 11:39:32.924918   397 layer_factory.hpp:77] Creating layer res3_2_res3_2_0_split
I1219 11:39:32.924928   397 net.cpp:100] Creating Layer res3_2_res3_2_0_split
I1219 11:39:32.924937   397 net.cpp:434] res3_2_res3_2_0_split <- res3_2
I1219 11:39:32.924952   397 net.cpp:408] res3_2_res3_2_0_split -> res3_2_res3_2_0_split_0
I1219 11:39:32.924962   397 net.cpp:408] res3_2_res3_2_0_split -> res3_2_res3_2_0_split_1
I1219 11:39:32.925024   397 net.cpp:150] Setting up res3_2_res3_2_0_split
I1219 11:39:32.925040   397 net.cpp:157] Top shape: 16 128 26 22 (1171456)
I1219 11:39:32.925048   397 net.cpp:157] Top shape: 16 128 26 22 (1171456)
I1219 11:39:32.925056   397 net.cpp:165] Memory required for data: 291553472
I1219 11:39:32.925063   397 layer_factory.hpp:77] Creating layer conv3_3
I1219 11:39:32.925091   397 net.cpp:100] Creating Layer conv3_3
I1219 11:39:32.925101   397 net.cpp:434] conv3_3 <- res3_2_res3_2_0_split_0
I1219 11:39:32.925112   397 net.cpp:408] conv3_3 -> conv3_3
I1219 11:39:32.934547   397 net.cpp:150] Setting up conv3_3
I1219 11:39:32.934577   397 net.cpp:157] Top shape: 16 128 26 22 (1171456)
I1219 11:39:32.934587   397 net.cpp:165] Memory required for data: 296239296
I1219 11:39:32.934598   397 layer_factory.hpp:77] Creating layer relu3_3
I1219 11:39:32.934609   397 net.cpp:100] Creating Layer relu3_3
I1219 11:39:32.934617   397 net.cpp:434] relu3_3 <- conv3_3
I1219 11:39:32.934626   397 net.cpp:395] relu3_3 -> conv3_3 (in-place)
I1219 11:39:32.934844   397 net.cpp:150] Setting up relu3_3
I1219 11:39:32.934859   397 net.cpp:157] Top shape: 16 128 26 22 (1171456)
I1219 11:39:32.934864   397 net.cpp:165] Memory required for data: 300925120
I1219 11:39:32.934875   397 layer_factory.hpp:77] Creating layer conv3_4
I1219 11:39:32.934895   397 net.cpp:100] Creating Layer conv3_4
I1219 11:39:32.934902   397 net.cpp:434] conv3_4 <- conv3_3
I1219 11:39:32.934913   397 net.cpp:408] conv3_4 -> conv3_4
I1219 11:39:32.941535   397 net.cpp:150] Setting up conv3_4
I1219 11:39:32.941555   397 net.cpp:157] Top shape: 16 128 26 22 (1171456)
I1219 11:39:32.941562   397 net.cpp:165] Memory required for data: 305610944
I1219 11:39:32.941572   397 layer_factory.hpp:77] Creating layer relu3_4
I1219 11:39:32.941581   397 net.cpp:100] Creating Layer relu3_4
I1219 11:39:32.941589   397 net.cpp:434] relu3_4 <- conv3_4
I1219 11:39:32.941597   397 net.cpp:395] relu3_4 -> conv3_4 (in-place)
I1219 11:39:32.941793   397 net.cpp:150] Setting up relu3_4
I1219 11:39:32.941807   397 net.cpp:157] Top shape: 16 128 26 22 (1171456)
I1219 11:39:32.941813   397 net.cpp:165] Memory required for data: 310296768
I1219 11:39:32.941821   397 layer_factory.hpp:77] Creating layer res3_4
I1219 11:39:32.941836   397 net.cpp:100] Creating Layer res3_4
I1219 11:39:32.941843   397 net.cpp:434] res3_4 <- res3_2_res3_2_0_split_1
I1219 11:39:32.941853   397 net.cpp:434] res3_4 <- conv3_4
I1219 11:39:32.941864   397 net.cpp:408] res3_4 -> res3_4
I1219 11:39:32.941900   397 net.cpp:150] Setting up res3_4
I1219 11:39:32.941911   397 net.cpp:157] Top shape: 16 128 26 22 (1171456)
I1219 11:39:32.941917   397 net.cpp:165] Memory required for data: 314982592
I1219 11:39:32.941923   397 layer_factory.hpp:77] Creating layer conv3
I1219 11:39:32.941943   397 net.cpp:100] Creating Layer conv3
I1219 11:39:32.941951   397 net.cpp:434] conv3 <- res3_4
I1219 11:39:32.941961   397 net.cpp:408] conv3 -> conv3
I1219 11:39:32.947185   397 net.cpp:150] Setting up conv3
I1219 11:39:32.947211   397 net.cpp:157] Top shape: 16 256 24 20 (1966080)
I1219 11:39:32.947218   397 net.cpp:165] Memory required for data: 322846912
I1219 11:39:32.947229   397 layer_factory.hpp:77] Creating layer relu3
I1219 11:39:32.947239   397 net.cpp:100] Creating Layer relu3
I1219 11:39:32.947247   397 net.cpp:434] relu3 <- conv3
I1219 11:39:32.947260   397 net.cpp:395] relu3 -> conv3 (in-place)
I1219 11:39:32.947515   397 net.cpp:150] Setting up relu3
I1219 11:39:32.947536   397 net.cpp:157] Top shape: 16 256 24 20 (1966080)
I1219 11:39:32.947558   397 net.cpp:165] Memory required for data: 330711232
I1219 11:39:32.947568   397 layer_factory.hpp:77] Creating layer pool3
I1219 11:39:32.947582   397 net.cpp:100] Creating Layer pool3
I1219 11:39:32.947588   397 net.cpp:434] pool3 <- conv3
I1219 11:39:32.947597   397 net.cpp:408] pool3 -> pool3
I1219 11:39:32.947661   397 net.cpp:150] Setting up pool3
I1219 11:39:32.947672   397 net.cpp:157] Top shape: 16 256 12 10 (491520)
I1219 11:39:32.947679   397 net.cpp:165] Memory required for data: 332677312
I1219 11:39:32.947685   397 layer_factory.hpp:77] Creating layer pool3_pool3_0_split
I1219 11:39:32.947698   397 net.cpp:100] Creating Layer pool3_pool3_0_split
I1219 11:39:32.947705   397 net.cpp:434] pool3_pool3_0_split <- pool3
I1219 11:39:32.947713   397 net.cpp:408] pool3_pool3_0_split -> pool3_pool3_0_split_0
I1219 11:39:32.947724   397 net.cpp:408] pool3_pool3_0_split -> pool3_pool3_0_split_1
I1219 11:39:32.947788   397 net.cpp:150] Setting up pool3_pool3_0_split
I1219 11:39:32.947799   397 net.cpp:157] Top shape: 16 256 12 10 (491520)
I1219 11:39:32.947808   397 net.cpp:157] Top shape: 16 256 12 10 (491520)
I1219 11:39:32.947814   397 net.cpp:165] Memory required for data: 336609472
I1219 11:39:32.947820   397 layer_factory.hpp:77] Creating layer conv4_1
I1219 11:39:32.947840   397 net.cpp:100] Creating Layer conv4_1
I1219 11:39:32.947849   397 net.cpp:434] conv4_1 <- pool3_pool3_0_split_0
I1219 11:39:32.947863   397 net.cpp:408] conv4_1 -> conv4_1
I1219 11:39:32.975024   397 net.cpp:150] Setting up conv4_1
I1219 11:39:32.975049   397 net.cpp:157] Top shape: 16 256 12 10 (491520)
I1219 11:39:32.975055   397 net.cpp:165] Memory required for data: 338575552
I1219 11:39:32.975070   397 layer_factory.hpp:77] Creating layer relu4_1
I1219 11:39:32.975081   397 net.cpp:100] Creating Layer relu4_1
I1219 11:39:32.975090   397 net.cpp:434] relu4_1 <- conv4_1
I1219 11:39:32.975101   397 net.cpp:395] relu4_1 -> conv4_1 (in-place)
I1219 11:39:32.975272   397 net.cpp:150] Setting up relu4_1
I1219 11:39:32.975284   397 net.cpp:157] Top shape: 16 256 12 10 (491520)
I1219 11:39:32.975291   397 net.cpp:165] Memory required for data: 340541632
I1219 11:39:32.975309   397 layer_factory.hpp:77] Creating layer conv4_2
I1219 11:39:32.975324   397 net.cpp:100] Creating Layer conv4_2
I1219 11:39:32.975332   397 net.cpp:434] conv4_2 <- conv4_1
I1219 11:39:32.975343   397 net.cpp:408] conv4_2 -> conv4_2
I1219 11:39:32.999310   397 net.cpp:150] Setting up conv4_2
I1219 11:39:32.999336   397 net.cpp:157] Top shape: 16 256 12 10 (491520)
I1219 11:39:32.999341   397 net.cpp:165] Memory required for data: 342507712
I1219 11:39:32.999351   397 layer_factory.hpp:77] Creating layer relu4_2
I1219 11:39:32.999363   397 net.cpp:100] Creating Layer relu4_2
I1219 11:39:32.999369   397 net.cpp:434] relu4_2 <- conv4_2
I1219 11:39:32.999377   397 net.cpp:395] relu4_2 -> conv4_2 (in-place)
I1219 11:39:32.999543   397 net.cpp:150] Setting up relu4_2
I1219 11:39:32.999554   397 net.cpp:157] Top shape: 16 256 12 10 (491520)
I1219 11:39:32.999559   397 net.cpp:165] Memory required for data: 344473792
I1219 11:39:32.999567   397 layer_factory.hpp:77] Creating layer res4_2
I1219 11:39:32.999583   397 net.cpp:100] Creating Layer res4_2
I1219 11:39:32.999588   397 net.cpp:434] res4_2 <- pool3_pool3_0_split_1
I1219 11:39:32.999595   397 net.cpp:434] res4_2 <- conv4_2
I1219 11:39:32.999603   397 net.cpp:408] res4_2 -> res4_2
I1219 11:39:32.999637   397 net.cpp:150] Setting up res4_2
I1219 11:39:32.999646   397 net.cpp:157] Top shape: 16 256 12 10 (491520)
I1219 11:39:32.999651   397 net.cpp:165] Memory required for data: 346439872
I1219 11:39:32.999657   397 layer_factory.hpp:77] Creating layer res4_2_res4_2_0_split
I1219 11:39:32.999665   397 net.cpp:100] Creating Layer res4_2_res4_2_0_split
I1219 11:39:32.999670   397 net.cpp:434] res4_2_res4_2_0_split <- res4_2
I1219 11:39:32.999681   397 net.cpp:408] res4_2_res4_2_0_split -> res4_2_res4_2_0_split_0
I1219 11:39:32.999691   397 net.cpp:408] res4_2_res4_2_0_split -> res4_2_res4_2_0_split_1
I1219 11:39:32.999765   397 net.cpp:150] Setting up res4_2_res4_2_0_split
I1219 11:39:32.999775   397 net.cpp:157] Top shape: 16 256 12 10 (491520)
I1219 11:39:32.999786   397 net.cpp:157] Top shape: 16 256 12 10 (491520)
I1219 11:39:32.999791   397 net.cpp:165] Memory required for data: 350372032
I1219 11:39:32.999796   397 layer_factory.hpp:77] Creating layer conv4_3
I1219 11:39:32.999809   397 net.cpp:100] Creating Layer conv4_3
I1219 11:39:32.999814   397 net.cpp:434] conv4_3 <- res4_2_res4_2_0_split_0
I1219 11:39:32.999826   397 net.cpp:408] conv4_3 -> conv4_3
I1219 11:39:33.022707   397 net.cpp:150] Setting up conv4_3
I1219 11:39:33.022730   397 net.cpp:157] Top shape: 16 256 12 10 (491520)
I1219 11:39:33.022737   397 net.cpp:165] Memory required for data: 352338112
I1219 11:39:33.022745   397 layer_factory.hpp:77] Creating layer relu4_3
I1219 11:39:33.022758   397 net.cpp:100] Creating Layer relu4_3
I1219 11:39:33.022764   397 net.cpp:434] relu4_3 <- conv4_3
I1219 11:39:33.022773   397 net.cpp:395] relu4_3 -> conv4_3 (in-place)
I1219 11:39:33.022915   397 net.cpp:150] Setting up relu4_3
I1219 11:39:33.022925   397 net.cpp:157] Top shape: 16 256 12 10 (491520)
I1219 11:39:33.022931   397 net.cpp:165] Memory required for data: 354304192
I1219 11:39:33.022938   397 layer_factory.hpp:77] Creating layer conv4_4
I1219 11:39:33.022956   397 net.cpp:100] Creating Layer conv4_4
I1219 11:39:33.022964   397 net.cpp:434] conv4_4 <- conv4_3
I1219 11:39:33.022971   397 net.cpp:408] conv4_4 -> conv4_4
I1219 11:39:33.045814   397 net.cpp:150] Setting up conv4_4
I1219 11:39:33.045835   397 net.cpp:157] Top shape: 16 256 12 10 (491520)
I1219 11:39:33.045841   397 net.cpp:165] Memory required for data: 356270272
I1219 11:39:33.045851   397 layer_factory.hpp:77] Creating layer relu4_4
I1219 11:39:33.045863   397 net.cpp:100] Creating Layer relu4_4
I1219 11:39:33.045869   397 net.cpp:434] relu4_4 <- conv4_4
I1219 11:39:33.045877   397 net.cpp:395] relu4_4 -> conv4_4 (in-place)
I1219 11:39:33.046021   397 net.cpp:150] Setting up relu4_4
I1219 11:39:33.046032   397 net.cpp:157] Top shape: 16 256 12 10 (491520)
I1219 11:39:33.046037   397 net.cpp:165] Memory required for data: 358236352
I1219 11:39:33.046044   397 layer_factory.hpp:77] Creating layer res4_4
I1219 11:39:33.046053   397 net.cpp:100] Creating Layer res4_4
I1219 11:39:33.046061   397 net.cpp:434] res4_4 <- res4_2_res4_2_0_split_1
I1219 11:39:33.046070   397 net.cpp:434] res4_4 <- conv4_4
I1219 11:39:33.046079   397 net.cpp:408] res4_4 -> res4_4
I1219 11:39:33.046114   397 net.cpp:150] Setting up res4_4
I1219 11:39:33.046123   397 net.cpp:157] Top shape: 16 256 12 10 (491520)
I1219 11:39:33.046129   397 net.cpp:165] Memory required for data: 360202432
I1219 11:39:33.046134   397 layer_factory.hpp:77] Creating layer res4_4_res4_4_0_split
I1219 11:39:33.046144   397 net.cpp:100] Creating Layer res4_4_res4_4_0_split
I1219 11:39:33.046150   397 net.cpp:434] res4_4_res4_4_0_split <- res4_4
I1219 11:39:33.046157   397 net.cpp:408] res4_4_res4_4_0_split -> res4_4_res4_4_0_split_0
I1219 11:39:33.046166   397 net.cpp:408] res4_4_res4_4_0_split -> res4_4_res4_4_0_split_1
I1219 11:39:33.046211   397 net.cpp:150] Setting up res4_4_res4_4_0_split
I1219 11:39:33.046221   397 net.cpp:157] Top shape: 16 256 12 10 (491520)
I1219 11:39:33.046227   397 net.cpp:157] Top shape: 16 256 12 10 (491520)
I1219 11:39:33.046232   397 net.cpp:165] Memory required for data: 364134592
I1219 11:39:33.046237   397 layer_factory.hpp:77] Creating layer conv4_5
I1219 11:39:33.046252   397 net.cpp:100] Creating Layer conv4_5
I1219 11:39:33.046259   397 net.cpp:434] conv4_5 <- res4_4_res4_4_0_split_0
I1219 11:39:33.046272   397 net.cpp:408] conv4_5 -> conv4_5
I1219 11:39:33.069219   397 net.cpp:150] Setting up conv4_5
I1219 11:39:33.069242   397 net.cpp:157] Top shape: 16 256 12 10 (491520)
I1219 11:39:33.069247   397 net.cpp:165] Memory required for data: 366100672
I1219 11:39:33.069257   397 layer_factory.hpp:77] Creating layer relu4_5
I1219 11:39:33.069272   397 net.cpp:100] Creating Layer relu4_5
I1219 11:39:33.069293   397 net.cpp:434] relu4_5 <- conv4_5
I1219 11:39:33.069300   397 net.cpp:395] relu4_5 -> conv4_5 (in-place)
I1219 11:39:33.069447   397 net.cpp:150] Setting up relu4_5
I1219 11:39:33.069458   397 net.cpp:157] Top shape: 16 256 12 10 (491520)
I1219 11:39:33.069463   397 net.cpp:165] Memory required for data: 368066752
I1219 11:39:33.069471   397 layer_factory.hpp:77] Creating layer conv4_6
I1219 11:39:33.069486   397 net.cpp:100] Creating Layer conv4_6
I1219 11:39:33.069492   397 net.cpp:434] conv4_6 <- conv4_5
I1219 11:39:33.069504   397 net.cpp:408] conv4_6 -> conv4_6
I1219 11:39:33.091815   397 net.cpp:150] Setting up conv4_6
I1219 11:39:33.091836   397 net.cpp:157] Top shape: 16 256 12 10 (491520)
I1219 11:39:33.091842   397 net.cpp:165] Memory required for data: 370032832
I1219 11:39:33.091851   397 layer_factory.hpp:77] Creating layer relu4_6
I1219 11:39:33.091861   397 net.cpp:100] Creating Layer relu4_6
I1219 11:39:33.091867   397 net.cpp:434] relu4_6 <- conv4_6
I1219 11:39:33.091878   397 net.cpp:395] relu4_6 -> conv4_6 (in-place)
I1219 11:39:33.092023   397 net.cpp:150] Setting up relu4_6
I1219 11:39:33.092034   397 net.cpp:157] Top shape: 16 256 12 10 (491520)
I1219 11:39:33.092039   397 net.cpp:165] Memory required for data: 371998912
I1219 11:39:33.092046   397 layer_factory.hpp:77] Creating layer res4_6
I1219 11:39:33.092058   397 net.cpp:100] Creating Layer res4_6
I1219 11:39:33.092066   397 net.cpp:434] res4_6 <- res4_4_res4_4_0_split_1
I1219 11:39:33.092077   397 net.cpp:434] res4_6 <- conv4_6
I1219 11:39:33.092084   397 net.cpp:408] res4_6 -> res4_6
I1219 11:39:33.092119   397 net.cpp:150] Setting up res4_6
I1219 11:39:33.092128   397 net.cpp:157] Top shape: 16 256 12 10 (491520)
I1219 11:39:33.092133   397 net.cpp:165] Memory required for data: 373964992
I1219 11:39:33.092139   397 layer_factory.hpp:77] Creating layer res4_6_res4_6_0_split
I1219 11:39:33.092147   397 net.cpp:100] Creating Layer res4_6_res4_6_0_split
I1219 11:39:33.092152   397 net.cpp:434] res4_6_res4_6_0_split <- res4_6
I1219 11:39:33.092162   397 net.cpp:408] res4_6_res4_6_0_split -> res4_6_res4_6_0_split_0
I1219 11:39:33.092171   397 net.cpp:408] res4_6_res4_6_0_split -> res4_6_res4_6_0_split_1
I1219 11:39:33.092216   397 net.cpp:150] Setting up res4_6_res4_6_0_split
I1219 11:39:33.092227   397 net.cpp:157] Top shape: 16 256 12 10 (491520)
I1219 11:39:33.092234   397 net.cpp:157] Top shape: 16 256 12 10 (491520)
I1219 11:39:33.092239   397 net.cpp:165] Memory required for data: 377897152
I1219 11:39:33.092245   397 layer_factory.hpp:77] Creating layer conv4_7
I1219 11:39:33.092262   397 net.cpp:100] Creating Layer conv4_7
I1219 11:39:33.092267   397 net.cpp:434] conv4_7 <- res4_6_res4_6_0_split_0
I1219 11:39:33.092277   397 net.cpp:408] conv4_7 -> conv4_7
I1219 11:39:33.114569   397 net.cpp:150] Setting up conv4_7
I1219 11:39:33.114590   397 net.cpp:157] Top shape: 16 256 12 10 (491520)
I1219 11:39:33.114596   397 net.cpp:165] Memory required for data: 379863232
I1219 11:39:33.114605   397 layer_factory.hpp:77] Creating layer relu4_7
I1219 11:39:33.114617   397 net.cpp:100] Creating Layer relu4_7
I1219 11:39:33.114624   397 net.cpp:434] relu4_7 <- conv4_7
I1219 11:39:33.114631   397 net.cpp:395] relu4_7 -> conv4_7 (in-place)
I1219 11:39:33.114780   397 net.cpp:150] Setting up relu4_7
I1219 11:39:33.114790   397 net.cpp:157] Top shape: 16 256 12 10 (491520)
I1219 11:39:33.114796   397 net.cpp:165] Memory required for data: 381829312
I1219 11:39:33.114804   397 layer_factory.hpp:77] Creating layer conv4_8
I1219 11:39:33.114819   397 net.cpp:100] Creating Layer conv4_8
I1219 11:39:33.114825   397 net.cpp:434] conv4_8 <- conv4_7
I1219 11:39:33.114835   397 net.cpp:408] conv4_8 -> conv4_8
I1219 11:39:33.138242   397 net.cpp:150] Setting up conv4_8
I1219 11:39:33.138267   397 net.cpp:157] Top shape: 16 256 12 10 (491520)
I1219 11:39:33.138273   397 net.cpp:165] Memory required for data: 383795392
I1219 11:39:33.138283   397 layer_factory.hpp:77] Creating layer relu4_8
I1219 11:39:33.138298   397 net.cpp:100] Creating Layer relu4_8
I1219 11:39:33.138319   397 net.cpp:434] relu4_8 <- conv4_8
I1219 11:39:33.138329   397 net.cpp:395] relu4_8 -> conv4_8 (in-place)
I1219 11:39:33.138479   397 net.cpp:150] Setting up relu4_8
I1219 11:39:33.138490   397 net.cpp:157] Top shape: 16 256 12 10 (491520)
I1219 11:39:33.138496   397 net.cpp:165] Memory required for data: 385761472
I1219 11:39:33.138504   397 layer_factory.hpp:77] Creating layer res4_8
I1219 11:39:33.138515   397 net.cpp:100] Creating Layer res4_8
I1219 11:39:33.138522   397 net.cpp:434] res4_8 <- res4_6_res4_6_0_split_1
I1219 11:39:33.138530   397 net.cpp:434] res4_8 <- conv4_8
I1219 11:39:33.138536   397 net.cpp:408] res4_8 -> res4_8
I1219 11:39:33.138571   397 net.cpp:150] Setting up res4_8
I1219 11:39:33.138581   397 net.cpp:157] Top shape: 16 256 12 10 (491520)
I1219 11:39:33.138586   397 net.cpp:165] Memory required for data: 387727552
I1219 11:39:33.138592   397 layer_factory.hpp:77] Creating layer res4_8_res4_8_0_split
I1219 11:39:33.138599   397 net.cpp:100] Creating Layer res4_8_res4_8_0_split
I1219 11:39:33.138605   397 net.cpp:434] res4_8_res4_8_0_split <- res4_8
I1219 11:39:33.138617   397 net.cpp:408] res4_8_res4_8_0_split -> res4_8_res4_8_0_split_0
I1219 11:39:33.138624   397 net.cpp:408] res4_8_res4_8_0_split -> res4_8_res4_8_0_split_1
I1219 11:39:33.138669   397 net.cpp:150] Setting up res4_8_res4_8_0_split
I1219 11:39:33.138682   397 net.cpp:157] Top shape: 16 256 12 10 (491520)
I1219 11:39:33.138689   397 net.cpp:157] Top shape: 16 256 12 10 (491520)
I1219 11:39:33.138695   397 net.cpp:165] Memory required for data: 391659712
I1219 11:39:33.138700   397 layer_factory.hpp:77] Creating layer conv4_9
I1219 11:39:33.138715   397 net.cpp:100] Creating Layer conv4_9
I1219 11:39:33.138721   397 net.cpp:434] conv4_9 <- res4_8_res4_8_0_split_0
I1219 11:39:33.138731   397 net.cpp:408] conv4_9 -> conv4_9
I1219 11:39:33.161068   397 net.cpp:150] Setting up conv4_9
I1219 11:39:33.161090   397 net.cpp:157] Top shape: 16 256 12 10 (491520)
I1219 11:39:33.161097   397 net.cpp:165] Memory required for data: 393625792
I1219 11:39:33.161105   397 layer_factory.hpp:77] Creating layer relu4_9
I1219 11:39:33.161118   397 net.cpp:100] Creating Layer relu4_9
I1219 11:39:33.161124   397 net.cpp:434] relu4_9 <- conv4_9
I1219 11:39:33.161132   397 net.cpp:395] relu4_9 -> conv4_9 (in-place)
I1219 11:39:33.161278   397 net.cpp:150] Setting up relu4_9
I1219 11:39:33.161288   397 net.cpp:157] Top shape: 16 256 12 10 (491520)
I1219 11:39:33.161293   397 net.cpp:165] Memory required for data: 395591872
I1219 11:39:33.161300   397 layer_factory.hpp:77] Creating layer conv4_10
I1219 11:39:33.161319   397 net.cpp:100] Creating Layer conv4_10
I1219 11:39:33.161324   397 net.cpp:434] conv4_10 <- conv4_9
I1219 11:39:33.161334   397 net.cpp:408] conv4_10 -> conv4_10
I1219 11:39:33.183701   397 net.cpp:150] Setting up conv4_10
I1219 11:39:33.183722   397 net.cpp:157] Top shape: 16 256 12 10 (491520)
I1219 11:39:33.183727   397 net.cpp:165] Memory required for data: 397557952
I1219 11:39:33.183737   397 layer_factory.hpp:77] Creating layer relu4_10
I1219 11:39:33.183749   397 net.cpp:100] Creating Layer relu4_10
I1219 11:39:33.183756   397 net.cpp:434] relu4_10 <- conv4_10
I1219 11:39:33.183764   397 net.cpp:395] relu4_10 -> conv4_10 (in-place)
I1219 11:39:33.183910   397 net.cpp:150] Setting up relu4_10
I1219 11:39:33.183920   397 net.cpp:157] Top shape: 16 256 12 10 (491520)
I1219 11:39:33.183926   397 net.cpp:165] Memory required for data: 399524032
I1219 11:39:33.183933   397 layer_factory.hpp:77] Creating layer res4_10
I1219 11:39:33.183943   397 net.cpp:100] Creating Layer res4_10
I1219 11:39:33.183948   397 net.cpp:434] res4_10 <- res4_8_res4_8_0_split_1
I1219 11:39:33.183955   397 net.cpp:434] res4_10 <- conv4_10
I1219 11:39:33.183965   397 net.cpp:408] res4_10 -> res4_10
I1219 11:39:33.183997   397 net.cpp:150] Setting up res4_10
I1219 11:39:33.184010   397 net.cpp:157] Top shape: 16 256 12 10 (491520)
I1219 11:39:33.184015   397 net.cpp:165] Memory required for data: 401490112
I1219 11:39:33.184026   397 layer_factory.hpp:77] Creating layer conv4
I1219 11:39:33.184057   397 net.cpp:100] Creating Layer conv4
I1219 11:39:33.184065   397 net.cpp:434] conv4 <- res4_10
I1219 11:39:33.184082   397 net.cpp:408] conv4 -> conv4
I1219 11:39:33.195747   397 net.cpp:150] Setting up conv4
I1219 11:39:33.195765   397 net.cpp:157] Top shape: 16 512 10 8 (655360)
I1219 11:39:33.195768   397 net.cpp:165] Memory required for data: 404111552
I1219 11:39:33.195775   397 layer_factory.hpp:77] Creating layer relu4
I1219 11:39:33.195782   397 net.cpp:100] Creating Layer relu4
I1219 11:39:33.195787   397 net.cpp:434] relu4 <- conv4
I1219 11:39:33.195792   397 net.cpp:395] relu4 -> conv4 (in-place)
I1219 11:39:33.198354   397 net.cpp:150] Setting up relu4
I1219 11:39:33.198374   397 net.cpp:157] Top shape: 16 512 10 8 (655360)
I1219 11:39:33.198379   397 net.cpp:165] Memory required for data: 406732992
I1219 11:39:33.198385   397 layer_factory.hpp:77] Creating layer pool4
I1219 11:39:33.198396   397 net.cpp:100] Creating Layer pool4
I1219 11:39:33.198402   397 net.cpp:434] pool4 <- conv4
I1219 11:39:33.198410   397 net.cpp:408] pool4 -> pool4
I1219 11:39:33.198464   397 net.cpp:150] Setting up pool4
I1219 11:39:33.198472   397 net.cpp:157] Top shape: 16 512 5 4 (163840)
I1219 11:39:33.198475   397 net.cpp:165] Memory required for data: 407388352
I1219 11:39:33.198479   397 layer_factory.hpp:77] Creating layer pool4_pool4_0_split
I1219 11:39:33.198496   397 net.cpp:100] Creating Layer pool4_pool4_0_split
I1219 11:39:33.198501   397 net.cpp:434] pool4_pool4_0_split <- pool4
I1219 11:39:33.198508   397 net.cpp:408] pool4_pool4_0_split -> pool4_pool4_0_split_0
I1219 11:39:33.198518   397 net.cpp:408] pool4_pool4_0_split -> pool4_pool4_0_split_1
I1219 11:39:33.198554   397 net.cpp:150] Setting up pool4_pool4_0_split
I1219 11:39:33.198560   397 net.cpp:157] Top shape: 16 512 5 4 (163840)
I1219 11:39:33.198565   397 net.cpp:157] Top shape: 16 512 5 4 (163840)
I1219 11:39:33.198570   397 net.cpp:165] Memory required for data: 408699072
I1219 11:39:33.198573   397 layer_factory.hpp:77] Creating layer conv5_1
I1219 11:39:33.198585   397 net.cpp:100] Creating Layer conv5_1
I1219 11:39:33.198590   397 net.cpp:434] conv5_1 <- pool4_pool4_0_split_0
I1219 11:39:33.198596   397 net.cpp:408] conv5_1 -> conv5_1
I1219 11:39:33.261762   397 net.cpp:150] Setting up conv5_1
I1219 11:39:33.261781   397 net.cpp:157] Top shape: 16 512 5 4 (163840)
I1219 11:39:33.261786   397 net.cpp:165] Memory required for data: 409354432
I1219 11:39:33.261811   397 layer_factory.hpp:77] Creating layer relu5_1
I1219 11:39:33.261817   397 net.cpp:100] Creating Layer relu5_1
I1219 11:39:33.261823   397 net.cpp:434] relu5_1 <- conv5_1
I1219 11:39:33.261831   397 net.cpp:395] relu5_1 -> conv5_1 (in-place)
I1219 11:39:33.261943   397 net.cpp:150] Setting up relu5_1
I1219 11:39:33.261953   397 net.cpp:157] Top shape: 16 512 5 4 (163840)
I1219 11:39:33.261957   397 net.cpp:165] Memory required for data: 410009792
I1219 11:39:33.261963   397 layer_factory.hpp:77] Creating layer conv5_2
I1219 11:39:33.261975   397 net.cpp:100] Creating Layer conv5_2
I1219 11:39:33.261979   397 net.cpp:434] conv5_2 <- conv5_1
I1219 11:39:33.261986   397 net.cpp:408] conv5_2 -> conv5_2
I1219 11:39:33.324826   397 net.cpp:150] Setting up conv5_2
I1219 11:39:33.324843   397 net.cpp:157] Top shape: 16 512 5 4 (163840)
I1219 11:39:33.324848   397 net.cpp:165] Memory required for data: 410665152
I1219 11:39:33.324856   397 layer_factory.hpp:77] Creating layer relu5_2
I1219 11:39:33.324864   397 net.cpp:100] Creating Layer relu5_2
I1219 11:39:33.324870   397 net.cpp:434] relu5_2 <- conv5_2
I1219 11:39:33.324877   397 net.cpp:395] relu5_2 -> conv5_2 (in-place)
I1219 11:39:33.324971   397 net.cpp:150] Setting up relu5_2
I1219 11:39:33.324980   397 net.cpp:157] Top shape: 16 512 5 4 (163840)
I1219 11:39:33.324983   397 net.cpp:165] Memory required for data: 411320512
I1219 11:39:33.324988   397 layer_factory.hpp:77] Creating layer res5_2
I1219 11:39:33.325001   397 net.cpp:100] Creating Layer res5_2
I1219 11:39:33.325012   397 net.cpp:434] res5_2 <- pool4_pool4_0_split_1
I1219 11:39:33.325032   397 net.cpp:434] res5_2 <- conv5_2
I1219 11:39:33.325040   397 net.cpp:408] res5_2 -> res5_2
I1219 11:39:33.325072   397 net.cpp:150] Setting up res5_2
I1219 11:39:33.325079   397 net.cpp:157] Top shape: 16 512 5 4 (163840)
I1219 11:39:33.325083   397 net.cpp:165] Memory required for data: 411975872
I1219 11:39:33.325086   397 layer_factory.hpp:77] Creating layer res5_2_res5_2_0_split
I1219 11:39:33.325095   397 net.cpp:100] Creating Layer res5_2_res5_2_0_split
I1219 11:39:33.325099   397 net.cpp:434] res5_2_res5_2_0_split <- res5_2
I1219 11:39:33.325104   397 net.cpp:408] res5_2_res5_2_0_split -> res5_2_res5_2_0_split_0
I1219 11:39:33.325111   397 net.cpp:408] res5_2_res5_2_0_split -> res5_2_res5_2_0_split_1
I1219 11:39:33.325150   397 net.cpp:150] Setting up res5_2_res5_2_0_split
I1219 11:39:33.325156   397 net.cpp:157] Top shape: 16 512 5 4 (163840)
I1219 11:39:33.325161   397 net.cpp:157] Top shape: 16 512 5 4 (163840)
I1219 11:39:33.325165   397 net.cpp:165] Memory required for data: 413286592
I1219 11:39:33.325168   397 layer_factory.hpp:77] Creating layer conv5_3
I1219 11:39:33.325179   397 net.cpp:100] Creating Layer conv5_3
I1219 11:39:33.325184   397 net.cpp:434] conv5_3 <- res5_2_res5_2_0_split_0
I1219 11:39:33.325192   397 net.cpp:408] conv5_3 -> conv5_3
I1219 11:39:33.389164   397 net.cpp:150] Setting up conv5_3
I1219 11:39:33.389185   397 net.cpp:157] Top shape: 16 512 5 4 (163840)
I1219 11:39:33.389189   397 net.cpp:165] Memory required for data: 413941952
I1219 11:39:33.389196   397 layer_factory.hpp:77] Creating layer relu5_3
I1219 11:39:33.389204   397 net.cpp:100] Creating Layer relu5_3
I1219 11:39:33.389209   397 net.cpp:434] relu5_3 <- conv5_3
I1219 11:39:33.389216   397 net.cpp:395] relu5_3 -> conv5_3 (in-place)
I1219 11:39:33.389313   397 net.cpp:150] Setting up relu5_3
I1219 11:39:33.389322   397 net.cpp:157] Top shape: 16 512 5 4 (163840)
I1219 11:39:33.389324   397 net.cpp:165] Memory required for data: 414597312
I1219 11:39:33.389329   397 layer_factory.hpp:77] Creating layer conv5_4
I1219 11:39:33.389343   397 net.cpp:100] Creating Layer conv5_4
I1219 11:39:33.389348   397 net.cpp:434] conv5_4 <- conv5_3
I1219 11:39:33.389356   397 net.cpp:408] conv5_4 -> conv5_4
I1219 11:39:33.490520   397 net.cpp:150] Setting up conv5_4
I1219 11:39:33.490555   397 net.cpp:157] Top shape: 16 512 5 4 (163840)
I1219 11:39:33.490562   397 net.cpp:165] Memory required for data: 415252672
I1219 11:39:33.490574   397 layer_factory.hpp:77] Creating layer relu5_4
I1219 11:39:33.490586   397 net.cpp:100] Creating Layer relu5_4
I1219 11:39:33.490595   397 net.cpp:434] relu5_4 <- conv5_4
I1219 11:39:33.490607   397 net.cpp:395] relu5_4 -> conv5_4 (in-place)
I1219 11:39:33.490752   397 net.cpp:150] Setting up relu5_4
I1219 11:39:33.490763   397 net.cpp:157] Top shape: 16 512 5 4 (163840)
I1219 11:39:33.490769   397 net.cpp:165] Memory required for data: 415908032
I1219 11:39:33.490777   397 layer_factory.hpp:77] Creating layer res5_4
I1219 11:39:33.490792   397 net.cpp:100] Creating Layer res5_4
I1219 11:39:33.490798   397 net.cpp:434] res5_4 <- res5_2_res5_2_0_split_1
I1219 11:39:33.490806   397 net.cpp:434] res5_4 <- conv5_4
I1219 11:39:33.490814   397 net.cpp:408] res5_4 -> res5_4
I1219 11:39:33.490850   397 net.cpp:150] Setting up res5_4
I1219 11:39:33.490860   397 net.cpp:157] Top shape: 16 512 5 4 (163840)
I1219 11:39:33.490865   397 net.cpp:165] Memory required for data: 416563392
I1219 11:39:33.490871   397 layer_factory.hpp:77] Creating layer res5_4_res5_4_0_split
I1219 11:39:33.490883   397 net.cpp:100] Creating Layer res5_4_res5_4_0_split
I1219 11:39:33.490890   397 net.cpp:434] res5_4_res5_4_0_split <- res5_4
I1219 11:39:33.490897   397 net.cpp:408] res5_4_res5_4_0_split -> res5_4_res5_4_0_split_0
I1219 11:39:33.490906   397 net.cpp:408] res5_4_res5_4_0_split -> res5_4_res5_4_0_split_1
I1219 11:39:33.490967   397 net.cpp:150] Setting up res5_4_res5_4_0_split
I1219 11:39:33.490988   397 net.cpp:157] Top shape: 16 512 5 4 (163840)
I1219 11:39:33.491017   397 net.cpp:157] Top shape: 16 512 5 4 (163840)
I1219 11:39:33.491024   397 net.cpp:165] Memory required for data: 417874112
I1219 11:39:33.491029   397 layer_factory.hpp:77] Creating layer conv5_5
I1219 11:39:33.491050   397 net.cpp:100] Creating Layer conv5_5
I1219 11:39:33.491057   397 net.cpp:434] conv5_5 <- res5_4_res5_4_0_split_0
I1219 11:39:33.491071   397 net.cpp:408] conv5_5 -> conv5_5
I1219 11:39:33.575862   397 net.cpp:150] Setting up conv5_5
I1219 11:39:33.575887   397 net.cpp:157] Top shape: 16 512 5 4 (163840)
I1219 11:39:33.575893   397 net.cpp:165] Memory required for data: 418529472
I1219 11:39:33.575903   397 layer_factory.hpp:77] Creating layer relu5_5
I1219 11:39:33.575914   397 net.cpp:100] Creating Layer relu5_5
I1219 11:39:33.575922   397 net.cpp:434] relu5_5 <- conv5_5
I1219 11:39:33.575929   397 net.cpp:395] relu5_5 -> conv5_5 (in-place)
I1219 11:39:33.576061   397 net.cpp:150] Setting up relu5_5
I1219 11:39:33.576078   397 net.cpp:157] Top shape: 16 512 5 4 (163840)
I1219 11:39:33.576084   397 net.cpp:165] Memory required for data: 419184832
I1219 11:39:33.576092   397 layer_factory.hpp:77] Creating layer conv5_6
I1219 11:39:33.576107   397 net.cpp:100] Creating Layer conv5_6
I1219 11:39:33.576113   397 net.cpp:434] conv5_6 <- conv5_5
I1219 11:39:33.576124   397 net.cpp:408] conv5_6 -> conv5_6
I1219 11:39:33.661136   397 net.cpp:150] Setting up conv5_6
I1219 11:39:33.661185   397 net.cpp:157] Top shape: 16 512 5 4 (163840)
I1219 11:39:33.661192   397 net.cpp:165] Memory required for data: 419840192
I1219 11:39:33.661206   397 layer_factory.hpp:77] Creating layer relu5_6
I1219 11:39:33.661218   397 net.cpp:100] Creating Layer relu5_6
I1219 11:39:33.661227   397 net.cpp:434] relu5_6 <- conv5_6
I1219 11:39:33.661237   397 net.cpp:395] relu5_6 -> conv5_6 (in-place)
I1219 11:39:33.661382   397 net.cpp:150] Setting up relu5_6
I1219 11:39:33.661393   397 net.cpp:157] Top shape: 16 512 5 4 (163840)
I1219 11:39:33.661398   397 net.cpp:165] Memory required for data: 420495552
I1219 11:39:33.661406   397 layer_factory.hpp:77] Creating layer res5_6
I1219 11:39:33.661417   397 net.cpp:100] Creating Layer res5_6
I1219 11:39:33.661428   397 net.cpp:434] res5_6 <- res5_4_res5_4_0_split_1
I1219 11:39:33.661437   397 net.cpp:434] res5_6 <- conv5_6
I1219 11:39:33.661444   397 net.cpp:408] res5_6 -> res5_6
I1219 11:39:33.661479   397 net.cpp:150] Setting up res5_6
I1219 11:39:33.661489   397 net.cpp:157] Top shape: 16 512 5 4 (163840)
I1219 11:39:33.661494   397 net.cpp:165] Memory required for data: 421150912
I1219 11:39:33.661499   397 layer_factory.hpp:77] Creating layer fc5
I1219 11:39:33.661514   397 net.cpp:100] Creating Layer fc5
I1219 11:39:33.661520   397 net.cpp:434] fc5 <- res5_6
I1219 11:39:33.661528   397 net.cpp:408] fc5 -> fc5
I1219 11:39:33.709470   397 net.cpp:150] Setting up fc5
I1219 11:39:33.709511   397 net.cpp:157] Top shape: 16 512 (8192)
I1219 11:39:33.709517   397 net.cpp:165] Memory required for data: 421183680
I1219 11:39:33.709529   397 layer_factory.hpp:77] Creating layer fc6
I1219 11:39:33.709545   397 net.cpp:100] Creating Layer fc6
I1219 11:39:33.709554   397 net.cpp:434] fc6 <- fc5
I1219 11:39:33.709568   397 net.cpp:408] fc6 -> fc6
I1219 11:39:33.906208   397 net.cpp:150] Setting up fc6
I1219 11:39:33.906268   397 net.cpp:157] Top shape: 16 43074 (689184)
I1219 11:39:33.906275   397 net.cpp:165] Memory required for data: 423940416
I1219 11:39:33.906288   397 layer_factory.hpp:77] Creating layer fc6_fc6_0_split
I1219 11:39:33.906303   397 net.cpp:100] Creating Layer fc6_fc6_0_split
I1219 11:39:33.906313   397 net.cpp:434] fc6_fc6_0_split <- fc6
I1219 11:39:33.906327   397 net.cpp:408] fc6_fc6_0_split -> fc6_fc6_0_split_0
I1219 11:39:33.906339   397 net.cpp:408] fc6_fc6_0_split -> fc6_fc6_0_split_1
I1219 11:39:33.906404   397 net.cpp:150] Setting up fc6_fc6_0_split
I1219 11:39:33.906414   397 net.cpp:157] Top shape: 16 43074 (689184)
I1219 11:39:33.906421   397 net.cpp:157] Top shape: 16 43074 (689184)
I1219 11:39:33.906440   397 net.cpp:165] Memory required for data: 429453888
I1219 11:39:33.906471   397 layer_factory.hpp:77] Creating layer softmax
I1219 11:39:33.906481   397 net.cpp:100] Creating Layer softmax
I1219 11:39:33.906488   397 net.cpp:434] softmax <- fc6_fc6_0_split_0
I1219 11:39:33.906498   397 net.cpp:408] softmax -> prob
I1219 11:39:33.906648   397 net.cpp:150] Setting up softmax
I1219 11:39:33.906658   397 net.cpp:157] Top shape: 16 43074 (689184)
I1219 11:39:33.906664   397 net.cpp:165] Memory required for data: 432210624
I1219 11:39:33.906669   397 layer_factory.hpp:77] Creating layer accuracy
I1219 11:39:33.906679   397 net.cpp:100] Creating Layer accuracy
I1219 11:39:33.906687   397 net.cpp:434] accuracy <- prob
I1219 11:39:33.906693   397 net.cpp:434] accuracy <- label_data_1_split_0
I1219 11:39:33.906702   397 net.cpp:408] accuracy -> accuracy
…
